ddqn_lunar_lander_v3_checkpoint.pth (torch, 346734 bytes, 18 tensors)

fc1.weight f4 [128, 8]
000000 84 6b dd be 41 3f 0f bf df 09 07 3f d1 7d a8 be
       -0.4324609 -0.5595589 0.5274944 -0.3290849
000010 2b 02 77 bf 05 5c 67 be de 37 1e 3d 89 12 52 3d
       -0.96487683 -0.22593696 0.038627498 0.051287208
000020 5d e3 43 be 2b 8a e5 3d 06 1b 0b be 2b 06 82 be
       -0.19129701 0.11207994 -0.13584527 -0.2539533
000030 ee 4c 0c 3f e3 ba 01 bf 88 18 0e bf 88 a0 64 ba
       0.54804885 -0.5067579 -0.5550618 -0.0008721431
000040 51 3f 95 be 80 31 20 3f da 6c 68 be 4c fe 0e be
       -0.2914987 0.6257553 -0.22697774 -0.13964194
000050 6b e3 79 3e ed 5f f6 bd 8a 5e 48 3d 51 f7 18 bf
       0.2440316 -0.12030015 0.048918284 -0.59752375
000060 ee 26 67 be 8b db 8c bd e4 ef c5 bd 07 9b 2d be
       -0.22573444 -0.06877812 -0.09664896 -0.1695367
000070 e4 6c 35 3f f8 0b 4e 3f 35 f4 1b 3e 46 d2 77 bf
       0.7086928 0.8048701 0.15229876 -0.96805227
000080 09 c6 d3 be 59 af d6 3d 12 f3 2e be 4e 60 36 bf
       -0.41362026 0.10482664 -0.17084911 -0.712407
000090 51 05 73 3e 6d 34 b4 be 18 02 3b 3e a8 47 cb 3e
       0.23732497 -0.35196248 0.18262517 0.39703107
0000a0 be ff 91 3e 6c 5e 51 be 1f 7d 5e 3e 9a 22 9b bd
       0.28515428 -0.20446175 0.21727417 -0.07574959
0000b0 45 3c c3 3e 92 0b 0a 3f 2e d1 d5 3e 7f f0 ee 3e
       0.3813192 0.53923905 0.41761154 0.4666786
0000c0 75 bc 15 3f 40 96 c2 3c 8e 51 99 3e c1 84 07 be
       0.5849069 0.023753285 0.29945034 -0.13234235
0000d0 db 75 c5 be 1b 4d 09 bf e1 fe 7d bf d2 62 5c 3e
       -0.3856648 -0.5363328 -0.9921704 0.21522072
0000e0 80 2f 41 3e fa cd 12 3f fe fa cb be a0 04 72 bf
       0.18865776 0.57345545 -0.3983993 -0.9453831
0000f0 a9 29 ad be ac 8b 84 bd b6 2f 92 3e 37 de dd 3d
       -0.33820847 -0.06471953 0.28552026 0.108334
000100 77 28 2f 3c fe 87 a2 3d 84 4c 79 3e d6 1f e7 3d
       0.0106908 0.07936095 0.24345595 0.11285369
000110 cd 74 26 3d 4a 5a 84 be b8 fb c8 be e2 d4 c3 3d
       0.040638734 -0.25850135 -0.39254546 0.095620885
000120 97 0d bd 3d 90 6a 5f 3e 3e 83 5d bd 80 a8 49 3e
       0.09231108 0.21817994 -0.05408024 0.19693184
000130 29 a2 ce 3e 15 75 2e 3f 2e 01 37 bd 2a 5f 7e 3c
       0.40358093 0.68147403 -0.04467886 0.015525619
000140 a0 a4 0f ba b0 d4 01 c0 a6 c0 a5 3e d4 f4 8b 3f
       -0.0005479548 -2.0286064 0.32373542 1.0934091
000150 1d 60 84 be ad 77 d3 be cd 8a d1 3e 37 02 f5 3e
       -0.2585458 -0.41302243 0.4092621 0.47853252
000160 3b b3 15 bf b3 8f 96 3d ad 17 90 3b 34 f1 c4 bd
       -0.5847661 0.07351627 0.0043973536 -0.09616318
000170 ca aa 86 3f cd 09 8e 3d e3 86 8a 3e e9 ba ef 3c
       1.0520871 0.06935463 0.27056035 0.02926393
000180 26 a8 23 be 35 18 c2 3e 94 45 9c be 9e af 2c be
       -0.15982112 0.37909093 -0.30521834 -0.16863868
000190 42 f9 1f be c6 c6 f9 3c a5 26 d9 3e ad bb 53 3e
       -0.15622428 0.03049029 0.42412296 0.20677061
0001a0 a1 b6 c7 3c b8 e0 24 3f 9c 43 32 3c db 4a 9e be
       0.024379076 0.64405394 0.010880377 -0.30916485
0001b0 ff b3 ba 3e 49 d7 40 3f 0e 57 a4 3e a7 18 98 be
       0.3646545 0.753285 0.32097667 -0.29706308
0001c0 68 7e 4e be 6e 28 41 bb d2 37 69 3e 02 02 aa be
       -0.20165408 -0.002947356 0.227752 -0.33204657
0001d0 9b 87 bb 3c 82 2d ef be e4 fe 91 3c a3 5e f5 3e
       0.02289181 -0.46714407 0.017821737 0.47923765
0001e0 47 7f 1f 3e d9 9f 5b bc 71 27 fb be bb 5b 6d bf
       0.15575896 -0.01340481 -0.4905353 -0.92718095
0001f0 0b 09 13 be 3b e9 26 be c3 d4 82 3e 5a bb 33 3e
       -0.14358918 -0.16299908 0.2555295 0.17551938
000200 b1 3c 83 bf 1b d9 4a 3d fc 96 c4 be 59 56 94 bd
       -1.0252897 0.049523454 -0.38396442 -0.07243032
000210 bf a0 ee 3e 7b a5 16 bd 7f 09 4c 3c 59 13 9d bc
       0.46607015 -0.03677891 0.012453436 -0.019174265
000220 de 95 ec 3e a9 92 43 3e c8 2d 01 bf 4b e3 21 bf
       0.4620809 0.19098915 -0.5046048 -0.63237447
000230 18 8e 91 ba 21 1f 0c bf 5c fb 02 bf 44 8b ac 3c
       -0.0011104969 -0.54735 -0.51164794 0.0210625
000240 b0 c0 88 3e d9 1d b7 bf 31 ca 6e 3e 52 17 46 bf
       0.2670951 -1.4305984 0.23319317 -0.77379334
000250 34 95 23 be 51 14 8f be c7 d4 45 3e 0a 17 ac be
       -0.15974885 -0.27945188 0.1931945 -0.33611327
000260 12 b9 24 bf dc f3 ae 3c d7 57 11 bf a0 d3 73 bd
       -0.64344895 0.021356516 -0.5677466 -0.059527993
000270 04 76 9a bd a2 fd b8 be ed a3 66 be 26 aa 4a 3e
       -0.07542041 -0.36131006 -0.2252347 0.19791469
000280 6d 5f 23 be d9 c8 90 bf 95 b8 a8 3d ff f6 81 bf
       -0.15954371 -1.1311294 0.08238331 -1.0153502
000290 c5 91 fe bd 74 e9 46 3c 3a 69 57 3c 34 7a b7 bd
       -0.12430147 0.0121406205 0.013147647 -0.08958855
0002a0 8d 0e 90 3e 52 40 67 3f c9 7a 9f be ac d1 63 bf
       0.281361 0.9033252 -0.31148365 -0.8899181
0002b0 de 70 da bd 19 f8 c9 bd 5c d4 d8 bc db 21 98 3e
       -0.10666059 -0.09861774 -0.026468448 0.2971333
0002c0 40 3c 37 3e 6c f6 66 bf 00 bb 7d be 32 2f 91 3f
       0.17894077 -0.9021976 -0.24778366 1.1342528
0002d0 ee 71 d7 3e d2 fb cb 3e f8 a4 01 3e 6b 59 29 3f
       0.4207911 0.3984056 0.12660587 0.66152066
0002e0 ca de 2a 3e cd d2 dc 3e ae be 66 3e ac bb e8 3d
       0.1668655 0.43129578 0.22533676 0.113639206
0002f0 39 cf 64 bf 7f b6 74 be ce 62 d8 bd 95 bc 98 be
       -0.89378697 -0.23897742 -0.105657205 -0.29831377
000300 b2 37 f2 3e d7 3a e9 bd 40 d4 eb 3d 18 a6 67 3d
       0.47308117 -0.11388176 0.11515093 0.056554884
000310 2f 3b 29 bf dd f2 22 bd aa f9 f1 3e 32 c3 9e 3d
       -0.6610593 -0.039782394 0.4726079 0.07752074
000320 ea 30 97 be 11 1c 40 3f 9c 87 f4 bd 2c 98 a3 be
       -0.29529506 0.75042826 -0.11939928 -0.31952035
000330 38 ad fb 3d cb ce 1f bf 2b 5d e8 be 3e ae 5f 3d
       0.12288898 -0.62424916 -0.45383582 0.05460953
000340 dd 95 02 be 3d d4 de bd 26 ba bc 3d 82 79 9b bd
       -0.12752481 -0.10880325 0.092151925 -0.07591535
000350 a3 c8 0d 3e 74 c1 11 be f7 be a1 be 70 92 63 bd
       0.13846068 -0.14233953 -0.31591007 -0.055559576
000360 fb c8 80 3f 9b fc 17 be b0 6d e4 3e b6 5e b8 be
       1.0061334 -0.14842455 0.44614935 -0.3600976
000370 f7 c6 22 bf 61 0d 9b bd 46 b1 a7 3e f0 72 25 be
       -0.63584846 -0.07570911 0.32752436 -0.16157126
000380 71 2c 94 bf fc d1 32 3e 35 ee 42 bf 73 38 2b be
       -1.1576062 0.17462915 -0.76144725 -0.16720752
000390 37 e4 d7 3e 3a df 6d 3e e6 64 55 be 80 98 18 3e
       0.42166302 0.23229685 -0.20839271 0.14901924
0003a0 9f 2e d7 3e 14 3d 4b 3e 66 89 58 3e 73 41 84 3e
       0.42027757 0.19847518 0.21146163 0.25831184
0003b0 4d 52 25 bf db dd 0b bf 08 de 6c bd 47 ac c5 bd
       -0.64578706 -0.546354 -0.057828933 -0.09652
0003c0 d9 3e 70 be c0 5d 0a 3f 54 a9 52 be 42 cb 1e 3f
       -0.23461474 0.540493 -0.20572406 0.62028897
0003d0 73 59 2d bd 5b 73 90 3b 46 88 99 3b 93 68 e3 be
       -0.042321634 0.0044082827 0.0046854345 -0.4441572
0003e0 bd e5 26 bf 79 08 56 be 6c aa 80 3e 05 d9 2f 3f
       -0.651943 -0.2090167 0.25130022 0.6869052
0003f0 f0 38 09 bf 7c c8 04 3e 85 e1 06 3e f7 cc be 3d
       -0.53602505 0.12967104 0.13171966 0.09316438

fc1.bias f4 [128]
000000 dd a0 9c 3e e4 df fa 3e f4 94 31 3f 69 2c 2b 3e
       0.3059148 0.4899894 0.6936791 0.1671616
000010 46 45 a0 3d 03 34 c0 3e f5 4a 3a 3e ee 8f 8e 3e
       0.07825713 0.37539682 0.18192656 0.27844185
000020 81 d1 85 be 20 d8 17 3e 80 57 5d 3e 1d e2 77 be
       -0.261364 0.14828539 0.2161541 -0.24207349
000030 61 8a f4 3e 27 43 86 3e 2e 26 61 3e 18 29 bb 3e
       0.47761825 0.26223108 0.2198722 0.3655479
000040 82 05 e1 ba e4 42 1a be 15 ff d9 3e fa fd 9b 3c
       -0.0017167779 -0.15064579 0.42577425 0.019042004
000050 f1 84 ec 3e 56 f7 ec 3e 7c 50 1b 3c ae f1 f9 3e
       0.46195176 0.46282452 0.009479638 0.488172
000060 5f 82 89 be 18 47 01 3f e0 ea 94 be 28 cd d8 bd
       -0.26857278 0.50499105 -0.29085445 -0.105860054
000070 c2 57 df b9 06 be eb 3d 31 53 07 3e 35 14 fc 3e
       -0.0004259926 0.115108535 0.13215329 0.49234167
000080 96 5e 99 be 5d 20 4c be f9 9b b4 3e 53 07 a8 be
       -0.29954976 -0.1993422 0.35275248 -0.32818088
000090 c3 1f fb 3e 6b 05 2d 3e 27 fb 4a be 59 03 44 be
       0.4904767 0.16896598 -0.1982237 -0.19141902
0000a0 a7 90 34 bd b3 a5 cb be 13 f8 46 3e 26 f0 d9 bd
       -0.044083264 -0.39774856 0.1943057 -0.10641508
0000b0 78 11 e8 3c 86 4f 9b bc fa b4 19 3e 4f 19 8c 3e
       0.028328642 -0.018958818 0.15010443 0.2736306
0000c0 e3 11 2e 3f 56 ad d3 be 3f 62 43 3f 27 0b fd 3e
       0.6799604 -0.41343182 0.76321787 0.4942257
0000d0 25 97 a0 3e ab 49 8e 3e 6c 27 10 3f fe 88 ea 3c
       0.31365314 0.2779058 0.56310153 0.028629776
0000e0 10 2d c6 3d 16 67 eb bc a3 fa 9a 3d eb 73 07 be
       0.09676564 -0.028735679 0.075673364 -0.13227813
0000f0 81 59 ea 3e 2b 7b 73 3e 6e 71 e4 3d 1d f6 00 be
       0.4577141 0.23777454 0.111544475 -0.12593885
000100 96 02 15 3f 31 6a 17 3e cd 6f cb 3d 9e eb 9a 3d
       0.5820707 0.14786603 0.09933434 0.07564472
000110 d6 e3 1d 3f 94 8b 9b be 50 0d 68 bd 20 49 35 bd
       0.61675775 -0.30379927 -0.05665332 -0.04425919
000120 26 14 a7 3d 29 22 11 3f 3e a3 db 3e af 51 a5 3e
       0.0815814 0.5669275 0.4289798 0.32288882
000130 16 76 e6 3e 1e fe 25 3e 81 e2 f7 3e cb 19 c8 3e
       0.45011967 0.1621022 0.48414996 0.39082178
000140 6a 82 ca 3e 6f ee 3f be f9 b1 7f 3e 2d 8b 37 be
       0.39552623 -0.18743299 0.24970235 -0.17924185
000150 35 04 06 3f 93 40 94 bd f7 27 a7 3e 23 68 e9 3c
       0.5235017 -0.07238879 0.32647678 0.02849204
000160 d3 b1 b4 be 4f 74 69 be ab b8 1a be 7b bc 02 bb
       -0.3529192 -0.22798274 -0.15109508 -0.001994877
000170 1d aa 77 be 1a fb b2 3e b5 d7 3d be 06 14 8a 3c
       -0.24185987 0.349572 -0.18539317 0.016855251
000180 a6 f7 e7 3e 16 9f 6d 3d 67 d5 5f bc f9 e8 8b 3e
       0.45306128 0.058013044 -0.013661719 0.27326182
000190 f7 9b 65 3e b7 8f 8a be 9c 09 14 3e 01 4a 10 3f
       0.22422777 -0.2706277 0.1445679 0.5636292
0001a0 ad cd e2 3e 17 c6 bf 3e 0c be 80 be 13 3a af 3d
       0.44297543 0.37455818 -0.25144994 0.08555999
0001b0 86 de 12 3f 73 94 0c 3e d4 29 ba be c3 a0 51 3e
       0.57370794 0.13728504 -0.36360037 0.20471482
0001c0 d4 42 ad 3e ae a8 d0 3c ce bc 86 be 1b a9 90 be
       0.33840048 0.025471058 -0.26315922 -0.28254017
0001d0 57 6c 72 3e 9f 1a 27 3f 89 82 ea 3e 7f 8a db 3d
       0.23674141 0.65274996 0.45802715 0.107197754
0001e0 df a8 17 3e 90 73 80 3d 13 50 e5 be 0c 44 f1 bc
       0.14810513 0.06272042 -0.44787654 -0.029451393
0001f0 ca 66 af 3e 1a 54 58 be 6e 4f 3b 3f a3 6b e9 3d
       0.3425811 -0.21125832 0.73168075 0.11397483

fc2.weight f4 [128, 128]
000000 ee 30 42 bf f2 c9 83 3d da 45 f9 bd e7 c7 1e 3e
       -0.7585591 0.064350024 -0.12171526 0.15505944
000010 58 87 1d 3e 5d 12 92 3e 72 7a 89 3e b9 71 ce 3e
       0.15383661 0.28529635 0.2685123 0.40321139
000020 7e 1b cc 3e e2 8a d8 3e 0f 4b c0 bf ae 8b 78 3f
       0.39864725 0.4229346 -1.5022906 0.97088134
000030 8a 2f 08 3e 13 bb 66 3e a9 08 bf bc 5d c5 87 3e
       0.13299385 0.225323 -0.02331956 0.26517764
000040 11 4a 10 3f 63 0e 46 3e 05 eb ca 3d 0a 20 be bc
       0.56363016 0.19341426 0.09908108 -0.023208637
000050 b8 1a 45 be 59 78 a6 3e 95 72 be bf fb 30 69 be
       -0.19248474 0.32513693 -1.4878718 -0.22772591
000060 8d dc 05 3f 63 29 35 bd 6e 3a 88 bc 99 79 30 3f
       0.5228966 -0.044228923 -0.016629424 0.68935543
000070 7e 4c 94 3e ed db aa 3e 4f cd ca 3e 78 67 94 be
       0.2896461 0.33370915 0.39609763 -0.2898519
000080 cf 08 05 be a0 17 36 be ef 83 d8 be e5 4f 46 3f
       -0.12991641 -0.1778245 -0.42288157 0.7746566
000090 5a 0f 8a bc 4b 2a c1 3e a9 26 ab be 50 12 d3 3d
       -0.016853023 0.3772758 -0.33427933 0.10306227
0000a0 91 e5 e2 3e 54 5d 33 bf 17 c0 2e bd 40 45 eb 3e
       0.4431577 -0.7006428 -0.04266366 0.4595127
0000b0 19 b4 21 3d 38 2b 3c 3e e7 11 84 3e 26 37 7e bc
       0.039478395 0.18375862 0.25794908 -0.015516078
0000c0 87 96 c5 3d 7a df 5e 3e fd 4f 9d bd 7d 22 7a 3e
       0.096478514 0.21764937 -0.07681272 0.24427219
0000d0 8e 1a ab 3e 03 12 a8 3e 9a 3b dc 3d d9 1e 88 bd
       0.33418697 0.32826242 0.107535556 -0.06646509
0000e0 6d 73 0a 3e a6 02 9a 3e ad aa 17 bd 66 b6 e4 3e
       0.13520594 0.30080146 -0.037028003 0.4467041
0000f0 25 e0 c0 be a0 0b ff bd c2 cd b5 3d 72 bd 56 be
       -0.3767101 -0.12453389 0.08877136 -0.20970705
000100 39 33 f3 3d e8 7d 2e 3e 1f ca 23 bf da e9 2d bf
       0.11875004 0.17040217 -0.6398029 -0.67934954
000110 6f 98 3e be d2 fe a0 3e 25 98 a0 bd d0 c2 00 3f
       -0.18612836 0.31444412 -0.07841519 0.5029726
000120 f2 d0 ed be 34 e6 d1 3d 47 92 51 3e 30 02 33 3d
       -0.46448475 0.10248986 0.20465957 0.043703258
000130 ef 7e 05 3f 88 88 9d 3e 8f 28 15 be 52 74 ca 3e
       0.5214681 0.30768228 -0.14566253 0.3954187
000140 15 f7 e2 3e 8c e7 3d 3e dd d6 cf 3e c9 50 75 3f
       0.44329134 0.1854536 0.40593615 0.95826393
000150 c3 14 b1 3d 0e 2d 31 bf bf ed b1 bf 1c f3 a4 be
       0.08646538 -0.69209373 -1.3900679 -0.32216728
000160 8d 16 f7 3e 89 cb 99 bf 21 52 a2 3e 3a 18 a6 bd
       0.48259392 -1.2015239 0.31703284 -0.081100896
000170 22 9e 53 bf 01 f0 2a bf 01 37 a2 3e 73 f9 6b 3e
       -0.82663167 -0.66772467 0.3168259 0.23044376
000180 a5 da 2d be a5 e5 27 bf 7f b0 13 3f 94 19 2e 3e
       -0.16977938 -0.65584785 0.57691187 0.17001945
000190 1d 3e a2 3e 8c 15 37 bf 31 2b 7a be 11 9c 40 3e
       0.31688014 -0.7151725 -0.24430539 0.18809535
0001a0 bc f9 b1 3e 4b 8e bc be b8 48 89 3e 34 84 cf 3e
       0.34760845 -0.3682731 0.26813293 0.4053055
0001b0 3e 5c 53 3e 2c b9 f0 be b8 8b 22 3e ef 0b 75 3d
       0.20640656 -0.47016275 0.15873611 0.059825834
0001c0 08 8c c1 3e 83 34 f3 be 31 5b f4 3e 96 62 18 3e
       0.37802148 -0.47501 0.47725824 0.14881358
0001d0 0a 12 fd bd cf 97 24 3e 5f f2 26 3e 1f a7 47 3f
       -0.12356956 0.16073535 0.16303395 0.7798938
0001e0 b4 11 4e bf 36 76 31 be c8 2b 0b 3d 1d ce d1 be
       -0.8049576 -0.1733025 0.0339773 -0.40977564
0001f0 8f 18 66 3e 2e 10 ac 3e e8 ee 3f 3d 4e 8a cc bd
       0.22470306 0.33606094 0.046858698 -0.09987317
000200 84 5a 26 bf fb 2f d2 bd cb b6 c0 bc 00 ca 84 bd
       -0.64981866 -0.10263058 -0.023524662 -0.06483841
000210 f4 b1 3d 3d 00 a3 52 be 19 64 af 3d b0 47 ea 3d
       0.046312287 -0.20569992 0.08564014 0.114394546
000220 c5 eb 32 3f df be 92 3e 14 f7 6e bf b7 c3 9a 3e
       0.69891006 0.28661248 -0.9334576 0.30227444
000230 5d e0 b7 bd 87 06 68 3c 6b 4c 5f bd 97 ef 37 bd
       -0.08978341 0.0141617125 -0.054516237 -0.044906225
000240 e7 f0 07 3f 0f d7 c1 3d 25 90 0b bf 1c f4 3f 3e
       0.5310196 0.09464847 -0.5451682 0.18745464
000250 53 2e 30 bf 52 c2 ee 3d 17 41 9c bf 2d c5 27 be
       -0.68820685 0.116581574 -1.2207364 -0.1638381
000260 04 a7 0e 3e 4e 4b 06 bd b2 eb 8f 3d b0 8c 88 3e
       0.13930899 -0.03278666 0.07027377 0.26669836
000270 cd 44 8c 3e af ac 41 3e 37 0a 9f 3e 18 4f 52 be
       0.2739624 0.1891353 0.3106248 -0.20537984
000280 89 2c 38 be 86 0a c9 bd 57 a8 3d bf 87 02 5c 3f
       -0.17985739 -0.0981646 -0.7408499 0.85941356
000290 93 92 3e be b9 a6 ad 3e 94 cd e9 be 01 b0 00 bf
       -0.18610601 0.33916262 -0.45664656 -0.5026856
0002a0 31 70 61 3e d8 21 88 bf d0 ac 66 3e df c5 28 bd
       0.22015454 -1.0635328 0.2252686 -0.04120433
0002b0 95 e9 d4 3d 30 66 82 3e 40 59 11 3e ad b7 5d bd
       0.10396115 0.25468588 0.14194202 -0.054130245
0002c0 a9 34 12 be 1f ac 48 3e 04 97 c2 3d 19 6e ff 3c
       -0.14277901 0.19596909 0.0950146 0.031180428
0002d0 4a 89 c0 3d f0 ab cb 3d c1 d8 01 be 44 c8 0a 3e
       0.09401186 0.09944904 -0.12680341 0.13552958
0002e0 95 ec 53 3d 8d da 51 3e 2c a0 d8 bd 43 96 e3 3e
       0.051739294 0.20493527 -0.10577425 0.44450578
0002f0 c2 d7 1d bf 1c db c7 be 00 08 df 3d f4 ee 0e bf
       -0.61657345 -0.39034355 0.10890198 -0.55833364
000300 ee 64 1a be 52 75 1f bd bd 30 4b bf 66 e1 e4 be
       -0.15077564 -0.038930245 -0.79371244 -0.44703215
000310 df ec d1 bd 85 07 a3 3e 4c 00 1b be 79 07 fe 3e
       -0.10250258 0.31841674 -0.15136832 0.49615076
000320 d8 52 cf be db e6 f6 bd e9 f3 74 3e 68 a7 8d be
       -0.40492892 -0.12055751 0.2392117 -0.27666783
000330 11 98 ae 3e d8 80 65 bd a4 a4 2b bf dd 0c ed 3d
       0.34100392 -0.056031078 -0.67048097 0.11574719
000340 aa 2a a8 3c 91 f0 13 bd 01 cf a2 3e 84 9b e0 3e
       0.020528156 -0.036118094 0.31798556 0.4386865
000350 9d 00 d6 bd 95 bc 0c bf 08 a4 98 bf 41 00 20 3e
       -0.10449336 -0.54975253 -1.1925058 0.15625097
000360 20 b5 7f bc 24 32 20 bf f2 8a a7 bd 55 73 28 be
       -0.015607148 -0.6257651 -0.081807986 -0.16450246
000370 55 d6 54 bf 2b a3 6b bf 86 22 0f 3f d9 7e 2e 3f
       -0.83139545 -0.9204585 0.55912054 0.68162304
000380 62 f2 b8 be 8e b7 5c bf 57 5d 30 3f 09 a3 6c be
       -0.36122423 -0.8621758 0.68892425 -0.23109068
000390 f3 af 03 3e e5 f2 73 bf 66 ee 40 3d 49 4c 9c 3c
       0.12860088 -0.952925 0.047102354 0.019079344
0003a0 fc de c7 3d a2 e4 8c bd a3 8c 90 3e 9c 73 80 bd
       0.09759328 -0.06879546 0.28232297 -0.06272051
0003b0 30 fc 8d be 4c ea b4 be b2 34 9a be c1 95 2b be
       -0.27731466 -0.35335004 -0.30118328 -0.16756345
0003c0 5b 70 d2 3d 6d f3 1a 3e 54 78 a8 3e 1a 01 98 3e
       0.10275336 0.15131922 0.32904303 0.2968834
0003d0 d5 1c 7f ba f5 b6 93 be a2 bb ca bc d3 49 23 3e
       -0.00097317743 -0.28850523 -0.024747673 0.1594613
0003e0 a3 60 8e be ac b0 0b 3d e3 aa 70 3e f0 e3 96 be
       -0.27808103 0.034104034 0.23502688 -0.29470778
0003f0 cd b8 45 3d 9b 66 a2 3d 3e f3 bf bb 4c 5a 15 3c
       0.048271943 0.07929727 -0.005857854 0.009115767

fc2.bias f4 [128]
000000 bb 1c 77 3d 6c ea c8 bc 74 74 21 be 44 2c 2e 3e
       0.060330134 -0.024525844 -0.1576708 0.17009073
000010 d4 43 ad 3d 23 e2 b8 bd c9 7c 79 3e 70 4d 43 be
       0.08460203 -0.09027507 0.24364008 -0.19072509
000020 d2 81 e1 3d ea fe e8 bc 4e 76 75 3e b6 b8 6d bd
       0.110110894 -0.028441865 0.23970911 -0.058037482
000030 3c 43 8f bd a3 45 2c bd 9c 25 80 3e fe e5 47 3d
       -0.06995246 -0.0420586 0.25028694 0.048803322
000040 ce c7 1a 3e b9 d4 05 be 08 fb 1b 3e db 3c 97 3d
       0.15115282 -0.13069429 0.1523248 0.07384654
000050 86 89 45 3e bf 10 5c 3e 99 20 9d 3e 7b 9f 24 be
       0.19290742 0.21490763 0.30688933 -0.16076462
000060 30 cb 87 bd 9d f4 19 3e d0 93 38 be 0f e5 09 3e
       -0.06630552 0.15034719 -0.18025136 0.13466285
000070 c3 8b a0 3c 11 12 42 3e bb 71 75 3d 0c d9 ca 3d
       0.019597894 0.18952204 0.059922915 0.0990468
000080 7f ba ef 3c 31 4e 06 3e 94 81 9e 3d 6e 52 a2 3d
       0.029263733 0.13115765 0.07739559 0.079258785
000090 01 9e d3 3d 85 88 ce 3c f7 4a 8e 3e 5e d9 9d bc
       0.10332871 0.025211582 0.2779157 -0.019268688
0000a0 23 3b a3 bd 7b 8e 02 3e 1c 65 d4 bd a3 b2 9e bd
       -0.07970264 0.12749664 -0.103708476 -0.07748916
0000b0 2e c7 66 be a8 4a 5f bd 1b 19 91 3e a8 43 52 bc
       -0.22536919 -0.054514557 0.28339466 -0.012833513
0000c0 14 fc 61 3e c6 d5 73 3e 56 f5 34 be 55 f7 b8 3d
       0.22068816 0.23812017 -0.17671713 0.0903155
0000d0 fc a8 7d bc 7a d2 67 3e 32 e5 85 bd 38 40 d0 3d
       -0.015482184 0.22638884 -0.06537856 0.10168499
0000e0 af a5 c2 bc 80 fa a9 bd a4 09 15 3d fe 8b a1 3d
       -0.023760645 -0.08299732 0.036386147 0.078880295
0000f0 1b 93 58 3e 7a 99 60 3e 38 24 e7 bd 2d bf 48 bd
       0.21149866 0.21933547 -0.11286205 -0.049010444
000100 ed 35 29 3d b0 91 2d 3e b6 e7 41 bc 1b 98 8e 3e
       0.041311193 0.16950107 -0.011835029 0.27850422
000110 50 8e fa 3d 87 82 36 3e df ef 82 bd 04 ae 5c 3e
       0.12234175 0.1782323 -0.06393408 0.21550757
000120 89 cb 35 3d 43 11 c6 bb 17 8b 32 3c ae 46 57 3e
       0.04438356 -0.006044538 0.010897419 0.21023056
000130 16 79 b4 bd 62 26 70 bd fd 4d 3a 3e e3 cd 0f bd
       -0.08812158 -0.058630355 0.18193813 -0.03510846
000140 8f 4a 44 3d fb 93 24 3e d2 36 b7 bd 15 cd 80 3e
       0.047922667 0.16072075 -0.08946003 0.25156465
000150 84 a2 00 bc 18 42 97 bd 9b 21 55 be e6 46 84 3d
       -0.007851247 -0.07385653 -0.208136 0.06458835
000160 80 58 6f 3d 22 11 64 3e cf 07 ad bd 72 ad 40 3e
       0.05843401 0.2227216 -0.08448755 0.18816164
000170 d6 b2 89 3e 17 3c ef 3d 17 3a 58 bd 05 89 8e 3e
       0.26894253 0.11681383 -0.052789774 0.27838913
000180 f8 8e 60 3d 34 72 0a 3e 13 6f 22 bd 7c e3 db bd
       0.054823846 0.13520128 -0.03965671 -0.107367486
000190 37 e5 80 3e ed 48 32 be d6 00 2c 3e bd 93 df bc
       0.25174877 -0.17410631 0.16797194 -0.027292127
0001a0 ba b6 3c 3e 86 77 15 3e fb 16 56 be 92 90 4f bd
       0.1842908 0.14596376 -0.20907204 -0.050674982
0001b0 ec 52 37 3e d4 cb 43 bd fb a7 53 bc c2 bc 34 3e
       0.17902726 -0.047801808 -0.012918468 0.1765013
0001c0 60 26 93 3e 27 02 a0 3b 48 cb 53 3e 3c 14 ea 3d
       0.28740215 0.004883069 0.20683014 0.11429641
0001d0 04 97 8a bb df 31 1d 3e c2 95 0c 3e d3 37 b6 bc
       -0.0042294282 0.15351056 0.13729003 -0.022243416
0001e0 36 ec f7 3d d1 80 69 bd e2 5c 9a 3e e2 b1 e4 bd
       0.121056005 -0.057007615 0.3014899 -0.11166741
0001f0 2c eb bc 3d c3 a3 35 3d a2 b1 b9 3d c3 35 53 3e
       0.09224543 0.04434563 0.09067084 0.20625977

fc3.weight f4 [4, 128]
000000 bb 52 57 bf 47 6a d0 be 3b 44 dd be db ac 09 3e
       -0.8411061 -0.40706083 -0.43216118 0.13444845
000010 39 38 b8 bf 9b 7e fc bc 9e d3 14 3f 00 c1 94 be
       -1.4392158 -0.030822089 0.581354 -0.29053497
000020 7e 80 49 bf 4d 78 08 be ba b3 0d 3f d8 d1 17 bc
       -0.7871169 -0.13327141 0.55352366 -0.009266339
000030 36 e0 77 3c 79 b5 22 3f 0b 78 63 3f 85 50 84 bf
       0.01512914 0.63558155 0.88855046 -1.0337073
000040 9e 9a ba be 36 28 5b bf 5f db 0a 3f 16 68 98 bf
       -0.3644609 -0.8560823 0.54240984 -1.1906765
000050 c9 92 30 3f 73 cc 55 be 28 f3 39 3f 56 82 77 be
       0.68973976 -0.20878772 0.7263665 -0.24170813
000060 f1 75 74 3f b7 02 38 bf 7d 39 97 bf 5e 89 49 3f
       0.95492464 -0.7187914 -1.1814419 0.7872523
000070 ad 4e 91 be 72 06 28 3f ec a2 45 3f 48 37 60 bd
       -0.28380337 0.65634835 0.77201724 -0.05474022
000080 5b 7a 80 3f 72 11 bc be 52 d5 83 3e 01 41 46 bf
       1.003734 -0.3673206 0.25748688 -0.7744294
000090 a7 7f f8 be c5 96 1a bf 82 b0 41 3f c0 6c 5d 3e
       -0.4853489 -0.60386306 0.75659955 0.21623516
0000a0 a0 df a9 3c 10 02 12 bf c1 8f f4 be b2 37 a2 be
       0.020736516 -0.570344 -0.47765926 -0.31683117
0000b0 2c ac 2e bf 96 e9 54 bf db 78 26 3f e7 87 41 bf
       -0.68231463 -0.83168924 0.6502816 -0.75597996
0000c0 c0 f6 92 bf e9 f6 05 3f fa a8 06 bf 65 a6 0e bf
       -1.1481552 0.5232988 -0.5260159 -0.5572265
0000d0 96 a1 e2 bd 35 cd 29 bf 70 cb 43 bc cc a7 2c bf
       -0.11065976 -0.66328746 -0.011950359 -0.6744354
0000e0 03 b8 19 bf b5 fa 86 bf 84 df 1a 3d e3 95 b5 be
       -0.60046405 -1.054526 0.037810817 -0.35465917
0000f0 71 73 1b 3f db d4 ea be 4e c7 d7 be 96 8e 18 c0
       0.60723025 -0.4586552 -0.42144245 -2.3837028
000100 15 72 0e bf 65 9a 94 bf 4d f1 8a 3e e2 2f 79 3f
       -0.55642825 -1.1609617 0.27137223 0.9733869
000110 1d 5f 8a bd 9f 0a 0d 3f 0b 85 03 bf d1 a7 b7 3e
       -0.06756423 0.5509433 -0.5137488 0.3587022
000120 c7 ae b3 be 15 66 37 bd 92 2a 8b be b0 9f 1c 3f
       -0.35094282 -0.044775087 -0.27180916 0.61181164
000130 ca c7 05 bf 32 89 1f bf 4a 8d 3c 3f c5 98 88 3e
       -0.5225798 -0.6231872 0.7365309 0.26679054
000140 b6 eb d7 bf f0 1f 43 bf 75 0a e2 be ce 40 f2 3e
       -1.6868808 -0.7622061 -0.44148603 0.47315067
000150 aa 02 32 3f 84 c0 42 bf dd 29 91 be ae 43 63 bf
       0.69535315 -0.76075006 -0.28352252 -0.88775146
000160 fd dc 89 be bb a8 69 3f d4 86 c9 be ca 31 74 bf
       -0.26926413 0.9127309 -0.39360678 -0.9538847
000170 ee 72 5f 3f 43 31 80 bf 2f 9d 99 be dd 84 3e 3f
       0.87284744 -1.0015033 -0.30002734 0.74421483
000180 88 ca 05 bf 23 7c 91 bf 9d bc 8d 3f 3d 59 62 be
       -0.52262163 -1.1366009 1.1073185 -0.22104354
000190 e1 ae 4b 3f 79 c9 91 bf ba 04 0c 3f da 88 46 bf
       0.7956372 -1.138961 0.5469471 -0.7755257
0001a0 2c e2 d2 3e c1 6a 6b bf 1c b7 fe 3d ac 4f 8d bc
       0.4118818 -0.9195977 0.12437269 -0.017249905
0001b0 48 b3 29 3f 7f 1e 8c 3d 9a f3 6f bf 09 a6 e7 3e
       0.66289186 0.06841754 -0.9373108 0.45243862
0001c0 a4 c3 29 3f 18 90 a6 bf b0 f3 9a bf ff a8 01 3f
       0.6631415 -1.3012724 -1.2105618 0.5064849
0001d0 51 5f 14 bf 99 30 31 bf 0e 79 20 bf 11 39 1f bf
       -0.5795794 -0.6921478 -0.62684715 -0.6219645
0001e0 f7 cc e4 be 3a 4b 32 bf f9 13 58 3f f5 5f 64 3f
       -0.44687626 -0.69646037 0.84405476 0.8920892
0001f0 8a 82 08 bf fc c5 19 bf 21 cb 57 bf 2e 5a 2c 3f
       -0.53324187 -0.60067725 -0.84294325 0.67325103
000200 fd 00 18 bf a4 b7 4e bf 4a cc 4d bf 70 30 d6 3e
       -0.5937651 -0.80748963 -0.80389845 0.4183383
000210 77 6f 06 bf 57 f6 d3 be 05 2d 82 3f 76 48 d0 bd
       -0.5251383 -0.4139888 1.0169989 -0.10170071
000220 fa c9 8d bf 89 ec 24 bf 1d 17 1b 3f 11 57 4c 3d
       -1.1077263 -0.64423424 0.60582143 0.04988772
000230 04 2f 8b bc e2 4e d7 3e 37 58 18 3f 45 38 82 bf
       -0.016990192 0.4205237 0.59509605 -1.0173422
000240 6f 51 0c bf 41 db 0b bf a4 55 da 3e 15 28 1c bf
       -0.5481176 -0.5463143 0.42643464 -0.6099866
000250 8a b3 4f 3f 97 72 b4 bf 8f 92 35 3f 84 73 0a bf
       0.8113333 -1.409747 0.70926756 -0.5408251
000260 3f 76 99 3f 4d 8e bf be 57 70 32 bf d4 d7 3f 3f
       1.1989211 -0.37413254 -0.69702667 0.749387
000270 6d 8b 2a bf e6 01 2d 3f 17 e4 28 3f e4 b9 a2 be
       -0.66618997 0.6758102 0.6597304 -0.31782448
000280 9b 25 a7 3f 98 b4 d4 be b2 6a 2e 3f 7a 00 67 be
       1.3058351 -0.41544032 0.68131554 -0.22558776
000290 a6 e9 8f bf f0 f5 b5 bf fd 25 15 3f ab 62 02 3f
       -1.1243179 -1.4215679 0.5826109 0.50931805
0002a0 85 ef 06 3a 3c de 67 bf 2f 78 6c be 1f fc 84 bf
       0.00051473855 -0.9057348 -0.23092721 -1.0389441
0002b0 f0 6c e1 be 28 44 12 bf db 46 18 3f 08 81 53 bf
       -0.44028425 -0.5713525 0.59483117 -0.8261876
0002c0 c6 cf 75 bf ce 9e 14 3f 1b b3 ec be 7b 2d cc be
       -0.9602016 0.58054817 -0.46230397 -0.3987845
0002d0 30 ff 0d bf df 19 92 bf 3a 9d 7d bd ec e7 04 bf
       -0.5546751 -1.1414145 -0.06191752 -0.51916385
0002e0 6d e9 c2 be fa 30 23 bf 9f f9 5d bd c6 2d 18 bd
       -0.38068715 -0.6374661 -0.054193135 -0.037153028
0002f0 54 f5 4b 3f dd ad 1b 3f 7d a6 1d bf 93 84 bd bf
       0.79671216 0.6081217 -0.61582166 -1.4806083
000300 56 f6 7a be de 01 b4 bf 59 7d 82 be f5 97 41 3f
       -0.24508032 -1.406307 -0.25486258 0.75622493
000310 24 91 91 bd 60 3b ce 3e ec b5 0f bf a7 01 52 bf
       -0.071077615 0.40279675 -0.56136966 -0.8203377
000320 dc db fa bd 47 3d 17 3f ec 82 06 be 43 9d c7 3e
       -0.12248966 0.59077877 -0.1313588 0.3898717
000330 ca 6b 1a bf f3 5a 00 bf 3b c7 65 3f 4d b8 9b be
       -0.60320723 -0.5013878 0.89757127 -0.30414048
000340 13 7e e0 be 36 77 df bf fa 1c f5 bd f5 fb e6 3e
       -0.43846187 -1.7458255 -0.119684175 0.45114103
000350 02 6f 4f 3f ac 11 43 bf 4b 6e 92 bf e3 59 9b be
       0.8102876 -0.7619884 -1.1439909 -0.30342016
000360 14 ec 15 be fb 4b 76 3f ad ff a8 be 70 7f cb be
       -0.14640838 0.96209687 -0.33007565 -0.39745665
000370 b0 2e 2c 3f dd 3a f0 be b0 b6 0d bf bd fe 77 3f
       0.6725874 -0.4691991 -0.55356884 0.96873075
000380 60 3e 75 bf d6 b2 9b be 65 a9 93 3f 9f da 48 be
       -0.957983 -0.30409878 1.153607 -0.19614647
000390 4a 19 51 3f 4e 80 2d bf 52 e3 a0 3e 16 41 77 bf
       0.81679213 -0.677739 0.31423432 -0.9658369
0003a0 72 e7 49 3e 7f 8d d9 bf bd 71 25 be 85 17 e7 bd
       0.19717196 -1.6996306 -0.16156669 -0.11283783
0003b0 a4 0c e4 3e 10 3d 25 3c f7 54 13 bf 81 71 5b 3f
       0.44540894 0.010085359 -0.5755152 0.8572007
0003c0 d6 a5 13 3f 14 f3 b4 bd e3 09 8a bf e0 f8 4c bd
       0.5767492 -0.08835426 -1.0784267 -0.050042033
0003d0 1e ab 8e bf 38 3d 41 bf 2c db 74 bf 76 25 ee bd
       -1.1145971 -0.7548404 -0.9564693 -0.11628239
0003e0 5b 63 08 bf 91 dd a7 be 7e 53 5b 3f 92 f5 3e 3f
       -0.53276604 -0.3278623 0.85674274 0.7459346
0003f0 c0 a3 95 bd 09 1a 83 bf df a6 8e bf 92 d7 00 3f
       -0.073066235 -1.024232 -1.1144675 0.50328934

fc3.bias f4 [4]
000000 63 94 35 3d 33 da cb 3d fb fe 32 bb bd 0c 9a 3d
       0.044330966 0.099537276 -0.0027312625 0.07521961

exp_avg f4 [128, 8]
000000 e9 02 fe 3e d3 cc ae be ff db 09 3d 4e c4 9e 3e
       0.49611595 -0.34140643 0.03365707 0.31009144
000010 60 79 a1 3e 9b 16 43 be 05 0c d8 bf 0b db df bf
       0.31537914 -0.19051592 -1.6878668 -1.7488722
000020 df 9d e1 bd b3 9a af 3d a6 e8 fc bd 9c 77 38 3e
       -0.1101644 0.085744284 -0.12349062 0.18014377
000030 41 45 4c 3d 9d d3 54 bd e6 7a 7c 3c f7 ee f4 3d
       0.049870733 -0.051959623 0.015410161 0.119596414
000040 2b 73 a9 3e 8a b2 b1 bb 68 ae f3 bd 6b b2 51 3e
       0.3309568 -0.005422895 -0.118985 0.20478217
000050 e3 f9 3c 3e 4c 6d fb bd b8 ec d5 bf 89 a7 ca bf
       0.18454699 -0.12276706 -1.6712866 -1.5832378
000060 e7 36 88 3c e8 7c e6 3d b2 1d 44 3d 67 74 08 be
       0.016627742 0.11254293 0.047879882 -0.13325654
000070 99 73 e4 bc bd 3b 86 3d 23 4e a7 bd c4 79 c3 b6
       -0.027887153 0.06554363 -0.081692 -5.8256283e-06
000080 a1 8f 28 be 44 cd c9 bc b8 47 8e 3d 3f 2d 56 bd
       -0.1646104 -0.024634011 0.06947273 -0.052289244
000090 48 27 94 bd c0 14 ed 3c 56 23 6a 3f 63 5a 5f 3f
       -0.07234055 0.028940558 0.9146017 0.87247294
0000a0 ec 3c 11 be 5b bb 01 3e 54 e7 2c bb fc 9b 0d be
       -0.14183396 0.12669127 -0.0026383 -0.13829035
0000b0 bb 6e a3 bd dd cd ba 3d 88 ec 3a 3f 42 d0 37 3f
       -0.079801045 0.091212966 0.7301717 0.7180215
0000c0 aa d6 3b 3d cf 5c a9 bd 7c 4a c7 3d 7c 0b b5 bd
       0.045859016 -0.08269655 0.09731004 -0.08840081
0000d0 65 2b cc 3c 68 b3 ee 3c 04 00 00 00 8c c9 f6 bc
       0.024923036 0.029138282 6e-45 -0.030125402
0000e0 ea 36 5b be 6a 01 3a bd b5 6e bf 3d 41 83 16 be
       -0.21407667 -0.045411505 0.093472876 -0.14698507
0000f0 4b 25 ff bd 21 35 0f 3e d8 16 ac 3f a3 82 96 3f
       -0.12458285 0.13985111 1.3444471 1.1758617
000100 38 c5 53 bb 57 ad 0f be 11 d7 8b bd 2a c6 83 bb
       -0.0032313596 -0.14030968 -0.0682813 -0.0040214257
000110 d9 38 2b 3b 3e d8 ef 3b 04 00 00 00 b7 b3 f5 36
       0.0026126413 0.0073194792 6e-45 7.3224905e-06
000120 30 56 5a be 29 61 1a bd a3 db c1 3d 39 0e 10 be
       -0.2132194 -0.037690315 0.094657205 -0.14067926
000130 93 f9 b0 bd 46 c0 71 3e a8 8a 53 3f 10 13 4b 3f
       -0.086413525 0.23608503 0.8263345 0.7932596
000140 85 ba 9f 3f 34 a1 54 bd a5 6e 10 be 21 b8 2f 3e
       1.2478796 -0.051911548 -0.14104708 0.17160083
000150 17 4c 1e 3f a2 e0 d6 be f9 87 b7 c0 56 4f ab c0
       0.61834854 -0.41968256 -5.735348 -5.3534346
000160 ad c0 b4 bf 4a 85 20 3e 2c 57 75 be 7a 66 de be
       -1.41213 0.15675846 -0.23959035 -0.43437558
000170 e0 a0 d5 be 2f 65 df bd 6c 55 b8 40 af 3e ba 40
       -0.417243 -0.10907971 5.7604275 5.820152
000180 24 2d c0 bc c0 f5 80 bc e5 14 76 3c 6d 98 97 bc
       -0.023459025 -0.015742183 0.01501963 -0.0185053
000190 e9 71 90 bc ad ed 37 3d 01 6e 46 3e 34 43 26 3e
       -0.017632442 0.0449044 0.193779 0.16236573
0001a0 f2 97 7f 3e 3b 62 6c 3d 89 18 86 bd 74 93 91 3d
       0.24960306 0.057710867 -0.065476485 0.071082026
0001b0 7a cf de 3d cc 29 ac bd 24 66 6f bf 98 f1 67 bf
       0.10879417 -0.084064096 -0.9351523 -0.9060302
0001c0 7d 84 33 be ee ac 82 bd 8d a5 98 3d ee 57 68 bd
       -0.17531009 -0.0638064 0.07453451 -0.05672448
0001d0 5b 8f b2 bd 3e 00 4d bc 56 42 4a 3f 85 9b 52 3f
       -0.08718749 -0.012512265 0.7900747 0.82268554
0001e0 3f 30 d9 bd fa e7 69 bb f6 1a 44 3d 54 be 6f bd
       -0.10604905 -0.0035691247 0.047877274 -0.05853112
0001f0 8b 76 52 bd 07 3d 98 3d 08 13 2a 3f 30 2a 1d 3f
       -0.051382583 0.07433515 0.6643529 0.613925
000200 b3 f9 93 bf b7 3d 84 be 52 55 67 3e 29 bf 2d be
       -1.1560577 -0.25828335 0.22591141 -0.16967453
000210 7f 20 fe be 85 b8 81 3e a7 2f b9 40 d5 b9 b4 40
       -0.49634168 0.2533609 5.787067 5.6476846
000220 6c 1f 0e 3d b7 44 ca bc 9e 1a 0c 3e b6 6f f9 bd
       0.034697935 -0.024690969 0.13682029 -0.1217951
000230 17 bb 0d 3c 83 eb 95 bd 04 00 00 00 64 9c 57 3d
       0.008650563 -0.07320311 6e-45 0.05263938
000240 f6 0c ce 3d 07 e0 ad bb a7 01 46 3b 4a 4f 8d 3c
       0.10061066 -0.005306247 0.0030213387 0.017249722
000250 45 78 7d 3d ff 1f 9b bd d0 05 0a bf 72 04 e7 be
       0.061882276 -0.07574462 -0.5391512 -0.4512058
000260 2f 36 ab be 20 ea e1 bb aa e2 05 3e 78 0e 9c bd
       -0.33439776 -0.006894365 0.13074747 -0.07619947
000270 30 f1 dd bd d1 8b bf bd 75 28 02 40 42 74 fb 3f
       -0.108370185 -0.0935284 2.0337193 1.9644854
000280 09 9c 80 3e ab 27 53 bd c7 4f 63 bc 9b d9 b4 3d
       0.25119045 -0.051551502 -0.013874001 0.088305674
000290 9c cc 1f 3e 8c 1f 2e be fc d4 98 bf 93 a1 85 bf
       0.15605396 -0.17004222 -1.1939998 -1.0439934
0002a0 81 cb 2f bd cf 78 23 3c f1 5b a9 3c 53 9a 3d bd
       -0.042918686 0.0099775335 0.020673724 -0.046289753
0002b0 5d be c4 bc 94 32 9a 3d 71 51 d2 3e 3c 05 af 3e
       -0.024016554 0.07529178 0.4107776 0.3418368
0002c0 eb f3 77 3f cd 69 5a bd bd 09 1b bd 87 f9 1e 3e
       0.96856564 -0.053323556 -0.037851084 0.15524875
0002d0 ea 9d fe 3e 58 23 3a bf 5c 3a 90 c0 cb 84 91 c0
       0.49729854 -0.7271018 -4.507124 -4.54746
0002e0 0c 3b a7 3e 05 de 0e bd 11 ab b6 bd c1 4a 29 3e
       0.32662237 -0.034879703 -0.08919347 0.16532423
0002f0 fc e5 1f 3e 90 03 32 be ac 7a cf bf e1 92 c7 bf
       0.15615076 -0.17384171 -1.6209311 -1.5591699
000300 0c 58 5a bf dc 39 2d 3d a4 6b b6 bb d1 95 ae bd
       -0.852906 0.042291507 -0.005567031 -0.08524669
000310 a1 a2 cc be 80 5d e9 3d 33 47 6d 40 f0 66 60 40
       -0.39967826 0.11394787 3.7074707 3.5062828
000320 fd e7 1b 3e 90 52 44 bc eb 79 60 bd d8 7d b2 3d
       0.15225215 -0.011982575 -0.05480377 0.08715409
000330 85 11 a4 3d 82 bb 17 bc bf 8d 18 bf 7a 66 15 bf
       0.08011154 -0.009261014 -0.5959129 -0.5835949
000340 04 00 00 80 04 00 00 80 04 00 00 80 04 00 00 80
       -6e-45 -6e-45 -6e-45 -6e-45
000350 04 00 00 00 04 00 00 00 04 00 00 00 04 00 00 00
       6e-45 6e-45 6e-45 6e-45
000360 6d 87 ac 3d c1 43 2a 3f cb 4c b0 3d 69 eb bc be
       0.08424268 0.66509634 0.08608397 -0.36898354
000370 58 5f 3d bd 41 2f 4d 3d c7 c8 88 3b 3d 1e 88 be
       -0.046233505 0.050093893 0.004174325 -0.2658557
000380 6e cf eb be cb d2 4f be 17 de 8d 3d 4c 87 9a bd
       -0.46056694 -0.20295255 0.06927126 -0.07545337
000390 07 68 44 be 03 8e 96 3e 52 4c 20 40 14 a4 10 40
       -0.19180308 0.2940522 2.5046582 2.2600145
0003a0 45 75 06 3e a3 c5 38 be a1 7c 5b 3e ad d7 7a be
       0.13130672 -0.18044142 0.21434261 -0.24496336
0003b0 8b 1c 93 bd 1a 86 5a be 28 e9 8d 3e 69 99 6e 3e
       -0.071831785 -0.21340218 0.27716947 0.23300709
0003c0 6f c1 84 bc bd 35 15 be a9 7b 6c 3e 10 c7 9f be
       -0.016205518 -0.14571281 0.23094048 -0.3120656
0003d0 33 75 65 bd b3 4d b2 3e 9a 6a b0 3e 04 00 00 00
       -0.056019973 0.34824905 0.3445633 6e-45
0003e0 cf cb be 3d 54 70 45 3d 2c 12 52 bd f2 44 87 3d
       0.09316217 0.048202828 -0.05128686 0.06604947
0003f0 af 67 8c 3d 7c 70 dc bd 12 69 e9 be 5e ee c7 be
       0.068557136 -0.10763642 -0.45587975 -0.39049047

exp_avg_sq f4 [128, 8]
000000 34 70 dc 3f e6 39 b2 3f 4e 22 23 40 26 79 3d 40
       1.7221742 1.3923919 2.5489688 2.9605193
000010 54 c5 fd 3f 22 23 2d 40 96 35 72 42 23 fc 65 42
       1.9825845 2.7052693 60.55233 57.496227
000020 6b 10 9e 3e 9b 9b c3 40 82 ba 36 3f 54 4d ee 3f
       0.308719 6.112745 0.7137834 1.8617349
000030 aa 2c c6 3e 7c a2 73 3f 60 69 a4 3e c1 07 55 40
       0.3870595 0.95169806 0.32111645 3.3285983
000040 6a 3f a0 3f dc e6 92 40 3c d9 13 40 09 a6 2a 40
       1.2519352 4.590681 2.310134 2.666384
000050 f7 88 b9 3f 40 71 ee 3f 8c 72 58 42 c2 bc 50 42
       1.4494923 1.8628311 54.111862 52.184334
000060 e3 14 6f 3d 2a 28 17 40 52 b6 f8 3d 59 47 d1 3e
       0.05836953 2.3618264 0.1214415 0.40874746
000070 5e 35 d0 3d 87 5b f8 3d 4c 8c 3f 3f c3 35 40 38
       0.10166429 0.121268325 0.7482345 4.5826437e-05
000080 87 a1 95 3e cd 5d 7d 3f 0d 69 ca 3e 65 ff e1 3e
       0.29224798 0.98971254 0.39533272 0.44140163
000090 0b 03 cf 3e 3d 75 b1 3e 9b 44 1b 41 f4 8a 17 41
       0.4043201 0.34659758 9.704249 9.471424
0000a0 ed a2 58 3e b9 d1 16 40 48 46 b7 3e c1 43 2f 3f
       0.21155901 2.3565505 0.35795808 0.6846276
0000b0 f8 01 68 3e 58 d9 9a 3e 5d 81 d7 40 0a 5b c9 40
       0.22657001 0.30243945 6.7345414 6.292363
0000c0 75 5c 1e 3e e3 c2 92 40 6f f5 9e 3e 07 94 80 3f
       0.15464957 4.58629 0.31046626 1.0045174
0000d0 f5 b7 50 3e 5f e3 65 3e 36 c0 49 17 5c 8a a6 3f
       0.20382674 0.22450016 6.5189207e-25 1.3010974
0000e0 f9 f0 42 3f 46 35 4e 40 8a d6 af 3f 3f 05 e8 3f
       0.76148945 3.2220016 1.3737347 1.8126601
0000f0 f0 d8 88 3f 93 56 b4 3f ea 79 bc 41 66 c5 af 41
       1.0691204 1.408892 23.559528 21.971386
000100 67 91 e4 3b a7 f9 43 3f 54 0a 28 3e 1a 59 b8 3c
       0.006975341 0.76552814 0.1641019 0.022503424
000110 43 1d 3d 3b a2 7f 95 3d f4 01 00 00 4d 71 20 3e
       0.0028856553 0.07299735 7e-43 0.15668221
000120 cc 8b cf 3e 1b 1e 9d 40 7c d5 97 3f ec 2a d8 3f
       0.40536344 4.909925 1.1862025 1.6888099
000130 ef a1 82 3e 3a 73 41 3f f7 32 92 41 99 48 86 41
       0.2551417 0.75566447 18.274885 16.785448
000140 1a 64 86 41 4c 0e 16 3f d5 97 bd 41 6c 4d 80 41
       16.798878 0.58615565 23.699137 16.037804
000150 36 db af 41 7c 59 ac 41 14 dc 27 44 cd eb 20 44
       21.982037 21.543694 671.4387 643.6844
000160 a5 3d 02 41 e6 7c 9d 41 48 7e 98 41 cd 86 4d 41
       8.14005 19.685986 19.06166 12.84541
000170 ae 92 83 40 ee 02 18 41 42 65 00 44 05 cd f0 43
       4.111655 9.500715 513.58215 481.6017
000180 c6 7a 50 3c a8 17 e8 3d 71 77 06 3c 1a 36 e7 3c
       0.012724584 0.11332637 0.008207188 0.02822404
000190 5d a2 88 3c f1 72 b0 3c 89 03 82 3e e2 ac 5d 3e
       0.016678983 0.021539183 0.25393322 0.21647981
0001a0 ec c4 b1 3e bd 06 a3 3f 18 bd cd 3e bf 0c 1e 3f
       0.34720552 1.2736431 0.4018333 0.617382
0001b0 15 32 c8 3e df 35 a9 3e ac 29 6b 41 50 29 5f 41
       0.3910071 0.33048913 14.697674 13.947586
0001c0 e6 ae 9d 3e 85 55 bc 3f 52 68 97 3e 58 b7 e8 3e
       0.307975 1.4713598 0.29571778 0.4545238
0001d0 1f c3 ce 3e 25 55 98 3e 85 2e 24 41 4c 79 20 41
       0.4038324 0.2975246 10.261357 10.0296135
0001e0 01 81 00 3e 41 f2 19 3f cd 7a 64 3e ce 15 93 3e
       0.12549211 0.60135275 0.2231247 0.28727573
0001f0 64 5c 2f 3e 4d 4b 55 3e 3d 6c 6d 40 53 c1 5c 40
       0.17125088 0.20829506 3.7097313 3.4492996
000200 0c 5e c6 40 b2 54 e0 41 48 4d 26 40 64 22 ee 40
       6.1989803 28.041355 2.5984669 7.441698
000210 3d a9 28 40 52 5b db 40 dd 49 45 43 53 00 3a 43
       2.6353295 6.8548975 197.28853 186.00127
000220 ee d4 10 3e 3f 85 9b 40 bc 77 84 3e a5 0f a3 3f
       0.14143726 4.8600154 0.258726 1.2739149
000230 76 cc 3b 3e fd 5a 8d 3e 6d ee 87 2a 79 96 0a 3f
       0.18339714 0.2760848 2.4146258e-13 0.54135853
000240 dd 41 16 3e 5d 1e bd 3b 99 bb b2 3c 95 74 07 3d
       0.14673562 0.005771442 0.02181797 0.033070166
000250 09 eb 61 3e 10 10 5d 3e c1 0c 7e 40 c0 65 6a 40
       0.22062315 0.21588159 3.9695284 3.6624603
000260 af 87 0d 3f 7b c4 43 40 2b c4 7d 3e c6 82 46 3f
       0.5528516 3.0588672 0.24781863 0.77543294
000270 f2 36 44 3e 21 9b 8c 3e fa 78 83 41 d5 ad 91 41
       0.19161585 0.27462104 16.43407 18.209879
000280 88 8e 38 3f af 6d 56 3e a4 a0 c7 3e 31 3e 08 3f
       0.72092485 0.20940278 0.38989747 0.53219897
000290 bd 84 76 3f 41 1a 82 3f 7e 18 b5 41 d4 24 ab 41
       0.9629629 1.0164262 22.63696 21.392982
0002a0 c4 2b 7c 3d cd 2a 62 3e 05 da 89 3d 4b 74 b3 3d
       0.061565176 0.2208664 0.06731037 0.087624155
0002b0 48 36 ab 3d da 23 02 3e 4a d2 b2 3f 42 2c 9d 3f
       0.08359963 0.12708989 1.3970425 1.2279131
0002c0 b5 d0 17 41 1e da b2 3e f3 6c 5d 41 f5 dd 13 41
       9.488454 0.34932035 13.839099 9.241689
0002d0 43 52 52 41 54 e7 6a 41 d6 0e b6 43 93 77 ad 43
       13.145083 14.681477 364.1159 346.93417
0002e0 00 70 8c 3f 28 f8 5e 40 ff 08 d6 3f 83 77 d4 3f
       1.097168 3.4838963 1.6721495 1.6598972
0002f0 9a a6 ac 3f 26 09 b6 3f 82 be 36 42 73 0c 31 42
       1.3488343 1.4221542 45.686043 44.262157
000300 f1 01 b2 40 8d 3b 47 3e bd 2a 9f 40 44 46 62 40
       5.562737 0.1945631 4.973967 3.5355387
000310 14 8a f5 40 72 57 b5 40 26 b1 60 43 96 b8 4e 43
       7.6731052 5.6669245 224.69199 206.72104
000320 59 7a 82 3e 48 54 58 3f 8a 75 83 3e a7 bc cb 3e
       0.2548397 0.84503603 0.25675613 0.39792368
000330 62 5a 7d 3e 62 9d 80 3e 73 c0 34 41 6d 3c 32 41
       0.2474151 0.25120074 11.296985 11.139752
000340 f4 01 00 00 f4 01 00 00 f4 01 00 00 f4 01 00 00
       7e-43 7e-43 7e-43 7e-43
000350 f4 01 00 00 f4 01 00 00 f4 01 00 00 f4 01 00 00
       7e-43 7e-43 7e-43 7e-43
000360 6b ea 8b 40 7d f7 9b 40 57 63 f1 40 00 45 f3 40
       4.3723655 4.873961 7.5433764 7.602173
000370 fb 7b f6 40 50 3a d2 40 b8 28 27 43 23 b4 16 43
       7.7026343 6.569618 167.15906 150.70366
000380 5b 77 48 3f 63 d9 b1 40 e4 2e 9c 3e 00 4a 97 3f
       0.7830712 5.5577865 0.30504525 1.1819458
000390 09 cb c1 3e 7f b9 45 3f 09 d3 ab 41 08 52 bb 41
       0.37850216 0.7723617 21.478045 23.415054
0003a0 c1 dd 37 40 5a 97 8c 41 e3 bb a7 3f 26 db 83 40
       2.8729098 17.573902 1.3104213 4.1205015
0003b0 6a 55 9d 40 e8 c6 44 40 bd d2 72 42 28 70 61 42
       4.9166765 3.0746403 60.7058 56.359528
0003c0 54 0c 5c 3f 43 5f 85 41 71 1a 9b 3f 7a cf 7b 40
       0.8595631 16.671515 1.2117444 3.9345384
0003d0 15 56 76 3f 5e b8 32 40 13 8f 5a 41 f4 01 00 00
       0.962251 2.7925029 13.65993 7e-43
0003e0 fd 1b 8c 3e bd 7e e9 3e ce 67 6f 3f 6f 8b 39 3f
       0.27365103 0.45604506 0.9351777 0.72478384
0003f0 40 91 c2 3e 36 31 18 3f ed 19 4d 41 92 3e 48 41
       0.38001442 0.5945009 12.81883 12.515276

exp_avg f4 [128]
000000 80 f2 2d c0 2e d6 c9 be db e8 09 c0 5a 4d 9f 3e
       -2.717926 -0.3942122 -2.1548374 0.31113702
000010 3a 24 80 3f 00 44 90 3f 72 60 56 3e cb 85 da 3f
       1.0011055 1.1270752 0.20935228 1.707208
000020 ed 3b ca bd 5d 90 98 3f 96 71 df c0 c8 8f c1 40
       -0.09874711 1.1919056 -6.9826155 6.0488014
000030 42 2b 89 3e 9d c6 87 bf 39 3f 59 3f 8f 47 57 3f
       0.26790816 -1.0607487 0.84862095 0.84093565
000040 50 11 c6 40 ce 29 6c 3e a0 a2 1b bf 2f 81 f5 3f
       6.1896133 0.23062822 -0.6079502 1.9180049
000050 6c 57 c0 bf 88 be 0c 3f d6 13 bb c0 90 e7 ff bf
       -1.5026679 0.5497823 -5.8461714 -1.9992542
000060 4b 3c 6d 40 d8 3a 50 bf 04 00 00 00 19 16 f5 3d
       3.706805 -0.8133979 6e-45 0.119671054
000070 27 ee 27 40 b2 3a 14 3e 1a db 84 3f a0 9c 1b bf
       2.6239107 0.14475515 1.0379364 -0.60785866
000080 1f aa 98 3e cc 2f 07 40 fa 9c b9 c0 ac f3 8e 40
       0.29817292 2.1122923 -5.800412 4.467245
000090 e2 ea af bf 58 0d 0d 3f c0 7b 58 bf 17 f8 ce 3f
       -1.3743556 0.55098486 -0.8456383 1.6169461
0000a0 4b 55 a0 3f d0 99 71 be be 81 03 3f 8a 23 be 3f
       1.2526029 -0.23593831 0.51369846 1.4854596
0000b0 e9 b6 c0 3e 75 cf 24 40 c5 e0 6d 40 08 5e e9 be
       0.3763955 2.5751622 3.7168438 -0.45579553
0000c0 0a 23 3c bf 04 00 00 00 f1 50 f8 bf d3 f9 cb be
       -0.73490965 6e-45 -1.9399701 -0.39839038
0000d0 7e 1a 2d 3f de eb c7 3f 22 28 47 3e b7 52 71 3f
       0.6761855 1.5618856 0.19448903 0.9426684
0000e0 5d b5 af 3e e4 00 b8 3f fc 58 52 3d 1f 1a cf bc
       0.34318057 1.4375272 0.051354393 -0.02528101
0000f0 52 45 4d c0 df 35 c4 3b c2 3c 86 3f 2f e0 95 bf
       -3.207356 0.0059878672 1.0487292 -1.170904
000100 2b 68 76 be f3 94 b5 3d 91 2d 8e c0 82 e0 36 bf
       -0.24063174 0.088663004 -4.4430623 -0.7143632
000110 47 41 00 c0 5b 03 16 40 91 37 c3 3d c0 33 a4 40
       -2.0039842 2.3439548 0.09532083 5.131317
000120 78 a9 07 c0 ac 1b 7a bf b9 24 de 3c 4f 2c de be
       -2.1197186 -0.97698474 0.02711712 -0.4339318
000130 8a 7b 28 3d 67 2a bd 3f 9f d7 c1 bf 0f ad c0 3f
       0.04113344 1.4778565 -1.5143927 1.5052813
000140 17 3f 84 3f 78 e5 10 3f 5c e4 77 3e 5d 25 be 3e
       1.0331753 0.5660014 0.24208206 0.3713788
000150 62 e3 e8 be 31 a7 0d 3e 2d 70 c5 c0 2f cc 29 40
       -0.4548598 0.1383331 -6.1699433 2.6530874
000160 b4 dd 4b 34 ca 3e b7 c0 2f 23 21 3f 2a 47 86 bf
       1.8986503e-07 -5.7264147 0.6294431 -1.0490468
000170 0a 1d df be 71 d3 98 c0 78 96 c8 bd 62 0f 2d 3f
       -0.43576843 -4.7758107 -0.09794325 0.676016
000180 46 a7 3d bf 4f d6 e0 c0 9b 7b 54 3d 55 f7 9e be
       -0.74083364 -7.0261607 0.05187569 -0.31048074
000190 e1 68 02 40 e6 f4 84 bc fb 2d 87 bf c0 1c 2e 3d
       2.0376513 -0.016230058 -1.0560907 0.042507887
0001a0 60 ad 88 3e 6d 1f f5 be 92 f6 98 3d 37 fe ca 3f
       0.26694775 -0.47875538 0.074689046 1.585883
0001b0 62 86 2b bf 17 9a e6 c0 04 00 00 00 7f 46 9a be
       -0.67001927 -7.20631 6e-45 -0.3013191
0001c0 e2 51 c0 3f 6c 46 40 3f 57 70 64 3b d5 d6 83 40
       1.5024989 0.75107455 0.0034856999 4.1199746
0001d0 b6 1d 9e 3e 48 b5 43 be 9b da 06 bf a1 0b 1b 3e
       0.30882043 -0.19112122 -0.52677315 0.15141155
0001e0 06 ea 7a c0 31 3b fa 3e c6 b1 01 be 63 4e 3b bc
       -3.9205337 0.48873284 -0.12665471 -0.011432263
0001f0 33 f7 69 be 2d d2 1f 40 a5 52 d5 bf 5d e0 d0 be
       -0.22848205 2.497203 -1.6665846 -0.40796176

exp_avg_sq f4 [128]
000000 99 a4 9c 42 e2 0f 83 41 0e 30 85 42 a0 b2 59 40
       78.32148 16.382755 66.59386 3.4015274
000010 ed e5 39 41 fd 72 2c 41 37 bc 02 41 6e b3 07 42
       11.618634 10.778073 8.170951 33.925224
000020 7e 41 05 3f a5 14 de 41 d4 aa 38 44 cf ad 05 44
       0.5205306 27.76008 738.6692 534.71576
000030 eb 56 0b 3f c8 32 8a 41 5e 83 4b 41 f8 af a9 40
       0.544295 17.274796 12.719572 5.3027306
000040 01 e2 83 43 e5 e1 f4 40 66 7e 9d 40 3c a9 b5 41
       263.76566 7.652575 4.9216795 22.707634
000050 af 73 e5 41 00 0f 1a 40 37 65 c4 43 5f 8a 52 42
       28.681486 2.4071655 392.79074 52.635128
000060 be 80 61 43 d7 19 57 41 f4 01 00 00 7c 9c 3c 43
       225.5029 13.443809 7e-43 188.61127
000070 e9 b2 01 42 ce 0c be 42 b1 ad 44 42 20 8d 70 41
       32.424717 95.02501 49.16962 15.034454
000080 83 4b 1b 3f f6 51 45 42 09 fe b5 43 e9 23 4d 43
       0.60662097 49.33004 363.98465 205.14027
000090 65 5e fb 41 fc a3 15 42 68 81 1d 42 f6 fb 5f 42
       31.421091 37.41014 39.376373 55.996056
0000a0 01 11 0f 42 05 11 aa 42 1c 1c a0 40 46 e3 6e 42
       35.766605 85.03324 5.0034313 59.721947
0000b0 e6 e4 8b 42 83 c4 a7 42 db c2 00 43 b1 c0 74 41
       69.94707 83.88381 128.76115 15.297044
0000c0 bb 01 18 41 f4 01 00 00 eb 32 50 42 78 98 2f 40
       9.5004225 7e-43 52.049725 2.743681
0000d0 84 16 30 41 70 a1 f8 41 ee e5 a0 3e 79 8d 45 41
       11.005497 31.078827 0.31425422 12.347039
0000e0 59 7d 8d 40 40 dd 0d 42 e5 70 9f 3f f8 8b 87 40
       4.421551 35.466064 1.2456328 4.235836
0000f0 29 c1 17 43 0b 7c 67 3f c7 6d 40 41 f8 00 cb 41
       151.75453 0.9042365 12.026801 25.375473
000100 eb c5 be 40 97 a2 bf 40 b3 62 9b 43 02 19 c9 40
       5.96166 5.9885974 310.7711 6.2843027
000110 9d 44 72 42 2f 6f e0 42 7c 0b 03 42 cc 4d 45 43
       60.567005 112.217155 32.761215 197.3039
000120 a2 29 5b 42 6c 47 8c 41 2b a9 c2 40 6b f4 1b 40
       54.790657 17.534874 6.0831504 2.436793
000130 10 7e d4 40 f3 a0 8c 41 f1 0d eb 41 0b 31 1d 42
       6.6403885 17.578588 29.381807 39.297894
000140 90 44 3a 41 0f 5b 21 41 0a 18 31 41 7d b1 ac 43
       11.641739 10.084731 11.068369 345.38663
000150 81 97 bf 41 3e 6c 9a 42 c6 b7 37 44 fe 2a 27 42
       23.948977 77.21141 734.87146 41.791985
000160 93 97 26 40 9e ec e3 42 f0 39 fb 40 5f c0 22 42
       2.6030014 113.96214 7.8508224 40.687862
000170 6e 62 ef 41 75 b9 98 43 c2 8e 54 40 9e 94 ac 41
       29.923061 305.44888 3.3212132 21.572567
000180 e4 4b ad 41 e3 ff 06 44 d6 59 b3 41 54 cf a6 41
       21.662056 539.9982 22.418865 20.851234
000190 21 81 8b 42 5a fb 75 43 c2 5c 86 41 73 e6 31 41
       69.752205 245.98184 16.795292 11.118762
0001a0 3f db 6d 3f 3e 53 07 42 cc 74 9f 3f 05 c7 4b 43
       0.9291267 33.83129 1.2457519 203.77742
0001b0 35 f6 07 41 36 85 02 44 0b fc 0f 12 ea 36 93 41
       8.497609 522.0814 4.543351e-28 18.401814
0001c0 27 f0 03 42 f5 7f b6 41 d1 ab 28 41 7f 6a 9d 42
       32.984524 22.812479 10.541947 78.708
0001d0 60 b3 a1 40 6e 91 fe 3f 10 c7 38 40 0e 1a 1b 42
       5.0531464 1.9888132 2.8871498 38.775444
0001e0 9c 7e 60 43 ef c3 4c 41 d4 01 b9 40 cc 31 71 3f
       224.49457 12.797835 5.781473 0.9421661
0001f0 23 fb ba 40 22 c6 e8 42 f0 80 24 42 3e 55 fa 40
       5.8431563 116.38698 41.125916 7.8229055
