dqn_lunar_lander_v3.pth (torch, 75392 bytes, 6 tensors)

fc1.weight f4 [128, 8]
000000 98 55 f2 be 18 d5 2d 3f 78 92 a5 be c1 52 f9 3e
       -0.47330928 0.6790328 -0.3233831 0.4869595
000010 a5 30 46 3f 2f bf 8a 3e 81 9f b2 bd 38 2a 07 bd
       0.77417976 0.27098987 -0.08721829 -0.032999247
000020 a4 45 43 bb ce 37 f3 bd 2f 94 f3 bf e1 d0 0f 3e
       -0.0029796148 -0.11875878 -1.9029597 0.14044525
000030 34 db c1 3f b9 86 37 be 75 62 25 3d 97 55 e4 3d
       1.514502 -0.17922486 0.0403771 0.111491375
000040 a8 18 14 be 8d 8f 6b 3f 49 33 cd be 19 22 20 bf
       -0.1446253 0.92015916 -0.4007819 -0.6255203
000050 de 4f 8f 3e 79 f1 fc 3d 53 d2 83 be 1b d4 85 3e
       0.2799062 0.12350745 -0.25746402 0.26138386
000060 d6 40 16 3e 58 c9 be be 23 6c 80 bf cd f3 95 3f
       0.1467317 -0.37262988 -1.0033001 1.1715027
000070 89 e0 b6 be d2 32 bd be 68 ed ec 3c b2 c1 49 3e
       -0.35718182 -0.36952835 0.028921798 0.19702795
000080 ef 03 c4 bd bd e1 68 bf 33 b4 e7 be e4 aa e0 be
       -0.09571063 -0.9096945 -0.4525467 -0.4388038
000090 2f aa 2e 3f 2e b4 28 bf f2 98 49 bd 90 07 d3 3e
       0.6822843 -0.6589993 -0.049218126 0.41216707
0000a0 31 38 8f be 58 52 91 be 9a 84 13 bf a1 23 0e be
       -0.27972558 -0.28383136 -0.5762421 -0.13880779
0000b0 7c a2 72 3f 52 66 2a 3f b6 88 41 bd 97 e3 67 be
       0.9477918 0.6656238 -0.04724952 -0.22645412
0000c0 20 9e 26 bf e4 07 6c bd d8 d9 20 bf db 94 4a 3e
       -0.6508503 -0.057624713 -0.62832403 0.19783346
0000d0 51 22 40 3d 2b 86 86 bf 5b a4 f4 3c 8b de 19 be
       0.046907727 -1.0509695 0.029863527 -0.150263
0000e0 7e 7a 13 3f 54 f9 f6 be 30 64 58 bd b0 89 5e bf
       0.57608783 -0.48237097 -0.05282992 -0.86928844
0000f0 74 21 72 bf 13 88 3c bc 01 e5 b8 3e 58 38 5d bc
       -0.94582295 -0.011507052 0.36112216 -0.013502203
000100 83 d9 96 bf 9a 7c 35 3e bf 57 f9 be 14 c9 fa 3e
       -1.1785129 0.17723313 -0.48699757 0.48981535
000110 d3 07 3d 3f 34 dd 5d 3e c6 bd 13 be 27 e4 04 3e
       0.73840064 0.21666414 -0.14427862 0.12977658
000120 88 98 de 3d cc 8b 60 bf fb 58 e4 be e5 f5 4c 3f
       0.10868937 -0.87713313 -0.44599137 0.80062705
000130 f7 5b 24 3f 22 f1 0e 3f 9f 14 00 3f b7 cb eb bd
       0.6420283 0.5583669 0.50031465 -0.11513465
000140 22 4b 60 bf f2 92 ad be cd f7 18 3f 0d d5 e4 be
       -0.87614644 -0.33901173 0.59753114 -0.44693795
000150 b3 6b 78 be 28 b4 82 3d 42 96 f1 bc 2e 7a e0 bd
       -0.24259834 0.06382018 -0.029490594 -0.10960804
000160 d4 8c 55 be d4 12 04 3f cb 33 9b 3e 3b 6c 33 bf
       -0.20854503 0.5159123 0.30312952 -0.7008702
000170 ea b4 1f be b9 27 88 bc 95 43 8a bd 72 38 83 bd
       -0.15596357 -0.016620504 -0.067511715 -0.064072505
000180 e2 93 15 bf 2e a2 b8 be af 66 52 bf 7f 59 08 3f
       -0.58428776 -0.36061233 -0.8218793 0.5326156
000190 51 38 6f be 7c 7a 15 bf 66 08 5e be bf 8b a2 3d
       -0.23361327 -0.5839002 -0.21682891 0.07936811
0001a0 89 b8 59 bd 51 f4 1e 3e eb b8 b6 bf ea cd 54 bf
       -0.053154502 0.15522887 -1.4275182 -0.831267
0001b0 e5 6d c0 bf a5 0b f6 3e 10 c6 25 3e 2c ab 1f 3d
       -1.5033537 0.4805576 0.16188836 0.0389816
0001c0 bf ca 08 bc 9d 50 83 3c 7d 96 0b 3e f7 a3 ff bd
       -0.00834912 0.01602965 0.13631625 -0.12482446
0001d0 0f 38 8b 3c 8e ff fb 3e 66 0f f3 bd cd d8 43 bf
       0.016994504 0.4921841 -0.118681714 -0.76502687
0001e0 8e 2a 26 3f 58 59 9f 3e 8e 7d da be 0c 3b 3b bf
       0.64908683 0.3112285 -0.42673916 -0.73136973
0001f0 37 1f 00 3f 18 8b bd be ce 85 ae be 7b 1c a0 bb
       0.5004763 -0.37020183 -0.3408646 -0.0048862076
000200 5d 24 a0 bd cf 45 be 3e 80 9b 50 bd 40 05 e2 3e
       -0.07819436 0.37162635 -0.050929546 0.4414463
000210 e9 e3 9d bd b5 d6 a9 3e d4 67 c0 be 14 b2 ff be
       -0.07709486 0.3317162 -0.37579215 -0.4994055
000220 9d 46 2c be e0 1b 5a c0 e7 68 93 be 73 41 c4 3d
       -0.16823812 -3.4079514 -0.28790972 0.09582796
000230 7c f8 c5 3d e4 a8 fc be c8 41 9a 3e db f3 85 bd
       0.09666535 -0.49347603 0.30128312 -0.06540652
000240 00 4e 34 3e 5d 36 4d 3f a4 59 88 bf 78 3b cd bf
       0.1760788 0.80161077 -1.0652356 -1.6033773
000250 ef fe 0f 3e db d8 f4 3b dd 63 d9 be d9 c4 37 3d
       0.14062093 0.0074721402 -0.42459002 0.044865463
000260 15 36 cb bd b4 ac c7 be aa 30 8e 3e 75 c1 c2 3e
       -0.09922425 -0.3899895 0.27771503 0.3803822
000270 29 84 d9 3e 22 35 45 3e 92 a4 aa bd 9f b3 87 3e
       0.42483643 0.1925855 -0.083321705 0.26504228
000280 9b bd 78 be 21 ee 27 3f 0d d7 83 be 11 8d f8 be
       -0.24291079 0.6559773 -0.25750008 -0.48545125
000290 8f 60 ac be d8 89 84 be df 6a 10 bf c5 e4 9c 3e
       -0.33667418 -0.25886416 -0.5641307 0.30643287
0002a0 8c b5 59 be 57 d5 2f c0 fa 73 d3 3e 29 57 bd bd
       -0.21260661 -2.7473962 0.4129942 -0.0924514
0002b0 39 cf f2 be d9 b2 0b 3e 1d be 0f 3d f3 f5 83 3d
       -0.47423723 0.13642444 0.035093416 0.064433955
0002c0 9f 26 80 3e 43 3d c7 be a8 20 ae 3e 98 ed a4 be
       0.25029466 -0.38913926 0.3400929 -0.3221252
0002d0 19 34 66 bf 88 b7 85 bd f3 e8 a5 3e d0 ff a3 3e
       -0.89923245 -0.065291464 0.3240429 0.32031107
0002e0 24 09 3c bf 3d fa ca be 87 e5 1b 3f 42 cb 0f 3f
       -0.7345145 -0.39644042 0.60897106 0.5616952
0002f0 63 2f e1 3e 2c e1 49 3e 1d ee e7 3d b9 68 ad be
       0.43981466 0.19714803 0.113247134 -0.3386896
000300 6b 3f 96 be 19 9f 1f be b3 b2 93 be 74 85 a6 bd
       -0.2934526 -0.15588035 -0.28847274 -0.08130923
000310 5f 56 f8 3d a6 40 3f bc b5 9a 25 3e 39 a9 d2 3e
       0.12125849 -0.011673128 0.16172297 0.41144732
000320 3d 3c 84 bd bc 98 7e 3f df ad 9c be be 8d 8f bf
       -0.06456802 0.99451804 -0.30601403 -1.1215131
000330 e1 84 ae 3d e6 f0 b3 3e 42 e4 22 be e7 11 8f 3e
       0.085214384 0.35144728 -0.15907386 0.27943346
000340 3b 86 a0 3f d3 c6 4a 3d 61 11 90 3e 4a b9 ca 3e
       1.2540964 0.04950602 0.2813826 0.3959449
000350 ee 5b 84 bf b1 5d 1e bd fa 9b 46 3d be fc b1 3b
       -1.0340555 -0.03866357 0.048488595 0.0054317405
000360 76 61 85 3e 2f ae d4 3c b0 48 be bd 97 ad 95 bd
       0.2605092 0.025961963 -0.09291208 -0.073085
000370 5f 32 44 be 88 aa e1 3e 3c 24 a8 3e 97 07 e0 3e
       -0.1915984 0.44075418 0.32840145 0.4375579
000380 28 19 d9 be 16 34 06 c0 92 27 6f bf 10 49 4b bc
       -0.42402005 -2.096929 -0.93419755 -0.012407556
000390 7e 4f ca 3f b0 3b 90 bd 78 89 cc 3c be db f3 3c
       1.5805509 -0.070426345 0.024967894 0.029767867
0003a0 a6 4a 54 3e 6e a0 d6 bf 23 3d 88 3e ef 1d 60 bf
       0.20731601 -1.6767709 0.26609144 -0.87545675
0003b0 8a 50 b2 bd 74 97 05 3d 4a 1d 07 be ae 6a ba 3d
       -0.08706768 0.03261514 -0.13194767 0.09102379
0003c0 7a 54 bd 3e 92 58 35 bf 25 b3 99 bf 09 c9 34 3f
       0.36978513 -0.7083827 -1.2007796 0.70619255
0003d0 4a 68 20 3f 5e 0d 81 be 24 e0 50 3e a2 6c 49 3e
       0.6265913 -0.2520551 0.20398003 0.19670346
0003e0 53 93 f5 be 51 1a 10 3e f8 c0 0f bf bd ff 88 3f
       -0.47963962 0.14072539 -0.5615382 1.0703045
0003f0 28 6c 4a 3f 5c 61 39 3f 56 4b 04 3d 66 9b 55 be
       0.79071283 0.72414184 0.03229841 -0.20860061

fc1.bias f4 [128]
000000 ed 82 03 3e 43 60 d2 3d f2 5e eb 3e 93 17 66 be
       0.12842913 0.10272267 0.45970875 -0.2246993
000010 57 ae c2 3e 83 4e 73 3e 65 ab 30 bd ac b8 02 3f
       0.38023636 0.23760419 -0.043132205 0.51063037
000020 ca cb 4b 3d 28 95 48 be 24 31 1a bd c9 9c 32 3f
       0.049754895 -0.19588149 -0.03764452 0.69770485
000030 0d d4 8d be 92 26 cc bd b0 39 20 3e fe 12 01 3f
       -0.27700844 -0.09968294 0.15647006 0.50419605
000040 73 fe 0c 3e 7e bf 5a 3e 3f 97 bc 3d 35 11 19 3f
       0.1376894 0.21362111 0.092085354 0.5979188
000050 fa 35 ca 3e 4f 0b d7 3e 81 8b c1 3e 6c 8d a8 bd
       0.39494306 0.42000815 0.37801746 -0.08230099
000060 e1 0a 8c 3e 1a 48 a7 3e 66 40 6c bd 81 75 3d 3d
       0.2735205 0.32672197 -0.057678603 0.04625464
000070 e6 d3 2c 3e f5 4c e9 bd 12 f3 47 be a7 51 7c be
       0.16877708 -0.113916315 -0.19526318 -0.24640523
000080 05 78 5a 3d 82 f0 af 3e 4d e4 3d be 49 bc f3 bc
       0.053337116 0.3436318 -0.18544121 -0.029752867
000090 a8 43 b4 3e 4f 73 97 3d b2 7e 9c be e9 c2 3d 3e
       0.35207868 0.0739504 -0.3056541 0.18531384
0000a0 16 18 ba 3e ab d5 ef 3e d2 53 fb 3e e2 ba b0 3e
       0.363465 0.46842703 0.49087387 0.3451758
0000b0 e6 72 a7 bd 95 cf 14 3e 18 8c 61 3e fc 93 99 3e
       -0.08176212 0.14532311 0.22026098 0.29995716
0000c0 b8 fa a9 3e 33 81 0c 3e 1e 0d 09 3f e3 2d 55 3e
       0.33199096 0.1372116 0.5353564 0.20818286
0000d0 c9 28 9d 3e 04 6a ef 3d 8e 95 bc 3e dd 23 74 3e
       0.3069518 0.11690143 0.3683285 0.23841806
0000e0 f0 1a f4 3e 9d bd 4d be 04 59 24 3e 41 e5 ae 3b
       0.47676802 -0.20091863 0.16049582 0.005337388
0000f0 8e f9 56 bd a9 ac 13 3e 3d 99 ff 3e 95 d5 a3 3d
       -0.052484088 0.14421333 0.499216 0.07999722
000100 64 69 cd be cb 09 91 3e f7 3c 92 3e 27 88 7c be
       -0.4011947 0.28327784 0.28562137 -0.24661313
000110 f1 57 3f 3f a0 6c 46 3e 17 c6 82 be 88 63 5b bd
       0.7474356 0.19377375 -0.25541756 -0.053561717
000120 1d 8a 92 bd 26 58 a2 3d 33 10 8f 3e c9 7a 8c be
       -0.07155249 0.07926969 0.27942047 -0.27437428
000130 8d 7a ae 3e fe 7b 83 be 1b e5 1a 3e fc 2e 9e 3e
       0.34077874 -0.25680536 0.1512646 0.3089522
000140 19 90 10 3f 45 9f 01 3f 29 8e ae bc 9b 34 a1 3e
       0.56469876 0.5063365 -0.021308022 0.31485447
000150 0f cb 41 3f b0 28 94 bd 36 c9 b1 3e 17 76 39 3f
       0.7570047 -0.07234323 0.34723824 0.72445816
000160 18 2c 09 3d 7f e4 38 be 49 62 a2 be 62 69 f4 3e
       0.033489317 -0.18055914 -0.3171561 0.4773665
000170 fb c3 a2 bd 74 db 64 3e 92 62 e4 3d a6 1b 14 bd
       -0.079475366 0.2234934 0.11151613 -0.03615918
000180 2c b1 50 3e 7b 04 7c be de 99 5d 3e 6b 9f 26 3f
       0.20380086 -0.24611084 0.21640727 0.65087
000190 d7 7e 8b 3e 87 6c 6d bd 79 2a 92 3e 45 50 dc bd
       0.2724521 -0.057964828 0.2854803 -0.10757498
0001a0 31 95 72 be aa 88 fb 3e 7d c6 86 be ec 64 5a bd
       -0.23689725 0.49127704 -0.2632331 -0.053318903
0001b0 31 f6 ce 3e 67 45 55 3e 21 40 51 bc d9 68 7f be
       0.40422204 0.20827256 -0.012771637 -0.2494234
0001c0 f8 ee 58 3e 9b 66 1f 3e 05 1d 9b be d1 02 d8 3d
       0.2118491 0.15566485 -0.30295578 0.10547412
0001d0 5c bd 2c 3f 3d 9c 1e 3f c5 3b 24 3d 41 7b f5 3d
       0.6747644 0.6195715 0.040096063 0.119863994
0001e0 19 a3 d3 3d bb fb 81 3d f3 32 d1 3e 39 6a 25 3d
       0.10333843 0.06346842 0.40859184 0.040384505
0001f0 88 3c 6e be ee 86 18 3e fd e2 5a 3e b3 1f c8 3c
       -0.23265278 0.14895222 0.21375652 0.024429178

fc2.weight f4 [128, 128]
000000 2e ac 0b 3f 0f ef 2c be 8a 00 59 3d 75 42 d8 3e
       0.545596 -0.16888069 0.05297903 0.42238203
000010 4a 92 f5 3d 84 fa c6 3e 0b 3a da bd 9f ad 42 3d
       0.11990793 0.38863003 -0.10655602 0.04752886
000020 5b 9e 2a 3f 18 00 26 3e 73 1d 05 3f 8f a3 e3 3d
       0.6664788 0.16210973 0.5199806 0.11115181
000030 1c 06 7f 3e f0 f6 9f bd 93 c8 ec 3d 47 41 dd 3d
       0.24904674 -0.078107715 0.11561694 0.10803466
000040 f1 d2 6c 3d ee 5b 95 be 51 29 04 3f 48 9a 94 bf
       0.057818357 -0.291717 0.51625544 -1.1609583
000050 18 5b 28 3e 93 fb 4c be 9d ec 47 3e 03 65 06 3f
       0.16441 -0.20017843 0.19523855 0.5249788
000060 5f 23 c1 3d 7c ae 88 3e cc 73 33 3f b8 41 0a 3e
       0.094305746 0.2669562 0.70098567 0.13501632
000070 00 a3 87 3d 49 53 88 3f 55 77 5e 3e be 43 4d bf
       0.06622887 1.0650417 0.21725209 -0.8018149
000080 4c 9d 52 3e 73 22 c1 3b 01 63 31 3e fc 92 bb 3d
       0.20567816 0.0058939992 0.17322923 0.091588944
000090 d7 64 7a 3d 98 bf 01 bf ca d4 cf 3e 43 0d 18 3e
       0.061131325 -0.50682974 0.40592033 0.14848809
0000a0 18 ff 3d 3e 82 d1 d9 be 58 e5 96 3e de ec b3 3d
       0.18554342 -0.42542654 0.2947185 0.08785413
0000b0 ef 51 a1 be 39 3b 06 bb e8 19 00 3e 29 22 a1 3d
       -0.31507823 -0.0020482077 0.12509882 0.07867844
0000c0 08 8c d8 3d 40 3f d7 3e f4 ec 99 3c 40 75 7a 3d
       0.10573584 0.42040443 0.018789746 0.061146975
0000d0 7b 1b a5 3e 22 05 16 3e 65 da ff 3d 75 2d ba 3b
       0.32247528 0.14650396 0.12492827 0.0056816884
0000e0 4c e2 52 3e c5 4a 69 3e 6f 00 42 3d 3f 78 62 3e
       0.20594138 0.22782429 0.047363695 0.22116183
0000f0 9b 73 03 3f 9c d0 87 3e 56 15 7c be 31 a3 98 be
       0.51348275 0.26526344 -0.24617514 -0.29812005
000100 2c b4 97 3f b8 8d 8f 3d 5e 2f 5f 3e 73 57 53 3f
       1.1851859 0.070094526 0.21795413 0.8255531
000110 6c fc 14 be c9 98 a7 be 30 08 10 3f a7 90 43 3f
       -0.14549416 -0.32733753 0.56262493 0.76392597
000120 5e 7b 9b 3b 99 f7 09 3e b8 39 1f 3d 1c ea 9c 3e
       0.004744931 0.13473357 0.038873404 0.3064736
000130 5a 3d 82 3d 17 b3 69 3e 96 51 45 3e 0b 23 85 bf
       0.06359358 0.22822224 0.19269404 -1.0401319
000140 36 52 6e 3e 6f 4a 79 3e cf 8b 1e 3d 73 d4 a6 3e
       0.23273548 0.243448 0.03870755 0.3258396
000150 12 78 f3 bd bc 00 96 3e 65 74 18 3d 5e 15 69 be
       -0.11888136 0.29297435 0.037220377 -0.22762057
000160 fe ff 11 3f 10 f0 08 3f 1a d9 9b 3e c3 0a 28 3c
       0.5703124 0.53491306 0.30439073 0.010256472
000170 52 1b 0c 3f dc 0a 72 3e 15 fb 93 bc 5f ca 9a 3e
       0.5472919 0.23636955 -0.018064061 0.30232522
000180 4f 50 5f be 25 f3 bc be 8c 23 0d 3d 5c 46 29 3e
       -0.21807979 -0.36904255 0.03445773 0.16530746
000190 a3 ff 45 3d 48 ce 0e 3f 29 ff 7e be 73 87 09 3d
       0.048339497 0.5578351 -0.24902023 0.03357644
0001a0 3b d9 8d 3e 89 07 68 be 23 df 0d 3f 75 b4 a4 bf
       0.27704796 -0.22659124 0.55418605 -1.2867571
0001b0 d3 b7 c0 bd 32 38 6c be 08 2f 38 3e 9e 8a 32 3f
       -0.09410062 -0.23068312 0.17986691 0.69742763
0001c0 cd 7c 84 3e fe cf 0c be a1 36 62 3f d4 42 2d 3e
       0.25876465 -0.13751218 0.8836461 0.16920024
0001d0 08 72 1b 3c a4 91 5e bd 8c 84 45 bf 5b 41 79 3e
       0.009487636 -0.054338112 -0.77155375 0.24341337
0001e0 2d d2 9a 3e 95 df 5d 3e 9b e3 6c 3e e8 d3 ed 3d
       0.30238476 0.21667321 0.231337 0.116126835
0001f0 0e c5 31 3f a3 e1 0f 3e 3f af 61 bd f5 b8 85 3e
       0.69441307 0.14050917 -0.05509877 0.26117674
000200 8d ac b3 bd 8a 8f ca be ab 1e 52 3d 6c 2f 1a be
       -0.08773146 -0.39562637 0.05129878 -0.15057153
000210 59 f9 c5 bd a9 cb b2 be c3 bf c6 3d c7 63 2e 3d
       -0.096667 -0.34921005 0.097045444 0.042575624
000220 fa 64 b9 bb 68 72 39 3d 6e 19 a4 be 8b e7 af 3d
       -0.0056577893 0.045275122 -0.3205065 0.08589085
000230 cf 6f cb bd a1 1a b9 be 88 1a 41 be 5f 3c 37 3e
       -0.09933435 -0.3615313 -0.18857777 0.17894123
000240 0a 2c 60 3d 0a f0 ad be ec fb 70 3e 83 46 ff bd
       0.0547295 -0.33972198 0.235336 -0.12464621
000250 ed 61 8e 3d 5c 00 94 be a2 ef 36 3e 02 9f 58 3e
       0.069522716 -0.28906524 0.1786485 0.21154407
000260 28 67 00 be c4 e6 1b 3e 01 71 11 3f 8c 05 37 3e
       -0.12539351 0.15224749 0.56813055 0.1787321
000270 a1 dd 71 bf 6c 48 13 3f 96 5b 8a 3d f8 7f 04 bf
       -0.94478804 0.5753238 0.0675575 -0.51757765
000280 63 cd a4 bd 7e 51 34 3d c8 cb bc be 8a 58 02 3f
       -0.08046987 0.04402303 -0.36874223 0.5091635
000290 e3 14 6a bd 0c 8f 73 3e 00 64 ac be 79 1d 49 3e
       -0.057148825 0.23785037 -0.33670044 0.19640149
0002a0 ff f4 9c 3e f6 60 64 3d ae 38 19 3e 72 a1 32 be
       0.30655667 0.05575653 0.14963028 -0.17444399
0002b0 e2 bc 87 be f7 8c a8 3e d8 b3 ee be 28 ed ad 3e
       -0.26511294 0.32920048 -0.46621585 0.33969998
0002c0 23 79 4f 3e a8 37 18 bd 07 98 c5 3d d8 81 e8 bd
       0.20261054 -0.037162453 0.096481375 -0.11352891
0002d0 e6 09 0c 3c ea e4 1b 3c 3e 89 26 3e 24 a9 fa 3e
       0.008547282 0.009515027 0.16263291 0.4895717
0002e0 cd 0a 1d 3e f4 43 e5 be 90 66 48 be ae d0 f1 bc
       0.15336151 -0.44778407 -0.19570374 -0.029518452
0002f0 6b 7b 0a 3d b5 16 ae 3d 45 b8 a4 be 40 4e e1 3e
       0.033809107 0.08500425 -0.32171836 0.44005013
000300 e5 40 3b 3f 95 73 9a 3d 3b 36 b9 bd e0 6d 72 3e
       0.73145896 0.07541577 -0.09043547 0.23674726
000310 94 82 19 bc 33 66 f2 be 4a c7 a6 3b c3 1f 0d be
       -0.009369511 -0.47343597 0.005089675 -0.13781647
000320 08 b3 4a 3e 4e b4 10 3e c7 63 85 bd 2c fa f8 3d
       0.19794858 0.14131281 -0.06513172 0.121570915
000330 23 03 eb bd cc a0 ec 3e 0e 89 ed bd 01 df 0e bf
       -0.11475208 0.46216428 -0.11598407 -0.55809027
000340 e2 e3 47 3e db c1 12 3e 02 d6 74 3e 48 00 4f 3e
       0.19520524 0.14331762 0.23909763 0.20214951
000350 68 43 43 3e d8 1f a2 be 44 9b ab bd cd d9 ee bd
       0.19068682 -0.3166492 -0.08379224 -0.11662636
000360 3a fa 85 3e 6d b0 cd 3e d0 dd 78 bf 4c c1 55 3a
       0.2616747 0.40173665 -0.9721346 0.00081541087
000370 b4 68 1a 3f 87 9d ff bd 56 8d 27 3f 40 f0 21 3d
       0.60316014 -0.12481218 0.65450037 0.03953576
000380 99 2d 5c be 49 97 9a be cc b6 0d 3e 62 bb 0a 3e
       -0.21501769 -0.30193546 0.13839263 0.13548043
000390 28 53 39 3e 21 15 f7 bd 09 e7 0f bf 42 62 22 3e
       0.18098128 -0.12064577 -0.56211907 0.15857795
0003a0 5b 03 01 3f 4f 5d 70 be 37 b2 05 3f bc 76 18 bf
       0.50395745 -0.23473094 0.5222506 -0.59556174
0003b0 be 4d ff 3c 70 ba bf 3d 09 2e 53 be fe 68 af be
       0.031165 0.09361732 -0.2062303 -0.3425979
0003c0 d2 2c d4 bd e5 3e 2d be 81 39 9f 3d 25 f2 17 bf
       -0.10360111 -0.16918524 0.0777464 -0.5935386
0003d0 76 f3 73 3d 77 d2 40 3e 94 e5 e8 be eb 9d c4 3d
       0.059558354 0.18830286 -0.45487654 0.09600433
0003e0 c7 c5 aa 3e ae 61 75 3c 15 d4 74 3d 4d cb 62 3e
       0.33354017 0.014976902 0.05977257 0.22147866
0003f0 90 c5 79 3e ed d6 e9 3d 39 c3 e7 3d 9d 39 87 3e
       0.2439177 0.11417947 0.11316533 0.26411143

fc2.bias f4 [128]
000000 de 3b 95 bd 51 b4 0e 3e 64 7e 0b be e6 d2 1f bd
       -0.072868094 0.13935973 -0.13622433 -0.039019488
000010 72 e3 29 3e f6 c8 a2 3c cf 2a 16 3e 9d 76 bd bd
       0.1659067 0.019871216 0.14664768 -0.09251139
000020 8e d9 84 bd a9 3b 5a 3d 8f 4d fd bc bb 45 52 bd
       -0.06486808 0.053279553 -0.030920772 -0.05133603
000030 61 bd 1e 3e 72 d2 0a 3e 3b 6d 00 3f ae 02 ff bd
       0.1550193 0.13556841 0.5016667 -0.12451683
000040 2a 17 0b 3e 0a 80 d7 3e 38 bd 06 3e 6c 3e c0 3d
       0.13583055 0.42089874 0.13158119 0.09386906
000050 bf 0d 15 bd 89 0c ef 3d 6a 24 e5 bd 35 69 43 3d
       -0.036390062 0.11672313 -0.11188586 0.047707755
000060 d0 b5 c5 3e cc aa 07 3d 6e a1 47 3e c7 95 8c 3e
       0.38615274 0.03312187 0.19495174 0.2745802
000070 3f 7d 2b bc 8c 1e 29 be 40 6d 80 3d 9a 41 70 3d
       -0.010466873 -0.16515559 0.06270838 0.058656313
000080 d7 e3 b3 3e 34 c3 43 bd ea 39 64 3d 25 c6 ec 3d
       0.35134766 -0.047793582 0.055719294 0.115612306
000090 a5 93 d3 3e 13 7f 07 bc 10 40 93 bd 33 c9 8a bd
       0.4132358 -0.008270043 -0.07189953 -0.06776657
0000a0 e6 15 13 be e4 f3 82 3d 54 10 85 3d 6d 77 56 3e
       -0.14363822 0.06394175 0.06497255 0.20943995
0000b0 bf 18 b0 bd 60 be 4d bd ae f8 a3 3e 6d bd 24 3e
       -0.0859847 -0.050230384 0.32025665 0.16087885
0000c0 7b fe 4c 3d d9 ac 17 3e 39 ed 8d 3d 65 43 46 3c
       0.05004738 0.1481203 0.06930012 0.012101029
0000d0 d5 82 a5 bd 0d c4 ce bc 1c 4a 34 3d a7 8d 52 3e
       -0.08081595 -0.025239969 0.04401599 0.20561849
0000e0 e9 79 dd bc 9c 8e eb bc 43 aa 23 bd a2 0e 81 3e
       -0.02703567 -0.028754525 -0.039957296 0.25206476
0000f0 60 fc 93 ba 26 8f da bc e0 e3 0b 3b dc 59 20 3e
       -0.0011290424 -0.026679587 0.002134554 0.15659279
000100 a5 fc 20 3e 76 c0 2d 3d 6c 2c d2 3d 6b 44 61 b9
       0.15721376 0.042419873 0.10262379 -0.0002148316
000110 ea f1 ec bc 79 ce c2 3d 25 a0 a0 3e 94 b1 d6 bd
       -0.028923947 0.09512038 0.3137218 -0.10483089
000120 65 28 8d 3e 9c 1d e2 3d 91 8a 07 3e d3 c4 72 3e
       0.2756988 0.11040804 0.13236453 0.23707895
000130 a6 0d 8d bd c8 84 ad bc c5 e8 7c 3c 7e 1b 83 bc
       -0.06887369 -0.02118148 0.015436356 -0.01600432
000140 3d 82 77 bd ba ee 68 3e 4c 82 20 be e3 88 99 bd
       -0.06042694 0.22747317 -0.15674704 -0.07496812
000150 bb 10 24 3d 3a 55 12 3e f7 72 b6 bd 9c 39 9d bc
       0.040055018 0.14290324 -0.089086466 -0.01919251
000160 c2 eb a0 3e b5 6c d4 3d 54 e5 23 3e 12 c6 6e bd
       0.3142987 0.10372297 0.1600545 -0.058294363
000170 60 0c 9f 3e 25 fc e8 3d 56 a9 09 be 2a 87 e1 3d
       0.3106413 0.11376218 -0.13443503 0.110121086
000180 2c 7f aa 3d bd 62 eb 3d 75 34 93 3e 86 9e 65 3e
       0.08325037 0.11493442 0.2875096 0.22423753
000190 0a ff 10 3d 2d 47 a4 3d c4 d2 88 3d 09 76 b4 bc
       0.035399474 0.08021388 0.06680825 -0.02202894
0001a0 71 54 ce bd f3 6b 32 3e a8 c2 25 3e df c6 94 3d
       -0.100747 0.17423992 0.16187537 0.07264494
0001b0 24 83 53 3d 61 7c bc bd fd 58 1f 3d 86 96 b7 3d
       0.051638737 -0.09203411 0.038903225 0.08964257
0001c0 21 8d 14 bd 0f 2f d5 3d c4 1d 50 3e 6a 30 dd bd
       -0.036267404 0.10409366 0.20323855 -0.1080025
0001d0 8f 93 ad 3e 33 9b f2 3e 32 6f 34 3e 15 26 b2 bd
       0.3390164 0.47384033 0.17620543 -0.0869867
0001e0 cf d1 09 bd 06 4b 41 3d 87 4f fe bd fb f1 0a 3e
       -0.033647355 0.04719069 -0.124175124 0.1356887
0001f0 ad 99 54 3e d3 54 86 3d d9 45 4a 3d 8f c4 ad 3e
       0.20761748 0.06559148 0.04938302 0.33939025

fc3.weight f4 [4, 128]
000000 e3 8d ab be 6e 40 91 be 84 94 61 be d7 8a c7 be
       -0.33506688 -0.28369468 -0.2202931 -0.38973114
000010 de 65 97 be fa 7b c7 be ae 17 0e 40 1d af ca be
       -0.29569906 -0.38961774 2.2201953 -0.39586726
000020 30 02 c1 bc 2c a4 35 be 28 77 35 3f 82 58 ca be
       -0.023560613 -0.17738408 0.70884943 -0.3952065
000030 a2 a8 9c 3f 2a 21 ca be 9f 29 8c 3f 2b c9 c5 be
       1.2238963 -0.39478427 1.0950202 -0.3863004
000040 d9 35 16 bc a0 06 5f 3f 63 d3 11 bf 0b bc 75 3f
       -0.009168112 0.87119484 -0.56963176 0.95990056
000050 6c c2 91 be f9 52 30 bf a3 be d3 be 1c 44 a9 be
       -0.28468645 -0.68876606 -0.41356382 -0.33059776
000060 7f 16 6d 3f cc 81 f6 be 7e 65 30 bf 0a 03 65 3f
       0.9261245 -0.48145902 -0.68904865 0.8945776
000070 a6 da 96 3f 9d d9 2b be 05 8b c6 3e 80 76 a3 bd
       1.1785476 -0.16782232 0.38777938 -0.079815865
000080 ec 81 5f 3f 4b e1 ba be f7 ee b5 bd 84 fa 7e 3e
       0.8730762 -0.3650001 -0.088834696 0.24900252
000090 95 f4 5f 3f ea 71 39 be b5 64 7d bd 83 8e 04 bf
       0.8748258 -0.18109861 -0.06186362 -0.51779956
0000a0 3b 83 99 be 6b 92 17 bf aa 48 0b bf 55 71 c0 3e
       -0.29982933 -0.5920779 -0.5440775 0.37586465
0000b0 70 29 ef be 92 fe 83 be d1 8d df 3f 09 0f 3b bf
       -0.46711302 -0.2578016 1.7465154 -0.73069817
0000c0 3c 77 e8 be fc cb 7b be d2 d4 0e bf fa 7d aa be
       -0.4540347 -0.24589533 -0.5579349 -0.33299237
0000d0 42 1f e9 be 7c 3a b6 bc 70 a0 7b 3f 7c 07 61 3f
       -0.4553166 -0.022244684 0.98291683 0.87902045
0000e0 3c 89 a3 be 33 78 9d be 83 9a ee be 8c fa c9 bd
       -0.3194064 -0.30755767 -0.46602258 -0.09862241
0000f0 7b 78 80 be ff 72 a1 be 0f ad 02 3d 31 e3 e1 3f
       -0.2509192 -0.31533048 0.031903323 1.7647458
000100 bb 5d bd bf 91 9c 23 bf 86 80 2b bf ff 4b ae be
       -1.4794229 -0.63910776 -0.66992986 -0.34042355
000110 7d 30 d4 be 2b bb 8b 3d d5 7b 6e 3f 28 3d 28 be
       -0.41443244 0.06822809 0.931577 -0.1642958
000120 80 9b 04 3f 1a 42 1c bf 10 30 1d bf 91 97 4f 3f
       0.51799774 -0.6103836 -0.6140146 0.81090647
000130 0b ab cb be 33 4b 41 be ca 13 49 bc 40 b3 39 be
       -0.39778933 -0.18876342 -0.0122727845 -0.18134785
000140 19 53 00 bf b9 50 24 bf 5c 47 c1 be 22 e9 11 bf
       -0.50126797 -0.64185673 -0.37749755 -0.5699636
000150 10 70 fc be 81 9c b5 3c f8 81 9b be 7b f0 8f be
       -0.49304247 0.022169353 -0.30372596 -0.2811316
000160 7c 9d 65 3f 3e 30 09 3f 3b 1b 27 40 f9 68 0e bf
       0.8969343 0.53589237 2.611037 -0.55628926
000170 a9 2b 7d 3f 94 b6 5c bd d6 bd 55 be 76 f5 bf bf
       0.98894745 -0.053885058 -0.20873198 -1.4996784
000180 0e 7d c8 3e 5d ce f5 be 6f 6f 43 3f 99 0a 84 3f
       0.3915791 -0.48009005 0.7634191 1.0315734
000190 ed 96 09 bf cf bb fd be c0 04 ed 3d b8 4f b3 be
       -0.5374592 -0.4955735 0.115731716 -0.35021758
0001a0 87 d3 97 be 66 18 81 bf 5d 99 d6 be 1b 64 78 3f
       -0.2965357 -1.0085571 -0.41913882 0.9702775
0001b0 b0 90 63 bf 5e 5f dd be e2 8f 60 bf 93 84 53 3f
       -0.8889265 -0.43236822 -0.8771955 0.8262417
0001c0 38 28 8f be b0 3a 17 bd 3a 6a 85 bf 13 11 c2 be
       -0.27960372 -0.036921203 -1.0423043 -0.37903652
0001d0 93 77 49 3f 8b 4b 8d 3f e5 72 3b 3f 8c f7 95 be
       0.7869808 1.1038679 0.7322219 -0.29290426
0001e0 8b 90 d7 be 31 6e c0 be cf 43 9b be 20 42 34 bf
       -0.42102465 -0.3758407 -0.3032517 -0.704134
0001f0 35 eb e7 3f e2 51 3c 3c a9 e5 dd be ab aa 72 3f
       1.8118654 0.011494132 -0.4333928 0.9479167
000200 2c 95 fa be ee c6 0d 3e d6 35 ee be 28 51 90 be
       -0.48941934 0.13845417 -0.4652545 -0.28186917
000210 d9 f6 2a 3e fb 7f d4 be ed b7 08 40 00 68 da be
       0.16695727 -0.4150389 2.136226 -0.4265747
000220 41 9b 91 bd 1d 67 37 bf cb d2 66 3d d7 76 99 be
       -0.071096905 -0.71641713 0.05635337 -0.2997348
000230 ed bc aa 3f e8 20 96 be 33 65 7d 3f 57 78 9f be
       1.3338906 -0.2932198 0.9898254 -0.311465
000240 20 0a e2 be ad 65 58 3f 59 8a b4 bd ec b5 04 3f
       -0.4414835 0.84530145 -0.0881545 0.5184009
000250 17 8d aa be 9a 9a 8a 3e 58 68 a7 be 85 59 78 be
       -0.33310768 0.27071077 -0.32696795 -0.24252899
000260 33 22 31 3f fe dc 0b bf b3 51 04 bf 65 19 87 3f
       0.6919281 -0.5463408 -0.51687163 1.0554625
000270 ae 91 53 3f 7e 38 2c bf f7 cb 61 3f c0 f4 a1 3b
       0.82644165 -0.672737 0.8820185 0.0049425066
000280 3d 88 86 3f ae 42 8b be ac 18 87 3b b2 06 ef bd
       1.0510327 -0.2719931 0.004122814 -0.11671199
000290 0d a7 6e 3f f5 1a 04 bf 8d 8e 3c bd 9d b0 b4 be
       0.9322365 -0.51603633 -0.046034385 -0.35290995
0002a0 1f d5 d9 be d9 ee 97 bf c6 b7 35 bf c7 49 96 3d
       -0.4254541 -1.1869766 -0.7098354 0.07338291
0002b0 c8 f5 9f be 8d d2 d7 be 53 42 d1 3f a8 44 d9 be
       -0.31242204 -0.42152825 1.6348366 -0.42435193
0002c0 7a 97 c0 be d4 07 0b bf 13 6e bc be 83 4b 8e be
       -0.37615567 -0.5430882 -0.3680273 -0.27791986
0002d0 5a 34 94 be 2e ee 83 3c 07 3f 71 3f ad e9 4b 3f
       -0.2894619 0.016104784 0.942368 0.79653436
0002e0 16 03 cf be 94 9c ce be 68 9d a4 be a3 43 c3 3e
       -0.40432042 -0.40353835 -0.3215134 0.3813754
0002f0 1c 13 96 be 83 89 ce be 47 23 27 bf 34 53 e3 3f
       -0.29311454 -0.40339288 -0.65288204 1.7759767
000300 39 0f 70 bf 0f 4e 9b be 39 a2 fa be bb b2 8e be
       -0.9377323 -0.3033299 -0.4895189 -0.27870736
000310 62 40 d8 be cc 1a 3f 3f 27 89 4d 3f db 64 04 bf
       -0.4223662 0.74650264 0.802874 -0.51716393
000320 5d 23 40 3f 5d 25 e7 be a3 ff 4f bf 29 df 96 3f
       0.7505396 -0.45145693 -0.81249446 1.1786853
000330 6f a7 a7 be 87 60 ed be 59 4d ed be 66 3c e8 be
       -0.3274493 -0.46362707 -0.46348074 -0.4535858
000340 95 92 a0 be 14 13 80 bf c6 74 a3 be 07 80 39 bf
       -0.31361833 -1.0005822 -0.3192503 -0.7246098
000350 f1 da 62 3e 80 c6 58 bf 84 4b ca be 01 6e b1 be
       0.22153832 -0.84677887 -0.3951074 -0.3465424
000360 b8 52 1c 3f 3f cf 22 3f 05 07 58 40 f4 a5 c6 be
       0.6106372 0.6359748 3.3754284 -0.38798487
000370 0e 90 2f 3f b6 d0 54 be ff 50 d3 be ed c3 a2 bd
       0.68579185 -0.20782742 -0.41272733 -0.07947526
000380 d9 93 1a 3f 73 e6 92 be 62 97 5a 3e f3 4d 9d 3f
       0.6038185 -0.28691444 0.2134681 1.2289413
000390 bf 8d dd be 6d 0e c0 be 00 08 51 be ec 57 af be
       -0.43272206 -0.37511006 -0.20413208 -0.34246767
0003a0 4f 58 a0 be 51 d7 e0 be 53 87 78 bf b1 77 6b 3f
       -0.31317374 -0.43914273 -0.9708149 0.9197951
0003b0 b1 77 33 bf dd e4 ae be 5f 95 bf be 2f 30 87 3f
       -0.7010451 -0.34158984 -0.3741865 1.056158
0003c0 c2 54 a5 be 8f 10 28 be 34 f0 e2 be b5 32 e4 be
       -0.32291228 -0.16412567 -0.44323885 -0.44569936
0003d0 4c 03 85 3f 7a 0b 72 3f 4f 2b 83 3f ff 7e d3 be
       1.0391631 0.9454876 1.0247592 -0.41307828
0003e0 97 2a c6 be 16 87 b2 be 2e c7 d4 be c3 f6 67 bf
       -0.38704368 -0.34868687 -0.41558212 -0.90610904
0003f0 8f d6 ce 3f 62 f6 94 3c 48 8e 99 be 1b a7 8d 3f
       1.6159228 0.01818389 -0.29991364 1.1066622

fc3.bias f4 [4]
000000 2f 26 1b bd 32 d0 4d 3c cd ef 9d 3d f9 88 8c bd
       -0.03787821 0.012561845 0.07711754 -0.06862063
