dqn_mountain_car_checkpoints.pth (torch, 67257 bytes, 18 tensors)

fc1.weight f4 [12, 2]
00000000: ca78 efbe 3746 b9be b11d c1be 7017 d6bd
00000010: 0b1f 02bf 40d1 afbd 45c8 da40 6f1a f140
00000020: 3fe4 d640 f85d f540 aac0 d240 0f5c 0041
00000030: ac9f 283e aa6f fdbe 6ea3 30bf 28d8 febd
00000040: 00ec 8abe 6968 f03c 7778 ae3f bdb3 3e40
00000050: d056 e140 8ce8 0241 0977 d540 9ff5 fd40
-0.46771842 -0.36186382 -0.37717965 -0.10453689 -0.5082862 -0.08584833 6.836947 7.5344768
6.715362 7.667721 6.5860186 8.022475 0.1646716 -0.49499255 -0.68999374 -0.12443572
-0.2713318 0.029346662 1.3630513 2.9797204 7.041847 8.181774 6.6707807 7.936233

fc1.bias f4 [12]
00000000: de59 ed3e e04c 5c3e 6224 a53e dcaf dc41
00000010: aace de41 d815 dc41 6d60 32bf a4b8 753e
00000020: 68b6 84be dc6d da41 b36c dc41 9c7f de41
0.46357626 0.215137 0.3225432 27.585869 27.85091 27.510666 -0.69678384 0.23996216
-0.25920415 27.303642 27.553076 27.81231

fc2.weight f4 [8, 12]
00000000: c8e1 9b3d 1064 2f3d b8ab 853d 8cfa 553c
00000010: 315c 2f3e 3131 98be 00bb 923d 7478 d2bd
00000020: e212 3b3e 18b8 7a3d bfc9 8cbe a310 133e
00000030: e475 923e e8f6 07be 4437 d2bd 10f2 663d
00000040: 5b6a 14be da4e 383e 7819 c2bd 4c41 47bd
00000050: 7ef2 433e 32f7 79be cb18 88be b070 e2bc
00000060: 0c37 b83d 3076 c53c f2ef 10be 4529 0f41
00000070: af5f 1441 1162 1341 4a43 edbd b8cd 0bbd
00000080: 467f e3bc 7a24 bd40 bedc 0f41 2cde 1341
00000090: 78b4 af3d 98f8 88bd 2007 8b3e b2e0 1040
000000a0: 9ce0 0140 eebc ed3f bc12 31bd d03b d53d
000000b0: 0ea0 eabd e0e7 4140 e8df f93f 247b ff3f
000000c0: f884 323e 3c1d 893d c00e b2bc 2b9c 05be
000000d0: 1cd8 e0bd 1bf5 7fbe 22c4 68be ea4a 6abe
000000e0: 745d c3bd 1b0e 5fbe f06a 17bd 8009 7f3b
000000f0: afb0 91be 1a4d 243e 924c ccbd 0085 b5ba
00000100: f620 2abe 0e31 49be a489 473e 4240 55be
00000110: feea f4bd 2e96 123e 54df 86be f0e6 7a3e
00000120: 3c1b b9bd c076 91bb 48b4 2dbe 4feb 713d
00000130: 0ea2 1ebd 434e e4bd 7062 953d 3033 133d
00000140: accc 263e 0004 333e dd5d 7ebe 0baf abbe
00000150: 202f ea3d 2633 79be 2c87 8dbe c865 86bd
00000160: ca90 89be 2c12 1a3e 5840 133d 76b3 803e
00000170: d0b4 4d3e 7879 903e 50ac 8f3c 87db 63be
0.07611424 0.042820036 0.065268934 0.013060223 0.17125012 -0.2972503 0.07164574 -0.10276881
0.18268922 0.06121072 -0.2749767 0.14361815 0.28605568 -0.13277781 -0.10264447 0.056383193
-0.14493696 0.1799883 -0.09477514 -0.048646256 0.19135472 -0.24410704 -0.26581416 -0.027641624
0.08994874 0.024104208 -0.14154032 8.947576 9.27336 9.211442 -0.115851 -0.034131736
-0.02777065 5.9107027 8.991392 9.241741 0.085793436 -0.066880405 0.27153873 2.2637143
2.029334 1.8573282 -0.043230757 0.10411799 -0.11456309 3.0297775 1.9521456 1.9959455
0.17433536 0.06695029 -0.021735549 -0.13047855 -0.109787196 -0.24995844 -0.22731069 -0.2288014
-0.09539309 -0.21782725 -0.036967218 0.0038915575 -0.2845511 0.16045037 -0.09975542 -0.0013848841
-0.16614136 -0.19647619 0.194861 -0.20825294 -0.11958884 0.14315102 -0.2634226 0.24502158
-0.09038398 -0.004439205 -0.16963303 0.0590623 -0.038728766 -0.1114774 0.07294166 0.035937488
0.16289014 0.17481995 -0.24840494 -0.33531985 0.1143477 -0.24335918 -0.2764219 -0.06562382
-0.26868278 0.15045995 0.035950035 0.25136918 0.20088506 0.28217673 0.01753822 -0.22251712

fc2.bias f4 [8]
00000000: 64c3 8cbe b07f ebbc b04d c241 1fea ce41
00000010: 7010 193e d41f 0cbe 9c96 353c b07a 5fbd
-0.2749282 -0.02874741 24.287933 25.864317 0.14947677 -0.13684016 0.011083271 -0.054560363

fc3.weight f4 [3, 8]
00000000: 090a b53e c08a 8fbd af88 1041 56a5 5740
00000010: 85db aa3e f082 91bd ae8c 6a3e f2c2 79be
00000020: 8a75 34be 1eeb 553e 1970 1041 145f 6840
00000030: 187e 5f3d 6fdf 87be fa41 473e e83c 38be
00000040: 2ab8 663e acf8 9dbe eb6f 1341 c0b4 4a40
00000050: c860 b73d 25f7 9b3e 3157 52be 6c81 f73d
0.3535922 -0.07008886 9.03337 3.3694663 0.33370605 -0.071050525 0.22905228 -0.24390772
-0.17622963 0.20890471 9.027368 3.630803 0.05456361 -0.26537654 0.19458762 -0.17991984
0.2253119 -0.30853784 9.214824 3.167282 0.089540064 0.30461994 -0.20541073 0.12085232

fc3.bias f4 [3]
00000000: 2ef5 f5c0 f3b8 2fc0 ad90 1e42
-7.686179 -2.7456634 39.641285

exp_avg f4 [12, 2]
00000000: 0000 0000 0000 0000 0000 0000 0000 0000
00000010: 0000 0000 0000 0000 f1c3 e8c8 d56c 0ac9
00000020: c596 eec8 fde3 0dc9 40a5 ebc8 6724 0cc9
00000030: 0000 0000 0000 0000 0000 0000 0000 0000
00000040: 0400 0000 0400 0000 a372 a6c8 34f6 c5c8
00000050: 582c e7c8 5d7b 09c9 418c edc8 9145 0dc9
0.0 0.0 0.0 0.0 0.0 0.0 -476703.53 -566989.3
-488630.16 -581183.8 -482602.0 -574022.44 0.0 0.0 0.0 0.0
6e-45 6e-45 -340885.1 -405425.62 -473442.75 -563125.8 -486498.03 -578649.06

exp_avg_sq f4 [12, 2]
00000000: 0000 0000 0000 0000 0000 0000 0000 0000
00000010: 0000 0000 0000 0000 b883 5053 759d 8153
00000020: 6614 5b53 462f 8853 4bc2 5553 cce0 8453
00000030: 0000 0000 0000 0000 0000 0000 0000 0000
00000040: f401 0000 f401 0000 6e37 d652 0225 0553
00000050: 21ba 4d53 b1c4 7f53 512f 5953 c501 8753
0.0 0.0 0.0 0.0 0.0 0.0 8.955631e+11 1.113385e+12
9.4094007e+11 1.1698173e+12 9.180877e+11 1.1414143e+12 0.0 0.0 0.0 0.0
7e-43 7e-43 4.6002648e+11 5.7185154e+11 8.83591e+11 1.0985166e+12 9.3280174e+11 1.1597005e+12

exp_avg f4 [12]
00000000: 0000 0000 0000 0000 0000 0000 0c8e 17c7
00000010: 5459 1bc7 526f 19c7 0000 0000 0000 0000
00000020: 0400 0000 d4bd d8c6 b485 16c7 e8ab 1ac7
0.0 0.0 0.0 -38798.047 -39769.33 -39279.32 0.0 0.0
6e-45 -27742.914 -38533.703 -39595.906

exp_avg_sq f4 [12]
00000000: 0000 0000 0000 0000 0000 0000 e15d 8f4f
00000010: 19a2 964f b9f9 924f 0000 0000 0000 0000
00000020: f401 0000 5246 134f c373 8d4f 9554 954f
0.0 0.0 0.0 4.8105887e+09 5.0544113e+09 4.9316787e+09 0.0 0.0
7e-43 2.4708593e+09 4.746348e+09 5.0106967e+09

exp_avg f4 [8, 12]
00000000: 0000 0000 0000 0000 0000 0000 0400 0000
00000010: 0400 0000 0400 0000 0000 0000 0000 0000
00000020: 0000 0000 0000 0000 0400 0000 0400 0000
00000030: 0000 0000 0000 0000 0000 0000 0000 0000
00000040: 0000 0000 0000 0000 0000 0000 0000 0000
00000050: 0000 0000 0000 0000 0000 0000 0000 0000
00000060: 0000 0000 0000 0000 0000 0000 b383 57c9
00000070: 1037 58c9 f563 5bc9 0000 0000 0000 0000
00000080: 0400 0080 f757 a9c8 0b2b 63c9 aa78 5bc9
00000090: 0000 0000 0000 0000 0000 0000 d748 98c8
000000a0: d7c6 98c8 0b04 9bc8 0000 0000 0000 0000
000000b0: 0000 0000 383a efc7 fc83 a0c8 1813 9bc8
000000c0: 0000 0000 0000 0000 0000 0000 0000 0000
000000d0: 0000 0000 0000 0000 0000 0000 0000 0000
000000e0: 0000 0000 0000 0000 0000 0000 0000 0000
000000f0: 0000 0000 0000 0000 0000 0000 0000 0000
00000100: 0000 0000 0000 0000 0000 0000 0000 0000
00000110: 0000 0000 0000 0000 0000 0000 0000 0000
00000120: 0000 0000 0000 0000 0000 0000 0400 0000
00000130: 0400 0000 0400 0000 0000 0000 0000 0000
00000140: 0000 0000 0000 0000 0400 0000 0400 0000
00000150: 0000 0000 0000 0000 0000 0000 0000 0000
00000160: 0000 0000 0000 0000 0000 0000 0000 0000
00000170: 0000 0000 0000 0000 0000 0000 0000 0000
0.0 0.0 0.0 6e-45 6e-45 6e-45 0.0 0.0
0.0 0.0 6e-45 6e-45 0.0 0.0 0.0 0.0
0.0 0.0 0.0 0.0 0.0 0.0 0.0 0.0
0.0 0.0 0.0 -882747.2 -885617.0 -898623.3 0.0 0.0
-6e-45 -346815.72 -930480.7 -898954.6 0.0 0.0 0.0 -311878.72
-312886.72 -317472.34 0.0 0.0 0.0 -122484.44 -328735.88 -317592.75
0.0 0.0 0.0 0.0 0.0 0.0 0.0 0.0
0.0 0.0 0.0 0.0 0.0 0.0 0.0 0.0
0.0 0.0 0.0 0.0 0.0 0.0 0.0 0.0
0.0 0.0 0.0 6e-45 6e-45 6e-45 0.0 0.0
0.0 0.0 6e-45 6e-45 0.0 0.0 0.0 0.0
0.0 0.0 0.0 0.0 0.0 0.0 0.0 0.0

exp_avg_sq f4 [8, 12]
00000000: 0000 0000 0000 0000 0000 0000 f401 0000
00000010: f401 0000 f401 0000 0000 0000 0000 0000
00000020: 0000 0000 0000 0000 f401 0000 f401 0000
00000030: 0000 0000 0000 0000 0000 0000 0000 0000
00000040: 0000 0000 0000 0000 0000 0000 0000 0000
00000050: 0000 0000 0000 0000 0000 0000 0000 0000
00000060: 0000 0000 0000 0000 0000 0000 0d06 2254
00000070: a7e4 2254 437a 2754 0000 0000 0000 0000
00000080: f401 0000 225d c352 24d7 3354 88ad 2754
00000090: 0000 0000 0000 0000 0000 0000 77bb 9e52
000000a0: 1995 9f52 1012 a452 0000 0000 0000 0000
000000b0: 0000 0000 6f5a 3f51 4c2f b052 9e44 a452
000000c0: 0000 0000 0000 0000 0000 0000 0000 0000
000000d0: 0000 0000 0000 0000 0000 0000 0000 0000
000000e0: 0000 0000 0000 0000 0000 0000 0000 0000
000000f0: 0000 0000 0000 0000 0000 0000 0000 0000
00000100: 0000 0000 0000 0000 0000 0000 0000 0000
00000110: 0000 0000 0000 0000 0000 0000 0000 0000
00000120: 0000 0000 0000 0000 0000 0000 f401 0000
00000130: f401 0000 f401 0000 0000 0000 0000 0000
00000140: 0000 0000 0000 0000 f401 0000 f401 0000
00000150: 0000 0000 0000 0000 0000 0000 0000 0000
00000160: 0000 0000 0000 0000 0000 0000 0000 0000
00000170: 0000 0000 0000 0000 0000 0000 0000 0000
0.0 0.0 0.0 7e-43 7e-43 7e-43 0.0 0.0
0.0 0.0 7e-43 7e-43 0.0 0.0 0.0 0.0
0.0 0.0 0.0 0.0 0.0 0.0 0.0 0.0
0.0 0.0 0.0 2.7835449e+12 2.7984834e+12 2.877243e+12 0.0 0.0
7e-43 4.1954057e+11 3.0896344e+12 2.8806836e+12 0.0 0.0 0.0 3.40875e+11
3.4270062e+11 3.5233884e+11 0.0 0.0 0.0 5.1366e+10 3.7835388e+11 3.5276292e+11
0.0 0.0 0.0 0.0 0.0 0.0 0.0 0.0
0.0 0.0 0.0 0.0 0.0 0.0 0.0 0.0
0.0 0.0 0.0 0.0 0.0 0.0 0.0 0.0
0.0 0.0 0.0 7e-43 7e-43 7e-43 0.0 0.0
0.0 0.0 7e-43 7e-43 0.0 0.0 0.0 0.0
0.0 0.0 0.0 0.0 0.0 0.0 0.0 0.0

exp_avg f4 [8]
00000000: 0400 0000 0000 0000 ccc1 79c5 8850 b0c4
00000010: 0000 0000 0000 0000 0400 0000 0000 0000
6e-45 0.0 -3996.1123 -1410.5166 0.0 0.0 6e-45 0.0

exp_avg_sq f4 [8]
00000000: f401 0000 0000 0000 934d 414c b14f bd4a
00000010: 0000 0000 0000 0000 f401 0000 0000 0000
7e-43 0.0 5.0673228e+07 6.2033525e+06 0.0 0.0 7e-43 0.0

exp_avg f4 [3, 8]
00000000: 0400 0080 0000 0000 5723 bec9 c2fe b2c8
00000010: 0000 0000 0000 0000 0000 0000 0000 0000
00000020: 0400 0080 0000 0000 2541 30c8 9879 25c7
00000030: 0000 0000 0000 0000 0000 0000 0000 0000
00000040: 0400 0080 0000 0000 463f 36ca 2b57 2ac9
00000050: 0000 0000 0000 0000 0400 0080 0000 0000
-6e-45 0.0 -1.5576109e+06 -366582.06 0.0 0.0 0.0 0.0
-6e-45 0.0 -180484.58 -42361.594 0.0 0.0 0.0 0.0
-6e-45 0.0 -2.9859375e+06 -697714.7 0.0 0.0 -6e-45 0.0

exp_avg_sq f4 [3, 8]
00000000: f401 0000 0000 0000 29cb 5654 f545 4252
00000010: 0000 0000 0000 0000 0000 0000 0000 0000
00000020: f401 0000 0000 0000 bd9a 3654 d611 2552
00000030: 0000 0000 0000 0000 0000 0000 0000 0000
00000040: f401 0000 0000 0000 141b 7356 fceb 5b54
00000050: 0000 0000 0000 0000 f401 0000 0000 0000
7e-43 0.0 3.6901259e+12 2.0859933e+11 0.0 0.0 0.0 0.0
7e-43 0.0 3.1371205e+12 1.7724221e+11 0.0 0.0 0.0 0.0
7e-43 0.0 6.6824406e+13 3.778228e+12 0.0 0.0 7e-43 0.0

exp_avg f4 [3]
00000000: 0826 01c3 9532 a9c1 9edd 8fc3
-129.14856 -21.149698 -287.73138

exp_avg_sq f4 [3]
00000000: 3d2b d846 cd10 b746 96bd f848
27669.62 23432.4 509420.7
