dqn_mountain_car_env_v0_checkpoint.pth (torch, 50626 bytes, 18 tensors)

fc1.weight f4 [12, 2]
000000 28 c1 d1 3d 13 e0 47 c1 50 2c 64 bf 41 e2 12 c0
       0.1024192 -12.492206 -0.89130116 -2.2950594
000010 39 ca 2a bf 3d 4e 4b 41 ca 4d 07 3f 26 77 c2 be
       -0.6671482 12.706601 0.5285307 -0.37981528
000020 ee 66 ba 3f eb e2 8c 40 00 da 29 3c a2 f3 2f bf
       1.4562662 4.4027 0.010366917 -0.6873113
000030 06 6f 5f 3f 18 f2 e3 c0 4a d6 e3 bd 98 e1 43 41
       0.87278783 -7.1233025 -0.11124857 12.242577
000040 12 7d a4 3e f7 65 20 bf 86 2c 9b 3f b2 65 a4 c0
       0.3212667 -0.62655586 1.2122962 -5.137414
000050 21 59 16 3f 42 66 f0 3e 80 34 a7 bb 1c 02 19 3e
       0.5872975 0.46953017 -0.005102694 0.14942211

fc1.bias f4 [12]
000000 f9 00 c0 3d 77 5c b8 3f 14 c3 a9 be 32 cc 96 be
       0.093751855 1.4403218 -0.33156645 -0.29452664
000010 91 80 91 3f a8 f3 84 be 1a 55 e6 3e 0a ec e3 be
       1.136736 -0.25967145 0.44986802 -0.4451602
000020 3c 12 39 be 41 51 11 be 20 cd be be b7 14 f0 be
       -0.18073362 -0.14191152 -0.37265873 -0.46890804

fc2.weight f4 [8, 12]
000000 27 f1 0c 41 5b 2f 70 be d6 0b 40 41 61 d6 48 be
       8.808875 -0.23455565 12.00289 -0.19613029
000010 ab 73 7c 3f 90 a9 61 bd 35 e4 91 40 a9 39 4a 41
       0.98613995 -0.055093348 4.5591073 12.639077
000020 5d 73 19 be fd c9 d5 c0 a8 e8 c8 bd 52 58 80 bd
       -0.14985414 -6.680907 -0.09810001 -0.06266846
000030 02 90 33 be 19 3b 9e be fc 45 47 3e 8a bf 43 be
       -0.17535403 -0.30904463 0.1946029 -0.19116035
000040 d5 dc 6d bd 6a 0f d1 bd 7f 98 70 3e 7c 2a 6a bd
       -0.05807193 -0.10208018 0.23495673 -0.057169423
000050 5c fa 0c 3e 39 64 31 be 00 81 f3 3a d0 29 8f 3d
       0.1376738 -0.17323388 0.0018577874 0.06990397
000060 d4 8d ac bd 72 90 99 bd 34 e3 e1 3d 48 a3 89 3e
       -0.08425489 -0.07498254 0.11029664 0.26882386
000070 00 dc 74 be 80 50 17 3c d8 34 7f 3d 3e 20 3d be
       -0.23912048 0.009235501 0.062306255 -0.1846933
000080 90 58 65 be 10 cf 84 3e 37 b2 69 be 80 81 7d 3e
       -0.22397065 0.25939226 -0.2282189 0.24756432
000090 44 4a 39 41 fe 72 70 be 59 db 28 41 95 f4 b4 3d
       11.580631 -0.23481366 10.553552 0.08835713
0000a0 fc ce f5 be 54 35 f7 bd 61 85 a8 40 5a b8 37 41
       -0.4800948 -0.120707184 5.2662816 11.482508
0000b0 fa 13 84 3e 25 7b c1 c0 28 ae 2a 3d 4f 9c 23 be
       0.2579649 -6.0462823 0.041669995 -0.15977596
0000c0 e7 d3 b6 c0 8f c6 1b c0 1b 0a d6 c0 6d 72 5b be
       -5.713367 -2.433994 -6.6887336 -0.21430369
0000d0 58 17 61 3f 00 7d e9 3a ae bb b0 3f 82 b4 b2 3f
       0.87926245 0.0017813742 1.3807275 1.3961337
0000e0 8c ed 8c 3d 33 25 96 40 ae 4d 07 3e b0 4d 58 be
       0.06881246 4.692041 0.13213226 -0.21123385
0000f0 57 96 29 41 b2 1a 7d bf 3a 37 2e 41 a3 92 34 be
       10.599204 -0.9886886 10.888483 -0.17634062
000100 95 e9 1f bd b0 71 e4 3c b4 05 aa 40 6e 0c 40 41
       -0.03904112 0.027886242 5.313196 12.003035
000110 34 e7 82 3e c1 8d bd c0 dc 17 8d 3d 1c 90 49 bd
       0.2556702 -5.923554 0.068893164 -0.0492097
000120 85 8c 14 41 43 4e 81 be a0 21 3f 41 2e db e2 3d
       9.284307 -0.2525502 11.945709 0.110769615
000130 5c 19 43 3f 60 41 45 3d 67 f9 69 40 13 3c 49 41
       0.7621057 0.04815805 3.6558473 12.577167
000140 92 9f 2f be 70 c6 e2 c0 60 2e 5d be 78 e3 dd 3d
       -0.17150715 -7.0867233 -0.21599722 0.10834402
000150 0b 80 0a 41 a4 ea 6c bf f3 f6 59 41 a9 af 08 3e
       8.6562605 -0.92545533 13.62279 0.13348259
000160 e6 9d b7 bf 89 34 51 be 59 c7 bf be 75 86 48 41
       -1.4345062 -0.20430197 -0.37456778 12.532826
000170 09 f8 63 be 06 5c 32 c0 48 d3 55 be aa 6d 09 3e
       -0.22262587 -2.7868667 -0.20881379 0.1342074

fc2.bias f4 [8]
000000 28 f7 10 3e 96 55 e3 3b 71 86 09 be d7 ed 0a bf
       0.14156783 0.006937693 -0.13430192 -0.54269165
000010 dc dd 79 be b3 3a f6 be 80 33 a2 3c 12 7d 41 bf
       -0.24401039 -0.4809166 0.019799948 -0.7558147

fc3.weight f4 [3, 8]
000000 22 c5 ca 40 f8 72 39 3d 79 0a 84 3e 03 eb bd 40
       6.336564 0.04527566 0.2578924 5.934938
000010 f4 40 67 c0 5c 9e c9 40 11 66 af 40 a4 39 eb 40
       -3.6133394 6.300581 5.4812093 7.350786
000020 ad 69 ac 40 00 d6 24 ba 28 de ab 3d 4f b3 f9 40
       5.3879 -0.0006287992 0.08391982 7.8031383
000030 4e 14 5a bf b2 bb d3 40 6f 19 b3 40 79 55 0c 41
       -0.8518723 6.616662 5.5968547 8.770867
000040 ae 3a db 40 a2 59 90 3e 0b 13 92 3e b3 af a8 40
       6.850913 0.28193384 0.28530154 5.2714477
000050 66 cb c0 c0 68 8d b0 40 96 93 d5 40 8a 37 0f 41
       -6.024829 5.5172615 6.674266 8.951059

fc3.bias f4 [3]
000000 9a 9d 54 40 e7 21 86 c0 13 7a cf 3c
       3.3221192 -4.1916385 0.025326764

exp_avg f4 [12, 2]
000000 7a f2 96 c2 bc dc 41 c0 10 ea b1 40 2a 3b c6 3e
       -75.47359 -3.0290976 5.559822 0.38717014
000010 30 35 8f c2 c8 7b 75 c0 04 00 00 00 04 00 00 00
       -71.60388 -3.83568 6e-45 6e-45
000020 d6 17 59 bf f0 30 9c 3d 00 00 00 00 00 00 00 00
       -0.84801996 0.076265216 0.0 0.0
000030 ec 5e 84 c1 21 94 b6 bf 46 57 a2 41 16 1e ca c0
       -16.546349 -1.4263955 20.292614 -6.3161726
000040 00 00 00 00 00 00 00 00 84 c2 a9 40 66 7a 48 3f
       0.0 0.0 5.3049946 0.78311765
000050 00 00 00 00 00 00 00 00 00 00 00 00 00 00 00 00
       0.0 0.0 0.0 0.0

exp_avg_sq f4 [12, 2]
000000 7d 34 92 47 28 aa 4c 43 69 43 b8 43 17 e7 8c 3f
       74856.98 204.66467 368.52664 1.1008023
000010 b4 40 f6 47 fd dc 7e 43 f4 01 00 00 f4 01 00 00
       126081.41 254.86324 7e-43 7e-43
000020 31 e1 49 41 ad b7 aa 3d 00 00 00 00 00 00 00 00
       12.617478 0.083358146 0.0 0.0
000030 98 80 5c 45 7f 9d ec 41 26 a8 ef 46 63 30 81 43
       3528.037 29.576902 30676.074 258.37802
000040 00 00 00 00 00 00 00 00 69 2a 31 45 0e 4e 9d 41
       0.0 0.0 2834.6506 19.663113
000050 00 00 00 00 00 00 00 00 00 00 00 00 00 00 00 00
       0.0 0.0 0.0 0.0

exp_avg f4 [12]
000000 ef 49 11 43 ef 28 bb c0 ff 07 a4 41 04 00 00 00
       145.2888 -5.848747 20.503904 6e-45
000010 1a bf ff 3f 00 00 00 00 aa cc f8 41 d0 5c d6 c2
       1.9980195 0.0 31.099934 -107.181274
000020 00 00 00 00 2a 31 dc 40 00 00 00 00 00 00 00 00
       0.0 6.8810015 0.0 0.0

exp_avg_sq f4 [12]
000000 e3 1e ec 47 87 7c 1e 44 e5 e2 2f 48 b2 03 00 00
       120893.77 633.94574 180107.58 1.326e-42
000010 32 30 81 42 00 00 00 00 c5 de 83 46 9c f8 d3 47
       64.59413 0.0 16879.385 108529.22
000020 00 00 00 00 1a a7 5b 46 00 00 00 00 00 00 00 00
       0.0 14057.775 0.0 0.0

exp_avg f4 [8, 12]
000000 56 f2 60 3f 63 4c e3 40 e1 6e e6 bd 04 00 00 00
       0.87869775 7.1030746 -0.11251617 6e-45
000010 b5 15 43 bf 00 00 00 00 a0 3d 04 3f d4 c0 10 bf
       -0.76205 0.0 0.5165653 -0.5654423
000020 00 00 00 00 35 37 50 bd 00 00 00 00 00 00 00 00
       0.0 -0.0508339 0.0 0.0
000030 00 00 00 00 04 00 00 00 00 00 00 00 00 00 00 00
       0.0 6e-45 0.0 0.0
000040 04 00 00 00 00 00 00 00 04 00 00 00 04 00 00 00
       6e-45 0.0 6e-45 6e-45
000050 00 00 00 00 04 00 00 00 00 00 00 00 00 00 00 00
       0.0 6e-45 0.0 0.0
000060 00 00 00 00 00 00 00 00 00 00 00 00 00 00 00 00
       0.0 0.0 0.0 0.0
000070 00 00 00 00 00 00 00 00 00 00 00 00 00 00 00 00
       0.0 0.0 0.0 0.0
000080 00 00 00 00 00 00 00 00 00 00 00 00 00 00 00 00
       0.0 0.0 0.0 0.0
000090 c2 ec 62 3f a3 cc bb 40 fc e4 77 3d 04 00 00 00
       0.88642514 5.86873 0.06052111 6e-45
0000a0 65 d4 5b bf 00 00 00 00 d5 dd 0b 3f eb b1 d0 be
       -0.85870963 0.0 0.54635364 -0.4076074
0000b0 00 00 00 00 c0 e0 7b bd 00 00 00 00 00 00 00 00
       0.0 -0.061493635 0.0 0.0
0000c0 5c 7e f5 3b 39 df 6c 3e ac 42 18 22 00 00 00 00
       0.00749187 0.23132028 2.0635137e-18 0.0
0000d0 05 63 d0 3e 00 00 00 00 b5 29 d3 3d ae d9 6a 3c
       0.40700546 0.0 0.10310689 0.014334125
0000e0 00 00 00 00 e8 c8 84 3c 00 00 00 00 00 00 00 00
       0.0 0.01620908 0.0 0.0
0000f0 f2 3c 60 3f e8 02 89 40 aa ea fa bd 04 00 00 00
       0.87592995 4.281605 -0.1225179 6e-45
000100 d6 8f 9f bf 00 00 00 00 3e d6 e9 3e f0 6d e8 be
       -1.246577 0.0 0.45671266 -0.45396376
000110 00 00 00 00 2e 6e 50 bd 00 00 00 00 00 00 00 00
       0.0 -0.050886326 0.0 0.0
000120 b6 44 60 3f b9 7c dd 40 8a 04 b4 bd 04 00 00 00
       0.87604845 6.921475 -0.08789928 6e-45
000130 09 30 f7 be 00 00 00 00 d2 10 18 3f 27 6a 06 bf
       -0.48278835 0.0 0.59400666 -0.52505726
000140 00 00 00 00 13 37 24 bd 00 00 00 00 00 00 00 00
       0.0 -0.040091585 0.0 0.0
000150 58 e1 7d 3f dd 8e a2 40 08 8a a5 be 04 00 00 00
       0.9917197 5.0799394 -0.32331872 6e-45
000160 56 f7 94 bf 00 00 00 00 25 f8 16 3f 39 fc 1f bf
       -1.1637981 0.0 0.5897239 -0.62494236
000170 00 00 00 00 94 b4 00 bd 00 00 00 00 00 00 00 00
       0.0 -0.031422213 0.0 0.0

exp_avg_sq f4 [8, 12]
000000 c1 3a 2c 41 14 ce e1 43 ec 63 42 41 f4 01 00 00
       10.764344 451.61 12.149395 7e-43
000010 c9 94 da 42 00 00 00 00 0b 41 3c 41 6f 01 a4 3f
       109.290596 0.0 11.76588 1.2812937
000020 00 00 00 00 b2 af 96 3f 00 00 00 00 00 00 00 00
       0.0 1.1772368 0.0 0.0
000030 00 00 00 00 f4 01 00 00 00 00 00 00 00 00 00 00
       0.0 7e-43 0.0 0.0
000040 f4 01 00 00 00 00 00 00 f4 01 00 00 f4 01 00 00
       7e-43 0.0 7e-43 7e-43
000050 00 00 00 00 f4 01 00 00 00 00 00 00 00 00 00 00
       0.0 7e-43 0.0 0.0
000060 00 00 00 00 00 00 00 00 00 00 00 00 00 00 00 00
       0.0 0.0 0.0 0.0
000070 00 00 00 00 00 00 00 00 00 00 00 00 00 00 00 00
       0.0 0.0 0.0 0.0
000080 00 00 00 00 00 00 00 00 00 00 00 00 00 00 00 00
       0.0 0.0 0.0 0.0
000090 8c 2d 89 41 44 00 ba 43 4e cf 06 41 f4 01 00 00
       17.14724 372.00208 8.4256115 7e-43
0000a0 e1 30 a1 42 00 00 00 00 12 23 43 41 72 95 5a 3f
       80.59547 0.0 12.196062 0.85384285
0000b0 00 00 00 00 24 19 71 3f 00 00 00 00 00 00 00 00
       0.0 0.94178987 0.0 0.0
0000c0 b6 42 4f 3b 80 4a c7 40 d8 d5 87 37 00 00 00 00
       0.0031625456 6.227844 1.6192833e-05 0.0
0000d0 5f d8 dd 41 00 00 00 00 7f a2 1f 40 6b 11 0c 3d
       27.73065 0.0 2.494293 0.0341963
0000e0 00 00 00 00 b7 59 c7 3e 00 00 00 00 00 00 00 00
       0.0 0.38935634 0.0 0.0
0000f0 ea 22 52 41 44 17 9b 43 13 d3 06 41 f4 01 00 00
       13.133524 310.18176 8.426532 7e-43
000100 ae 5c b5 42 00 00 00 00 40 89 3e 41 94 5d 65 3f
       90.681015 0.0 11.908508 0.89595914
000110 00 00 00 00 56 5b 91 3f 00 00 00 00 00 00 00 00
       0.0 1.1355999 0.0 0.0
000120 bc 65 2d 41 e5 b3 cf 43 28 24 39 41 f4 01 00 00
       10.8373375 415.40543 11.571327 7e-43
000130 ae e3 b6 42 00 00 00 00 4b 96 21 41 77 23 9b 3f
       91.44469 0.0 10.099193 1.2120198
000140 00 00 00 00 24 7a 68 3f 00 00 00 00 00 00 00 00
       0.0 0.9081137 0.0 0.0
000150 94 d8 b7 41 d7 97 10 44 64 70 a5 41 f4 01 00 00
       22.980751 578.3725 20.679878 7e-43
000160 23 bc dd 41 00 00 00 00 e6 de d3 40 5a 1a 02 40
       27.716864 0.0 6.6209593 2.0328584
000170 00 00 00 00 09 0d 30 3c 00 00 00 00 00 00 00 00
       0.0 0.010745295 0.0 0.0

exp_avg f4 [8]
000000 47 23 3f 40 04 00 00 00 00 00 00 00 f8 f2 1a 40
       2.9865282 6e-45 0.0 2.4210796
000010 88 a1 64 3e f0 6c c7 3f 56 76 3f 40 50 e3 f2 3f
       0.22327244 1.558012 2.9915977 1.897562

exp_avg_sq f4 [8]
000000 ce cb fa 42 f4 01 00 00 00 00 00 00 b9 64 ca 42
       125.398056 7e-43 0.0 101.196724
000010 39 39 e1 40 5e 85 af 42 44 78 e3 42 8f 73 01 43
       7.038235 87.76048 113.73489 129.4514

exp_avg f4 [3, 8]
000000 6c 84 8b bf 00 00 00 00 00 00 00 00 bc 2a 30 bf
       -1.0899787 0.0 0.0 -0.6881521
000010 64 29 cf 3c 82 a8 55 bf b4 c5 71 bf bd 03 39 bf
       0.025288291 -0.8346025 -0.94442296 -0.7227133
000020 43 81 e6 3f 00 00 00 00 00 00 00 00 01 79 c1 3f
       1.8008198 0.0 0.0 1.5115052
000030 04 00 00 80 03 a0 a0 3f 69 5f d5 3f 2c 7d 06 3f
       -6e-45 1.2548832 1.6669742 0.5253475
000040 49 48 d4 be 04 00 00 00 00 00 00 00 6e ef c4 bd
       -0.414614 6e-45 0.0 -0.0961598
000050 5a 29 a3 bb 48 7a fe be 0c 45 fa be 4e 95 57 bf
       -0.0049792947 -0.49702668 -0.48880804 -0.84212196

exp_avg_sq f4 [3, 8]
000000 d1 8f 19 41 00 00 00 00 00 00 00 00 cd b4 8a 40
       9.597611 0.0 0.0 4.3345704
000010 da 9a 1a 3f 34 2b 02 40 72 f7 cb 40 bb 04 f7 3e
       0.60392535 2.033887 6.3739557 0.48245797
000020 99 6c 0b 42 00 00 00 00 00 00 00 00 8d bd 2b 42
       34.856052 0.0 0.0 42.93511
000030 75 ad 9a 37 cd 6d d8 41 cf bd 03 42 e3 d7 09 41
       1.8439003e-05 27.053614 32.93536 8.615207
000040 b7 81 86 42 f4 01 00 00 00 00 00 00 11 7c 17 42
       67.25335 7e-43 0.0 37.87116
000050 2e 53 81 3d 9a a0 d9 41 94 d8 76 42 99 4e fe 41
       0.063146934 27.203419 61.711502 31.788378

exp_avg f4 [3]
000000 bd cf 01 3c 6d dd 80 3e bc 20 6c 3e
       0.007923064 0.25168934 0.23059362

exp_avg_sq f4 [3]
000000 82 b2 40 3f c0 20 00 3f f5 8a ae 3f
       0.7527238 0.5004997 1.3636156
