dqn_mountain_car_env_v0.pth (torch, 3304 bytes, 6 tensors)

fc1.weight f4 [12, 2]
000000 28 c1 d1 3d 13 e0 47 c1 50 2c 64 bf 41 e2 12 c0
       0.1024192 -12.492206 -0.89130116 -2.2950594
000010 39 ca 2a bf 3d 4e 4b 41 ca 4d 07 3f 26 77 c2 be
       -0.6671482 12.706601 0.5285307 -0.37981528
000020 ee 66 ba 3f eb e2 8c 40 00 da 29 3c a2 f3 2f bf
       1.4562662 4.4027 0.010366917 -0.6873113
000030 06 6f 5f 3f 18 f2 e3 c0 4a d6 e3 bd 98 e1 43 41
       0.87278783 -7.1233025 -0.11124857 12.242577
000040 12 7d a4 3e f7 65 20 bf 86 2c 9b 3f b2 65 a4 c0
       0.3212667 -0.62655586 1.2122962 -5.137414
000050 21 59 16 3f 42 66 f0 3e 80 34 a7 bb 1c 02 19 3e
       0.5872975 0.46953017 -0.005102694 0.14942211

fc1.bias f4 [12]
000000 f9 00 c0 3d 77 5c b8 3f 14 c3 a9 be 32 cc 96 be
       0.093751855 1.4403218 -0.33156645 -0.29452664
000010 91 80 91 3f a8 f3 84 be 1a 55 e6 3e 0a ec e3 be
       1.136736 -0.25967145 0.44986802 -0.4451602
000020 3c 12 39 be 41 51 11 be 20 cd be be b7 14 f0 be
       -0.18073362 -0.14191152 -0.37265873 -0.46890804

fc2.weight f4 [8, 12]
000000 27 f1 0c 41 5b 2f 70 be d6 0b 40 41 61 d6 48 be
       8.808875 -0.23455565 12.00289 -0.19613029
000010 ab 73 7c 3f 90 a9 61 bd 35 e4 91 40 a9 39 4a 41
       0.98613995 -0.055093348 4.5591073 12.639077
000020 5d 73 19 be fd c9 d5 c0 a8 e8 c8 bd 52 58 80 bd
       -0.14985414 -6.680907 -0.09810001 -0.06266846
000030 02 90 33 be 19 3b 9e be fc 45 47 3e 8a bf 43 be
       -0.17535403 -0.30904463 0.1946029 -0.19116035
000040 d5 dc 6d bd 6a 0f d1 bd 7f 98 70 3e 7c 2a 6a bd
       -0.05807193 -0.10208018 0.23495673 -0.057169423
000050 5c fa 0c 3e 39 64 31 be 00 81 f3 3a d0 29 8f 3d
       0.1376738 -0.17323388 0.0018577874 0.06990397
000060 d4 8d ac bd 72 90 99 bd 34 e3 e1 3d 48 a3 89 3e
       -0.08425489 -0.07498254 0.11029664 0.26882386
000070 00 dc 74 be 80 50 17 3c d8 34 7f 3d 3e 20 3d be
       -0.23912048 0.009235501 0.062306255 -0.1846933
000080 90 58 65 be 10 cf 84 3e 37 b2 69 be 80 81 7d 3e
       -0.22397065 0.25939226 -0.2282189 0.24756432
000090 44 4a 39 41 fe 72 70 be 59 db 28 41 95 f4 b4 3d
       11.580631 -0.23481366 10.553552 0.08835713
0000a0 fc ce f5 be 54 35 f7 bd 61 85 a8 40 5a b8 37 41
       -0.4800948 -0.120707184 5.2662816 11.482508
0000b0 fa 13 84 3e 25 7b c1 c0 28 ae 2a 3d 4f 9c 23 be
       0.2579649 -6.0462823 0.041669995 -0.15977596
0000c0 e7 d3 b6 c0 8f c6 1b c0 1b 0a d6 c0 6d 72 5b be
       -5.713367 -2.433994 -6.6887336 -0.21430369
0000d0 58 17 61 3f 00 7d e9 3a ae bb b0 3f 82 b4 b2 3f
       0.87926245 0.0017813742 1.3807275 1.3961337
0000e0 8c ed 8c 3d 33 25 96 40 ae 4d 07 3e b0 4d 58 be
       0.06881246 4.692041 0.13213226 -0.21123385
0000f0 57 96 29 41 b2 1a 7d bf 3a 37 2e 41 a3 92 34 be
       10.599204 -0.9886886 10.888483 -0.17634062
000100 95 e9 1f bd b0 71 e4 3c b4 05 aa 40 6e 0c 40 41
       -0.03904112 0.027886242 5.313196 12.003035
000110 34 e7 82 3e c1 8d bd c0 dc 17 8d 3d 1c 90 49 bd
       0.2556702 -5.923554 0.068893164 -0.0492097
000120 85 8c 14 41 43 4e 81 be a0 21 3f 41 2e db e2 3d
       9.284307 -0.2525502 11.945709 0.110769615
000130 5c 19 43 3f 60 41 45 3d 67 f9 69 40 13 3c 49 41
       0.7621057 0.04815805 3.6558473 12.577167
000140 92 9f 2f be 70 c6 e2 c0 60 2e 5d be 78 e3 dd 3d
       -0.17150715 -7.0867233 -0.21599722 0.10834402
000150 0b 80 0a 41 a4 ea 6c bf f3 f6 59 41 a9 af 08 3e
       8.6562605 -0.92545533 13.62279 0.13348259
000160 e6 9d b7 bf 89 34 51 be 59 c7 bf be 75 86 48 41
       -1.4345062 -0.20430197 -0.37456778 12.532826
000170 09 f8 63 be 06 5c 32 c0 48 d3 55 be aa 6d 09 3e
       -0.22262587 -2.7868667 -0.20881379 0.1342074

fc2.bias f4 [8]
000000 28 f7 10 3e 96 55 e3 3b 71 86 09 be d7 ed 0a bf
       0.14156783 0.006937693 -0.13430192 -0.54269165
000010 dc dd 79 be b3 3a f6 be 80 33 a2 3c 12 7d 41 bf
       -0.24401039 -0.4809166 0.019799948 -0.7558147

fc3.weight f4 [3, 8]
000000 22 c5 ca 40 f8 72 39 3d 79 0a 84 3e 03 eb bd 40
       6.336564 0.04527566 0.2578924 5.934938
000010 f4 40 67 c0 5c 9e c9 40 11 66 af 40 a4 39 eb 40
       -3.6133394 6.300581 5.4812093 7.350786
000020 ad 69 ac 40 00 d6 24 ba 28 de ab 3d 4f b3 f9 40
       5.3879 -0.0006287992 0.08391982 7.8031383
000030 4e 14 5a bf b2 bb d3 40 6f 19 b3 40 79 55 0c 41
       -0.8518723 6.616662 5.5968547 8.770867
000040 ae 3a db 40 a2 59 90 3e 0b 13 92 3e b3 af a8 40
       6.850913 0.28193384 0.28530154 5.2714477
000050 66 cb c0 c0 68 8d b0 40 96 93 d5 40 8a 37 0f 41
       -6.024829 5.5172615 6.674266 8.951059

fc3.bias f4 [3]
000000 9a 9d 54 40 e7 21 86 c0 13 7a cf 3c
       3.3221192 -4.1916385 0.025326764
