dueling_dqn_lunar_lander_v3_checkpoint.pth (torch, 520978 bytes, 33 tensors)

feature.0.weight f4 [128, 8]
000000 82 a5 22 3f 35 e7 df be 43 05 96 3e e1 2a 53 be
       0.63533795 -0.43731084 0.2930089 -0.20621826
000010 3c 39 1b bd 0f df da bd da fd 3a 3e cc c9 4e 3d
       -0.03789638 -0.10687076 0.18260899 0.050485417
000020 34 5e dd be 20 d6 02 be 95 e5 fe be 02 d7 10 bf
       -0.43235934 -0.12776995 -0.49784532 -0.56578076
000030 e3 88 00 be 2a 35 c1 3e 11 2e f6 be 36 fc a7 3e
       -0.12552218 0.37735873 -0.4808202 0.3280961
000040 4b ce 24 3e 03 d3 e8 bd 98 d6 e2 3e 61 61 ba be
       0.1609432 -0.11368372 0.44304347 -0.3640242
000050 00 3b bb be 6d 4b 1d bd c0 a2 51 3e 33 46 b8 be
       -0.3656845 -0.03840201 0.2047224 -0.35991058
000060 b8 a0 99 3e a1 01 9e 3e 50 32 70 3e 0b 9b 18 bf
       0.3000543 0.30860618 0.23456693 -0.59611577
000070 2f 5d 3a be cf 0d de bc 1d 8c 36 3e b3 db a0 be
       -0.18199609 -0.027106194 0.17826886 -0.31417617
000080 6c be b6 3e c8 46 1f be e0 e9 d0 be b6 e3 d3 3f
       0.35692155 -0.15554345 -0.40803432 1.6553867
000090 1f d2 d9 3d 94 d8 21 3e 55 8a 95 be cf fc 67 be
       0.106357805 0.15805274 -0.292071 -0.22655033
0000a0 9f 34 04 be 5f 68 aa be 2d 11 91 be 10 4a d3 be
       -0.12910698 -0.33282754 -0.28333417 -0.41267443
0000b0 85 c1 86 be c4 74 bb be 30 cb 99 3e 36 8a b7 bd
       -0.2631952 -0.36612523 0.30037832 -0.089619085
0000c0 3a 5b fb 3e 1b 6f 43 bd 81 f3 40 3e 96 5a 3c 3d
       0.49093038 -0.04771338 0.1884289 0.045984827
0000d0 9e 8e 9f be 36 71 aa 3c ba 40 7d 3e 17 b8 8c 3e
       -0.31163496 0.020805936 0.24731722 0.274842
0000e0 61 44 a3 3e aa d9 28 be 71 11 de 3e 23 14 64 3e
       0.31888106 -0.16489282 0.43372682 0.22273307
0000f0 7b 56 a3 3d 7a 25 fa 3e 1b 5e 5d bb 2d 10 a6 3e
       0.07975479 0.48856717 -0.0033778015 0.32434216
000100 4d fe 53 3d e4 33 a6 3e a4 d6 5a 3d 87 b7 d2 3e
       0.051756192 0.32461464 0.053427354 0.41155645
000110 b7 1f 2f 3e 83 2d 06 3f c0 ee 71 be c2 65 80 3e
       0.17101942 0.52413195 -0.23626232 0.25077635
000120 5c ce a4 3e 1c af b9 3e d3 50 cb bd 53 d9 e7 be
       0.3218869 0.3626641 -0.09927525 -0.45282993
000130 9a cb e9 bd dc ca fb be 30 ee 95 be c4 33 0b 3e
       -0.11415787 -0.49178207 -0.29283285 0.13593966
000140 0b 4b 86 3e a8 88 4c bb ab 71 48 3e dd 63 22 be
       0.26229128 -0.0031209383 0.19574611 -0.15858407
000150 f8 26 c1 be d1 90 04 bf 39 5e e2 3c 8e 87 11 be
       -0.37725043 -0.5178347 0.02763282 -0.14211866
000160 7f e5 78 be 01 54 10 be 9f 58 bf be 5a 4c ea bc
       -0.24306296 -0.14094545 -0.373723 -0.02860086
000170 4a ea a3 3e f6 86 0d 3e 14 66 c6 be fb d9 72 3c
       0.32014686 0.13821015 -0.38749754 0.014822478
000180 8b d5 12 3f f3 9a 04 be f2 99 53 3d 4d 62 10 3d
       0.5735709 -0.12949733 0.051660486 0.035249997
000190 80 4d d6 3e 59 8d a5 3e e1 db eb bc 69 2b 63 be
       0.41856003 0.32334402 -0.02879137 -0.22184528
0001a0 2c f0 15 be 38 f3 3e bd b6 d1 85 3d 5c de 08 bf
       -0.146424 -0.04661867 0.0653414 -0.53464293
0001b0 7f 92 22 3f fd 24 83 3d e1 c2 f3 be 6b 84 16 3d
       0.63504785 0.06403539 -0.47609618 0.036747377
0001c0 fe 96 7b be 26 bc 9c 3c a4 99 b7 3e 45 72 85 bd
       -0.24569318 0.019132685 0.35859406 -0.06515936
0001d0 ac c0 05 bf e6 e3 7c 3e 91 51 26 bd 3c a3 df 3e
       -0.5224712 0.24696311 -0.04060513 0.43679225
0001e0 bc 39 b3 3d d1 15 b6 bd 89 92 86 3e 10 8e b1 bc
       0.08751246 -0.0889088 0.26283672 -0.021674186
0001f0 7f 9e 84 be dd 31 da be 65 6a 3b bd 05 0b 60 3d
       -0.25902173 -0.42616168 -0.045755763 0.05469801
000200 f4 c7 7a bd 81 bc b6 3e 34 b5 0d 3f 02 73 06 bf
       -0.061225846 0.35690692 0.5535462 -0.5251924
000210 9c 8d 10 bf 42 ea 73 3d 7b 96 ad bd 60 45 85 be
       -0.5646608 0.059549578 -0.084759675 -0.2602949
000220 35 b8 b1 bd 40 8a 18 be f7 75 2f be 6d 6e d2 be
       -0.08677713 -0.14896488 -0.17134844 -0.41099873
000230 d1 42 13 3f 42 65 25 3f 50 62 e1 3c a3 b4 30 3e
       0.5752383 0.6460763 0.0275127 0.17256407
000240 3b 09 71 bb a7 8b 20 3e 5f 41 b5 be 2e 47 7d bd
       -0.0036779183 0.15678273 -0.35401437 -0.06183546
000250 0a 4c 88 be 97 b5 e4 3d e5 10 83 be ea 42 ae bc
       -0.26620513 0.11167448 -0.25598827 -0.021272141
000260 fa a7 41 3e 91 f5 07 3f 2a 3a 0a be 6b e9 05 bf
       0.18911734 0.5310908 -0.1349875 -0.5230929
000270 aa 93 e9 bd 5f 4c 66 be 87 c1 0c bf 64 23 b3 be
       -0.11405118 -0.22490071 -0.549828 -0.34987938
000280 3e 52 42 be ee b5 69 be bf 79 a2 be 34 7c ec bd
       -0.18976685 -0.22823307 -0.3173351 -0.11547127
000290 53 fe 99 3e b6 98 4a bd 17 8d 42 3d 06 25 1c bd
       0.30076846 -0.049462043 0.047497835 -0.038121246
0002a0 98 da 76 bf 94 5c 5b 3e 85 0e 9d be 4f 4c dc bd
       -0.964273 0.21422035 -0.3067514 -0.10756742
0002b0 97 69 ab 3e fb 5d 8d 3d b3 fe 96 3d e7 19 d5 3c
       0.33478996 0.06902691 0.07372799 0.026013328
0002c0 84 69 13 3f f2 55 de bd 29 75 25 3e 3d 3e df bd
       0.5758288 -0.108562365 0.16157974 -0.10900543
0002d0 8f 4f 03 bf 59 a5 61 bd 23 59 65 3c 9b 09 87 3e
       -0.5129327 -0.05508933 0.013998303 0.26374516
0002e0 43 97 e6 bd 1c c0 66 3e 1e 26 d9 bd 35 54 9e 3d
       -0.1125932 0.22534221 -0.106029734 0.07730905
0002f0 fb 8a b9 bd 0f 71 83 3e d0 ca d9 be 11 27 6c be
       -0.090597115 0.25672194 -0.42537546 -0.23061778
000300 c9 7b 5b be 27 6c 81 3e a2 56 42 be a0 4b 2c 3e
       -0.21433939 0.25277826 -0.1897836 0.16825724
000310 fc 67 98 3d 5c 99 68 be 9b b6 93 3e 1b c4 82 3e
       0.074417084 -0.22714752 0.28850254 0.25540242
000320 71 83 81 be 40 1f bf 3d 60 3e d5 be bb 47 2a 3f
       -0.25295594 0.09332132 -0.4164915 0.665157
000330 fb ea 59 be 50 f3 1a 3e 67 d0 47 3e b9 e6 ae 3e
       -0.21281044 0.15131879 0.19513093 0.34160402
000340 78 7f cb 3e 31 65 b9 be 56 dd 37 3f 07 0c 33 3f
       0.39745688 -0.36210015 0.71822107 0.6994023
000350 31 59 c3 be c5 ad da 3e c4 8d 28 3e 0c 3f eb 3c
       -0.38153985 0.427107 0.1646033 0.028716587
000360 0f 04 2b 3f f0 eb 37 be b4 71 ec 3e 73 ce 8a be
       0.6680307 -0.17961097 0.461805 -0.27110633
000370 74 aa d7 3d 2d 27 b4 3e f2 c9 67 3d df ec 9f 3e
       0.10530558 0.3518614 0.056589074 0.31235406
000380 e1 d0 57 3c 0e 6f 16 be 53 f6 04 3f fc 9d 51 3f
       0.013172359 -0.14690802 0.5193836 0.8188169
000390 e7 9b 33 3e 10 36 d2 bc 34 d2 f1 3d 44 9a 8e be
       0.17539941 -0.025660545 0.11807671 -0.2785207
0003a0 fd 02 73 3e f5 37 5c 3c 19 39 17 bf 90 bc 1f be
       0.23731609 0.013441076 -0.590715 -0.15599275
0003b0 71 7c 3e 3f 42 91 02 bc 49 2b 75 3d 85 49 5a bd
       0.7440863 -0.0079692025 0.059855733 -0.05329277
0003c0 92 f6 d3 3e 36 f4 53 3e 4a 31 0a 3f 40 bb 19 3e
       0.41399056 0.20698628 0.5398146 0.15012836
0003d0 d5 3b 85 3e 19 f2 66 bd db c9 39 3e b3 bb 4f 3e
       0.2602221 -0.056383226 0.18143408 0.20286445
0003e0 63 a9 2e bf ff 1b 68 be dc ea 49 3e d0 3b 4c 3e
       -0.68227214 -0.2266693 0.19718498 0.19944692
0003f0 c0 64 67 3d c6 0c 53 be ae 44 c9 3e d2 68 c1 3c
       0.056492567 -0.20610341 0.3931021 0.023609553

feature.0.bias f4 [128]
000000 70 18 7f bd c4 e5 5a 3e 23 85 b3 3e dc bc f3 3e
       -0.062279165 0.21376711 0.35062513 0.47605026
000010 f2 84 15 be fe f9 b2 3e a0 71 be 3c fa 6a 4c 3c
       -0.14601496 0.34956354 0.02324754 0.012476677
000020 72 1d a6 3e 47 60 15 3e 98 7e 2d bd 94 b0 c0 3e
       0.3244434 0.14587508 -0.042357057 0.37634718
000030 47 19 d4 3e 2f af 39 3d 7e db 0b bd 50 a6 7f 3e
       0.41425535 0.045333084 -0.03414487 0.24965787
000040 c9 8c e8 3e 4a 1b ca bd d0 f4 e9 3e 90 f8 8c 3e
       0.4541991 -0.09868486 0.4569459 0.27533388
000050 02 91 4d 3e fc f6 d2 bd a6 c2 41 3c 32 54 8b 3d
       0.20074847 -0.10301015 0.011826193 0.06803168
000060 0e 9e da 3e e6 e0 ab be 53 71 8f be d7 d3 86 bd
       0.4269871 -0.3357002 -0.28016147 -0.06583374
000070 e3 bb 69 3d 08 bf 71 3e 2e 12 eb 3e aa ae ed 3e
       0.05706395 0.23608029 0.45912308 0.4642232
000080 3c 5f 83 bd 17 60 87 be 6f 65 a8 3e ff 23 4c 3e
       -0.06414649 -0.26440498 0.32889888 0.19935606
000090 b3 c4 22 bc 74 0c e7 bd 2a a1 c9 3d 83 56 0a 3e
       -0.009934592 -0.11281672 0.09845193 0.13509564
0000a0 b4 a0 b8 3c 19 4c 00 be 78 f1 00 3f 23 2e a7 3e
       0.022537567 -0.12529029 0.5036845 0.32652387
0000b0 cd e8 7f 3e d6 52 7f 3e f1 a7 b8 3d aa 27 97 be
       0.2499115 0.24933943 0.09016407 -0.2952245
0000c0 2a 17 ae 3e 66 28 14 3e 07 39 0c 3e 0e 16 ce 3e
       0.34002048 0.14468536 0.13693629 0.402512
0000d0 f9 0b 3c 3d 00 49 55 3e e1 73 72 3d b8 2a ca 3e
       0.045909856 0.20828629 0.059192542 0.39485717
0000e0 b1 a8 91 3c 80 34 cc 3d ab 47 20 3e 7f 4b de 3c
       0.017780634 0.09970951 0.15652339 0.027135609
0000f0 47 39 88 be 97 2a ef 3d 28 bb 3a 3e 89 56 35 be
       -0.266062 0.11678045 0.18235457 -0.17708792
000100 68 b6 2e bd 33 46 0b 3e 35 96 46 3e 17 d8 79 3c
       -0.042654425 0.13600998 0.19393237 0.015249274
000110 9d 00 5a be db 6e 6a be 8d 01 bc 3e 32 2e 97 3e
       -0.21289296 -0.2289385 0.36719933 0.29527432
000120 0c 4a 9a 3e a5 20 95 3e d3 24 cb bd f3 a2 82 be
       0.30134618 0.29126468 -0.09919133 -0.25514945
000130 54 a7 53 be 57 32 2a be 24 77 ae 3c 90 c9 9a be
       -0.206693 -0.16620766 0.021297045 -0.30231905
000140 55 1b c9 3e b3 5e 40 be b6 3d 32 3e 67 51 56 bd
       0.39278665 -0.18786125 0.17406353 -0.052323725
000150 79 50 43 3e 80 6f cc 3e 9c 5e 8d be e4 6c 89 3d
       0.19073667 0.39928818 -0.27611244 0.06710222
000160 9f a5 db 3e 3c 09 03 3f cb f3 0c 3d 0e 57 93 3e
       0.42899796 0.51185966 0.034412187 0.28777355
000170 98 e3 3e be f1 33 1f be 6b 92 e3 3e 87 1d 1c 3e
       -0.18641508 -0.15547158 0.44447646 0.15245639
000180 5e a5 b7 3e 32 9a 1c be 42 35 3a 3e ea a3 ca 3e
       0.35868353 -0.15293196 0.18184379 0.39578182
000190 d2 37 1d be 27 81 7e bd ad f0 6b bd 43 24 2c be
       -0.15353325 -0.062134888 -0.057602573 -0.16810708
0001a0 51 5b 3b 3e d6 d7 c1 3e 15 94 fe 3d b7 dc 15 be
       0.18296553 0.37859982 0.12430588 -0.14634977
0001b0 e3 08 ff 3c a8 7b 5d be 91 b8 1c 3d 15 9c 5f be
       0.031132167 -0.21629202 0.038261954 -0.21836884
0001c0 fa e4 97 3e 44 c9 81 3e 8c ff 5b be 2a 2d cf 3d
       0.29666883 0.25348866 -0.21484202 0.10116036
0001d0 eb 79 35 3e d3 19 be 3d 3a 17 29 be f7 99 f4 3d
       0.1772229 0.09282269 -0.16512766 0.11943429
0001e0 e6 68 51 3e f6 11 85 3e 36 85 81 3e 2d d5 50 3e
       0.20450172 0.25990266 0.25296944 0.2039382
0001f0 cc e1 4c bd 4c 6e 07 3e f3 43 b9 be 5d 9e b1 be
       -0.050020024 0.13225669 -0.36184654 -0.34691134

feature.2.weight f4 [128, 128]
000000 cc b7 50 3e 95 93 53 be b6 9f 3d 3d d5 71 41 3d
       0.20382613 -0.20661767 0.04629489 0.0472277
000010 0d 00 2e be 32 39 7e bd 5f 00 63 3d 85 fe aa be
       -0.16992207 -0.062066264 0.055420276 -0.33397308
000020 1e bc 16 be 73 ea d3 3b 82 fc a0 3e 8e 97 b0 bc
       -0.14720199 0.0064671575 0.31442648 -0.021556642
000030 25 00 30 3d 8c 06 ec 3c ee 1d 3a 3e 51 d0 bf 3d
       0.042968888 0.028811716 0.1817548 0.09365905
000040 3d 5e 68 3d 7d 91 23 bd 28 54 ff bc 16 f5 fd 3b
       0.056730498 -0.03993367 -0.031168059 0.007750164
000050 f2 3f 45 be 81 1c da 3d 5d f6 7b 3d 74 f8 f7 3d
       -0.19262674 0.10649968 0.061514247 0.121079355
000060 2d 93 84 bb 6e e5 2d be 84 b7 81 bc 8a e6 b7 bd
       -0.004045865 -0.16982052 -0.015834577 -0.08979519
000070 f4 77 88 bb cd 52 bd bd f8 39 25 bd be 4d 23 bd
       -0.00416469 -0.092443086 -0.040338486 -0.039869063
000080 22 04 df bc 93 0b a6 bd 48 48 93 bd 57 dc 47 bf
       -0.02722365 -0.08107676 -0.07191521 -0.78070587
000090 4b a9 1b bd 9b c7 c5 3c 74 90 6b 3b e4 3e 8d bd
       -0.038003247 0.02414303 0.0035944255 -0.06896761
0000a0 39 7c 15 3d a1 0f ca 3d fe 89 a0 bd 4d 75 c3 bd
       0.03649542 0.09866262 -0.0783882 -0.09543858
0000b0 26 83 e2 be a2 a8 34 bd c3 d7 d2 be c1 0c a9 3d
       -0.44240683 -0.044106133 -0.41180238 0.08254386
0000c0 b1 88 23 bd ba a0 fb bd f3 ff 46 3d a4 ca 16 be
       -0.03992528 -0.122865155 0.048583936 -0.14725739
0000d0 eb 35 17 3c 5e 6a c2 3c 60 1d 02 3e a9 da 5a be
       0.009229164 0.02373236 0.12706518 -0.21372475
0000e0 b7 08 c1 be 89 d1 7e 3d 38 83 4f be 5e 0d e2 b8
       -0.3770196 0.062211547 -0.202649 -0.000107790096
0000f0 dc 8c 9f bc 7f bd 17 be 9e 32 37 3d e7 9b 03 3e
       -0.019476347 -0.14818381 0.044726007 0.12852441
000100 7a 66 23 3e b4 a2 d0 3c ee 72 30 3c db d4 31 3e
       0.1595706 0.025468208 0.010769589 0.17366354
000110 30 c4 d9 3c 24 b4 56 3d e6 34 94 be 77 10 28 bd
       0.026582807 0.05241789 -0.28946608 -0.041031327
000120 b0 48 fc bd 92 d9 35 bc 60 75 2e 3e 70 8a b7 be
       -0.123185515 -0.011099236 0.17036963 -0.35847807
000130 8a eb ef 3e ea d6 93 be 70 b4 07 3e ca 72 7b 3e
       0.4685939 -0.28874904 0.13252425 0.24555507
000140 84 f2 65 bd 33 d2 65 be 18 98 cb be b2 66 1d 3e
       -0.056139484 -0.22443466 -0.39764476 0.15371206
000150 f0 cc 18 bd a3 49 8b bd 0b 4e c0 3e 20 88 f6 bd
       -0.03730482 -0.068011545 0.37559542 -0.120376825
000160 5c 12 9d bd f8 ab 30 bd c1 9d f2 bc 3d ad c0 bd
       -0.076695174 -0.043132752 -0.029616239 -0.094080426
000170 60 31 70 3e 60 42 2c 3e 5f 15 ea bc 2c 6b 95 3d
       0.23456335 0.16822195 -0.028574644 0.07295832
000180 85 11 80 be 4d fe 8e be 53 81 2c be 63 07 0f be
       -0.25013366 -0.2792839 -0.16846208 -0.13967662
000190 44 90 4d 3d f4 64 8a 3d f8 94 90 be 7d da 9d 3e
       0.05018641 0.067575365 -0.28238654 0.30830756
0001a0 ee 6d 1a bd c7 7d f0 bb 7c 01 ea bc 76 be 84 3e
       -0.037702493 -0.0073392126 -0.02856516 0.2592656
0001b0 1c 1e 2c be c6 43 b0 3e e2 41 8f bd 79 d1 5c 3e
       -0.16808361 0.34426707 -0.06994988 0.21564282
0001c0 55 db a9 bd 0d 40 56 be fb 70 a7 3d 32 db 42 bb
       -0.082937874 -0.20922871 0.08175846 -0.0029732701
0001d0 5a a9 a2 bc 89 32 01 bf ae 28 a2 be 40 d1 8c be
       -0.019856144 -0.50467736 -0.3167166 -0.27503395
0001e0 e7 c8 09 be e4 ff 76 3c eb 67 7c be c6 d3 4b be
       -0.13455544 0.0150756575 -0.24649017 -0.19905004
0001f0 be 8f 74 be e2 3f 9b bd 77 0d 3b 3e 34 6e 52 3d
       -0.23882958 -0.07580544 0.18266855 0.05137463
000200 a0 58 2b 3c c2 a7 25 3d 15 5a e6 3d e2 5f 28 3e
       0.010458142 0.04044319 0.112476505 0.16442826
000210 9e 67 86 3c 53 a7 78 3d ab d9 68 3c 80 5d 37 3c
       0.01640683 0.060706448 0.014212052 0.011191726
000220 78 7d 9f bb 29 3c 92 be af 96 94 bd 15 93 a5 3c
       -0.004867252 -0.28561524 -0.07255303 0.020211736
000230 cc 07 e9 3d 28 64 0f 3e 09 f8 79 be 9c 7f 8e bd
       0.1137844 0.1400305 -0.24411024 -0.06957933
000240 61 1d 02 3e 17 01 7c 3d e6 a6 96 3d 17 b2 02 be
       0.1270652 0.061524477 0.07356052 -0.12763248
000250 ca c9 12 be bf c4 35 3e bc db 0f be b7 0d 33 3e
       -0.14334789 0.17750834 -0.14048666 0.174857
000260 1e 7d 4d 3d 62 2c b4 be 75 6f 81 3e de d2 e0 bd
       0.05016815 -0.3519011 0.25280347 -0.1097772
000270 a2 36 3a 3e 41 77 b3 bd b6 f2 44 3e 37 fe 10 3e
       0.18184903 -0.0876298 0.19233212 0.14159475
000280 52 a7 dc 3d 61 bc 38 be d2 d9 df 3c a4 ae ec be
       0.10774101 -0.18040611 0.027325545 -0.4622699
000290 b1 88 7c bd 6f d3 27 be 54 3a ed 3d 77 90 a7 3c
       -0.061653797 -0.1638925 0.11583391 0.020454628
0002a0 a6 60 85 bd 8c 2e 69 3e 00 6b 64 be b8 aa ba bd
       -0.06512575 0.22771662 -0.22306442 -0.09114593
0002b0 4e bc 08 bf 90 60 86 bb d3 d1 32 bd 89 27 cf bd
       -0.5341233 -0.0041008666 -0.043657135 -0.101149626
0002c0 fc 5c 21 bc fc 83 9c be 8a cb 75 3e 6e 0f a1 bd
       -0.009848829 -0.30569446 0.24003425 -0.07864271
0002d0 e6 a1 2c 3e 2c d0 cc 3c 74 c3 a5 be 8b a2 d2 bc
       0.16858634 0.025001608 -0.3237568 -0.025712272
0002e0 fa 92 a3 be 21 19 10 3d cc 36 47 3d e8 36 3c 3e
       -0.31948072 0.035180215 0.048636243 0.1838032
0002f0 f8 4b e5 bd b5 0d 13 3e 27 06 30 3d e9 cc 35 3e
       -0.111961305 0.14360698 0.042974617 0.17753948
000300 3a ac b5 3e f9 73 50 3e 48 a4 32 bd d5 02 95 3e
       0.3548296 0.2035674 -0.043613702 0.29103723
000310 36 cd 21 3d 3f ca 8d 3e a0 41 dc bd ac aa f5 3d
       0.039502345 0.27693364 -0.107547045 0.11995444
000320 21 6a 80 3e db 3f 16 3d 77 93 20 3d 5f f8 98 be
       0.2508097 0.03668199 0.039203133 -0.29876992
000330 5a a1 8d 3e ad 3e 9f be 93 ac 71 3c 93 fb 2a 3e
       0.27662164 -0.31102505 0.014750618 0.1669753
000340 70 85 d8 3d 92 50 5d be 28 2c 70 be 53 5e e6 3d
       0.10572326 -0.21612766 -0.23454344 0.1124846
000350 8f 89 fb 3c b6 ba 03 3e 31 54 f7 3e f8 19 2c be
       0.030705241 0.12864193 0.4830642 -0.16806781
000360 5b 99 38 3e d2 89 da bd 6a c1 80 3e 42 4f d5 3d
       0.1802725 -0.106708184 0.25147563 0.10415508
000370 88 b3 77 3e 72 9c 13 be bb b3 a5 3d 07 49 55 3e
       0.2418958 -0.14415148 0.080909215 0.20828639
000380 df af cd be 5c 12 e4 be 2a 43 ab 3d 77 da 26 bb
       -0.40173241 -0.44545257 0.0836242 -0.0025459805
000390 1e dd e1 bd 46 aa 11 3e 60 7a e4 be 9f 75 cb 3d
       -0.11028503 0.1422511 -0.44624615 0.09934544
0003a0 64 53 44 3c 75 fa 65 3d 09 42 1e 3e 4e 61 2d 3e
       0.0119827725 0.056147058 0.15454878 0.1693165
0003b0 e1 0c 86 be d3 05 27 be 0c 92 09 3e 37 74 78 3e
       -0.261817 -0.16310816 0.13434619 0.24263082
0003c0 22 20 0a bd 41 57 40 be c6 56 07 bd 40 15 c2 3d
       -0.03372205 -0.18783285 -0.033041738 0.09476709
0003d0 49 37 a8 bc 35 c1 7f be d6 98 a2 bd c1 d9 0a bd
       -0.020534175 -0.24976046 -0.079393074 -0.033899073
0003e0 58 73 28 be 48 40 d3 bd 9e 90 c7 3d 2f 5e c9 3c
       -0.1645025 -0.10314995 0.097443804 0.024581043
0003f0 9e 85 87 be 54 b7 ad bd 53 6c 1c bd 85 b0 01 3c
       -0.2646913 -0.08482233 -0.038189244 0.007915621

feature.2.bias f4 [128]
000000 4c a9 bd bd c5 77 d0 3d 7a f6 d8 3b 1e 37 b1 3d
       -0.092608064 0.10179094 0.006621179 0.08653091
000010 c7 02 ab bc d4 5f 21 3c 64 99 d3 3d d3 2d 6d 3e
       -0.020875348 0.009849507 0.10331991 0.23162012
000020 07 ed 98 bd 4a 5d 3f 3e 57 47 b0 bd 4e b6 82 bc
       -0.074670844 0.1868793 -0.08607357 -0.01595607
000030 6f 1f c2 bd a0 00 85 3d f7 01 03 3e 4d bb bd 3d
       -0.09478652 0.0649426 0.12793718 0.092642404
000040 a9 b9 16 bd c3 d6 22 3d 3f d6 41 3d df d1 7f 3c
       -0.036798153 0.039755594 0.04732346 0.015614002
000050 7a 06 e0 3d 3a 13 82 3d 17 37 8c bd 0b 1e 8c bc
       0.10938735 0.063513234 -0.06846445 -0.01710417
000060 fc 0b 11 3e de 56 56 bd 48 20 a0 3d 67 18 3f 3d
       0.14164728 -0.052328937 0.07818657 0.04665413
000070 c0 03 96 3e e5 e6 9c bd ae 08 84 3d 81 df 43 3e
       0.29299736 -0.07661227 0.06446968 0.19128229
000080 90 25 82 3d 3b cd 25 3d 30 3e e1 3b 4c 0c ee 3b
       0.06354821 0.040478926 0.0068738684 0.0072646495
000090 7c a6 96 bc ff 50 a6 3d 75 44 18 3b 63 95 e8 3b
       -0.018389933 0.081209175 0.0023234163 0.0070978864
0000a0 58 d2 63 3d 86 62 00 3e ee f9 ce 3d f9 de 24 3d
       0.05562052 0.12537584 0.10106264 0.040251706
0000b0 a3 75 1b 3e 17 91 bd 3d c1 c0 13 3e 87 d5 b9 3b
       0.15181594 0.09256189 0.14428999 0.0056712064
0000c0 2e da c2 3d 76 4d 6a 3e e5 08 de 3d 8e ab 14 3d
       0.09514271 0.22881112 0.1084154 0.03629642
0000d0 9e 10 e9 3d e3 df 45 bd fd 9e 13 3e 4d e4 97 3e
       0.113801226 -0.04830922 0.14416118 0.29666367
0000e0 ac 6b 32 3e 4f ce 48 3e 29 a1 08 3e ca 5a 0f 3e
       0.17423886 0.1960995 0.13342728 0.13999477
0000f0 7b a2 2c 3e 89 ff d2 bb a4 2f 90 3d 10 15 9b bc
       0.16858856 -0.0064391536 0.07040337 -0.018930942
000100 13 7f d5 bc 42 d8 a7 3d 2a 91 05 bc df 1a 09 3e
       -0.02606157 0.08195545 -0.008152286 0.13389157
000110 fc f0 d5 3d 6a d9 98 ba d8 ac 4c 3d 95 3a da bd
       0.10446355 -0.0011661474 0.049969524 -0.10655705
000120 cb 35 74 bd c7 f1 00 bd ac 52 e7 3d 01 94 9b bd
       -0.059621613 -0.031480577 0.11295065 -0.07596589
000130 79 10 f1 bd 15 43 33 3e 5a 8d aa bd 13 19 31 3d
       -0.1177072 0.17506059 -0.08327742 0.043236803
000140 92 5d 0a 3d 23 ab d8 3d 81 7d 00 be 09 81 a5 3d
       0.03378064 0.10579517 -0.12547876 0.08081252
000150 e1 1b 09 3e aa 0e f1 3d 42 f6 9c 3d 17 30 a0 ba
       0.13389541 0.11770375 0.076641575 -0.0012221363
000160 99 79 0a 3d 12 31 3c 3c 4d 17 fb 3d 72 7f 3f 3d
       0.03380737 0.011486309 0.12260304 0.0467524
000170 1f 25 da bd 0c cf 16 3c 4a d4 61 3b ca b5 e8 bc
       -0.106516115 0.009204637 0.003445881 -0.028406996
000180 0b 5b e2 bd 52 4a 8d 3d 1d 4a 2d 3e 08 fc 69 3e
       -0.11052521 0.06898941 0.16922803 0.22850049
000190 1f 87 0f 3e fa db 80 bd 86 8e 99 3d 54 3f 8d 3e
       0.14016388 -0.06291957 0.07497887 0.27587378
0001a0 b0 3a 0b 3e 91 41 a6 bd d4 ba 8d 3d 9e 4f d6 bc
       0.13596606 -0.081179745 0.069204 -0.026161011
0001b0 bd 79 33 b8 e3 ef da 3a 20 2a 8e bd aa 43 f2 3d
       -4.2790303e-05 0.0016703572 -0.069416285 0.11829312
0001c0 61 9d 64 3b cc 11 df 3d cb 37 16 3e d1 db 4d 3d
       0.0034883844 0.10892066 0.14669721 0.05025846
0001d0 02 fb 5b 3d a4 85 71 3d ac f5 2e bc 2c f8 dd 3c
       0.053706177 0.05896534 -0.01067869 0.027095877
0001e0 3f f4 29 3d c7 52 b3 bb cf 8e e6 3d cf ac 9f bd
       0.041492697 -0.0054725143 0.11257707 -0.077966325
0001f0 f9 06 90 3e 07 e4 ac bd a5 e2 82 3e af d2 e6 3c
       0.2813032 -0.0844193 0.2556354 0.028176634

value_stream.0.weight f4 [64, 128]
000000 37 53 b0 3d 7b aa c4 3e 9f 3d 97 3d dc fc 10 bf
       0.08609622 0.38411316 0.073848 -0.5663583
000010 79 b6 ad bd 70 aa b1 be 56 41 14 3e 22 93 33 bc
       -0.084820695 -0.34700346 0.14478049 -0.010960372
000020 35 ba 10 3d a2 15 0c bf 2a b6 c2 3d ca 24 e5 be
       0.03533383 -0.5472051 0.09507401 -0.4475463
000030 c0 50 f5 3c 5c 7b 2c 3e ac 4b 27 bb d3 07 79 bd
       0.029945731 0.16843933 -0.0025527282 -0.060798477
000040 1e 5e e6 bc cb 90 42 bc cf 5d c9 3d 09 24 1b 3e
       -0.02812105 -0.011875342 0.09832346 0.15150465
000050 a5 11 c6 be 45 5c 2e bc 22 a5 94 be 3d 77 da bd
       -0.38685337 -0.010642116 -0.29032236 -0.10667274
000060 9a c6 97 3d 04 0f ed bc 4c d7 10 bf 66 d5 2b be
       0.07410927 -0.028937824 -0.56578517 -0.16780624
000070 df 53 56 bc 2c 64 c6 be 2b 19 49 be 50 f3 50 3e
       -0.01308152 -0.387483 -0.19638507 0.20405316
000080 e2 87 2f bf 8e 22 c3 3d dc 9a e4 bd 10 ea b9 be
       -0.68566716 0.09528075 -0.111623496 -0.36311388
000090 e9 a8 29 3e 6a 66 86 be 9f 58 44 bd 3f 5a d5 bb
       0.1656834 -0.2625001 -0.04793608 -0.0065110023
0000a0 1f e1 15 be 05 a6 f8 3c 80 19 95 bd 3d 6e 76 3e
       -0.14636658 0.030352602 -0.07280254 0.2406549
0000b0 a2 17 9d be 0e 3e a6 bd ba 5c d6 3d 8d db 65 3d
       -0.30682093 -0.08117305 0.10466905 0.056117583
0000c0 67 da 92 bd cf 8a 28 3e 49 e1 a6 3c 8d fb f7 3d
       -0.07170563 0.16459201 0.020371096 0.121085264
0000d0 8f d0 22 3e 9f 76 75 3e 06 86 be be 1d cb 88 3d
       0.15899871 0.23971032 -0.37211627 0.06679366
0000e0 10 be 21 be b0 f9 88 3d d1 f7 23 3e a4 f2 e0 3d
       -0.1579516 0.06688249 0.16012503 0.1098378
0000f0 d9 24 59 3d f5 ad 2f be 3a 8a 83 3e 5e 2e 4b be
       0.053013656 -0.17156203 0.25691396 -0.19841906
000100 d0 27 ca be 6b c8 e5 bd 55 23 a2 3d c0 44 2e 3e
       -0.394835 -0.11219867 0.07916895 0.17018414
000110 0d 50 5b 3e d7 2b e9 be 8f 11 ce bd f4 31 0a 3d
       0.21417256 -0.4554126 -0.10061943 0.033739045
000120 f4 93 ad 3d b4 b4 1d bf cc 5e 83 bd 8f 50 e6 bd
       0.084754854 -0.61603856 -0.064145654 -0.11245834
000130 85 e1 bb bd e1 b8 75 3b 13 ff 8c 3d ba 16 0b bf
       -0.09173874 0.003749423 0.06884589 -0.54331553
000140 c5 15 53 3e 68 8a 2f bf c4 d8 f0 3d 12 27 4d 3e
       0.20613773 -0.68570566 0.11760095 0.20034435
000150 4c 0b cb 3c a5 bb 9f be ed 8e 01 be 32 42 de be
       0.02478566 -0.3119785 -0.12652178 -0.43409878
000160 90 b3 e9 bd 4d 62 85 be 96 63 f4 3d f8 ca 6f 3d
       -0.11411202 -0.2605156 0.11933057 0.058543175
000170 89 65 18 3d 4e 97 85 3d ad ef 54 3c 51 33 8d ba
       0.037206206 0.06523 0.012996596 -0.001077274
000180 9e a5 1e bc 0f c4 85 3d 0f ac 8a 3e 7c 72 68 b8
       -0.009683041 0.06531536 0.27084395 -5.5419732e-05
000190 1f bb 1d 3e 0d 49 34 3d 77 12 45 be 31 cd 83 be
       0.15403412 0.04401498 -0.19245325 -0.25742486
0001a0 65 92 a2 bd 2c 74 ca 3d ed b1 a2 bd 30 b3 f9 be
       -0.07938079 0.09885439 -0.07944093 -0.48769522
0001b0 eb 4b 8b bd 2e 3a be be 22 21 43 be d3 03 d2 bc
       -0.068015896 -0.37153763 -0.19055608 -0.02563659
0001c0 6f 6d 0b be 80 5b fa bd b3 22 a9 bd 5e ca 07 3f
       -0.13615964 -0.122244835 -0.082585715 0.5304316
0001d0 1d 03 75 be ee 9e 99 bd 58 cd 95 bd 31 1b 93 be
       -0.23926969 -0.075010166 -0.07314557 -0.28731683
0001e0 fc d1 d2 3d 23 c3 93 3e a1 9f 3a 3d c2 88 1a 3d
       0.102939576 0.28859815 0.04556239 0.03772808
0001f0 4e 52 b4 3d b1 ad 6e 3e b3 8d 0b 3e 04 81 0e be
       0.08804761 0.23308446 0.13628273 -0.13916403
000200 bb 1c be bd 7b fb 1c bf 8c 4d 50 be 1b 8a 6f 3e
       -0.09282824 -0.6132123 -0.20342082 0.23392527
000210 6a 2e df bd 73 b6 36 3d b2 3c 50 3d 35 59 44 3d
       -0.10897525 0.04460759 0.050839134 0.047936637
000220 cc f4 df be 17 c5 61 ba 2a 02 c8 bb 1c 76 98 3e
       -0.43741453 -0.00086124375 -0.0061037736 0.2977761
000230 20 92 88 be 83 cc 2e 3d f4 1d 38 3e 21 9f 19 bf
       -0.26673985 0.042675506 0.17980176 -0.60008436
000240 52 8a 42 3d a9 42 34 be ff 71 90 be a4 fc 81 be
       0.047495194 -0.17603554 -0.28211972 -0.25388062
000250 8e 52 0b 3e 31 02 96 be ca 89 34 3e a6 7b 80 3d
       0.13605711 -0.29298547 0.17630687 0.06273584
000260 6b 64 61 be 93 1c b3 3d 53 75 99 3d 62 b9 82 be
       -0.22010963 0.087456845 0.07493081 -0.2553206
000270 3e 2e 9a 3d 27 af 5f 3e 9a ae e8 be aa ad 31 bb
       0.07528351 0.21844159 -0.4544571 -0.0027111568
000280 7e 41 93 3d bf ca 27 be 0e 8f 02 bf 13 7e 1b bf
       0.07190226 -0.16385935 -0.50999534 -0.6073925
000290 1a 0a c8 be 93 a4 46 3c 70 fc d2 bd 9d 05 0f bd
       -0.39070207 0.0121241985 -0.10302055 -0.034917463
0002a0 5f 90 67 be 97 62 e9 3d 15 35 64 be 99 03 d5 be
       -0.22613667 0.11395758 -0.22285874 -0.41604307
0002b0 3e 20 5b 3c c5 b7 bf be 45 41 69 3d 9a 21 38 bd
       0.013374386 -0.37444893 0.05694701 -0.04495392
0002c0 90 20 15 bc 92 14 89 3d b9 f8 02 be 92 83 b4 be
       -0.009102002 0.066933766 -0.12790193 -0.3525663
0002d0 64 98 8d 3d 42 b2 2e be 21 fa a4 bd 63 89 20 3d
       0.06913832 -0.17060187 -0.08055521 0.039193522
0002e0 40 6b f6 bd 6e f9 19 3e bf be ea bd 6b 38 41 3d
       -0.12032175 0.15036556 -0.11462163 0.047172945
0002f0 29 c8 b7 3d d0 6f 9b be 27 f3 6f be e0 9c 63 be
       0.089737244 -0.30358744 -0.23432599 -0.22227812
000300 0a 97 04 be 14 15 61 be 15 16 60 3e 1b 15 16 3e
       -0.12948242 -0.21980697 0.21883424 0.14656489
000310 a5 91 13 3c 21 36 3e 3e e9 d2 87 be 4a 23 9a 3d
       0.009006892 0.18575336 -0.265281 0.07526262
000320 7b 48 be be 14 81 e0 3d d7 06 c4 ba c4 65 15 3c
       -0.37164673 0.1096212 -0.0014955652 0.009118501
000330 34 9c 41 be 09 82 44 3d 41 f2 c5 bc d6 3d 14 3d
       -0.18907243 0.047975574 -0.024163367 0.036191784
000340 ac 8d b5 be cc af f3 be 1f dc ed be c7 a9 04 bd
       -0.3545965 -0.4759506 -0.46457002 -0.032388475
000350 91 9d e0 3d c9 c2 b3 3d 62 ae fc 3d 50 31 06 be
       0.109675534 0.08777387 0.123379484 -0.13104749
000360 a2 9d 15 3d d3 e7 ae be 22 37 64 3e 1f dc 95 3e
       0.036527283 -0.34161243 0.22286656 0.29269502
000370 16 dd 2e bd 1b 8d 42 3e b3 9d 34 be 55 94 63 be
       -0.042691313 0.1899914 -0.17638282 -0.22224553
000380 c8 af a1 be 07 d2 bb 3c ff 23 6d 3e 5d 15 58 3d
       -0.31579423 0.022927297 0.23158263 0.05275475
000390 c5 63 8c 3b e8 72 5e be 29 f7 01 bf 59 7d ea bc
       0.0042843544 -0.21723521 -0.5076776 -0.028624224
0003a0 6c 5f b3 bd 31 79 88 3d 9e 8a 6f be 88 e0 32 3e
       -0.08758435 0.066637404 -0.23392722 0.17468464
0003b0 34 71 22 bd b8 50 e4 3c 62 ca f1 3c be 5d 73 bd
       -0.03965874 0.027870521 0.029515449 -0.05941557
0003c0 db d0 83 bd 72 2b 26 be 00 02 2b bf 37 4a 28 3e
       -0.064363204 -0.1622751 -0.66799927 0.1643456
0003d0 52 43 a5 3d e4 61 57 be 89 23 0c bd 35 9f 69 3e
       0.08069481 -0.21033436 -0.034213576 0.22814639
0003e0 e7 e8 38 bd 6f 29 98 3c f7 bd 0f 3d 78 7a c1 3c
       -0.045143988 0.018574445 0.035093274 0.023617968
0003f0 e7 6d 26 3e b6 73 35 be ac b5 70 bd 42 8a 0f 3e
       0.16252862 -0.17719921 -0.058767006 0.14017585

value_stream.0.bias f4 [64]
000000 07 2f 1a 3d 90 41 e5 bc 69 85 d1 3d 46 5d 46 3e
       0.037642505 -0.027985364 0.10230524 0.19371518
000010 8b f6 dd bc db 3f 84 bc d8 b5 29 3d 44 dd 45 3d
       -0.0270951 -0.01614373 0.041433185 0.04830672
000020 35 c0 84 3d f6 84 c3 bc ae db 5b 3d 4b 64 93 3d
       0.06481973 -0.023867112 0.0536763 0.07196864
000030 52 62 63 3e d3 3d ac 3d 67 81 79 bd c7 3f 29 3d
       0.22205475 0.084102295 -0.060914423 0.04132059
000040 e4 d5 30 3e aa e6 c4 bd 9c 8c 53 3e cb 19 75 3d
       0.17269093 -0.09614308 0.20659107 0.05983905
000050 04 1f 92 3d 71 53 47 ba 9f e1 c0 3d c9 63 8b bd
       0.07134822 -0.00076036813 0.09418034 -0.06806142
000060 fd 55 59 bd f7 6f 8e bb 96 41 6f bd 4c 90 c6 3d
       -0.05306052 -0.0043468433 -0.058412157 0.09695491
000070 66 ed 88 bd f7 1a c3 3d 3e 8d 3e 3e 36 12 62 bd
       -0.06685905 0.095266275 0.18608567 -0.05519315
000080 09 46 36 3e 0a b6 c5 bc 81 7f 68 bc 8a 5c 48 3e
       0.17800154 -0.024134655 -0.014190556 0.19566551
000090 9f 93 78 3d 9a c6 6e 3d 61 5e 3b bd 57 5c 89 bd
       0.060687657 0.05829487 -0.045744304 -0.067070656
0000a0 b1 df df 3d 23 00 1d 3e 93 8c 84 bc d7 1a 99 3d
       0.109313376 0.15332083 -0.016180312 0.074758224
0000b0 71 b0 2e 3e 21 b2 db 3c ee 8f cf 3c 93 fb 1b 3d
       0.17059495 0.026818337 0.025337186 0.038081717
0000c0 ce b0 4e 3e f3 f6 61 3a 0f 83 3b bd 9e a7 e3 3d
       0.20184633 0.0008619867 -0.045779284 0.11115955
0000d0 0d fd 11 3b cc c1 53 3e a9 1e 44 3e ea ee ed 3d
       0.0022276074 0.20679396 0.19152321 0.11617835
0000e0 9e af 83 3e 09 87 5d 3d 6d e4 80 bc b1 c2 9d 3c
       0.25719923 0.054083858 -0.015733922 0.019257875
0000f0 05 fe 18 3e 7d a7 6c bd fb 60 78 3d 4d ae a0 bd
       0.14940651 -0.057776917 0.060639363 -0.07845745

value_stream.2.weight f4 [1, 64]
000000 28 c8 eb 3e d5 43 21 3f a7 ef 88 be df c3 85 3f
       0.46051145 0.6299413 -0.2674534 1.04504
000010 27 c1 fe 3c 1a 7b 82 be 96 a4 29 3f 25 33 28 3e
       0.031097962 -0.25484544 0.66266763 0.1642576
000020 cd 45 8c be eb bd a8 be 83 d9 39 3f 37 c3 a9 be
       -0.27397004 -0.32957396 0.7259752 -0.3315675
000030 27 c1 54 3f 10 9d a6 be e0 8d 38 3d e5 99 29 3c
       0.8310723 -0.32541704 0.045057178 0.010351633
000040 7b 5b 63 3f 26 d4 53 be e0 a1 34 3f 6f b8 b0 be
       0.88811463 -0.20686397 0.705595 -0.34515712
000050 b8 b3 06 3f 09 82 83 be ab ea 51 3f 04 7c af be
       0.5261798 -0.25685146 0.819987 -0.34274304
000060 d9 66 8d be a4 28 12 3d 35 b7 03 3f 8a cc 94 be
       -0.2761753 0.03568329 0.51451427 -0.290623
000070 b4 1e 1d 3d 8a a3 84 be 75 ea 5d 3f 32 43 9f be
       0.03835936 -0.2590602 0.8668588 -0.31105953
000080 12 8c 4d 3f 03 f7 5e 3f 67 e5 46 3e 52 41 37 3f
       0.80291855 0.8709566 0.19423448 0.71584046
000090 fa ee a1 be 7a 0c 5a 3f 28 61 a6 bc 05 6c 1e 3d
       -0.31627637 0.8517529 -0.02031 0.038677234
0000a0 2a bb 95 be 5d 68 64 3f 0a 39 6c be c6 bf 94 be
       -0.29244357 0.89221746 -0.23068634 -0.29052562
0000b0 c2 9a 4b 3f 00 79 c6 be 9f 9c 98 be a5 fa b3 be
       0.79533017 -0.3876419 -0.29806992 -0.35152164
0000c0 9f 51 3f 3f ac 41 47 3f c7 69 82 bd b7 57 67 3f
       0.7473392 0.7783458 -0.06367832 0.9036822
0000d0 c5 6c a9 be 3f 37 35 3f 82 38 44 3f cf 11 5a 3f
       -0.33090797 0.70787424 0.76648724 0.85183424
0000e0 d9 13 50 3f 13 74 c6 3e ba 29 ad be 91 1e 83 3c
       0.81280285 0.38760433 -0.33820897 0.016005786
0000f0 be 27 21 3f f7 9d 83 be b1 ab a6 be f7 5f ae be
       0.62951267 -0.25706455 -0.32552865 -0.3405759

advantage_stream.0.weight f4 [64, 128]
000000 d7 33 5e be ca 5a 0e 3e d1 24 c2 bd c2 b2 38 3e
       -0.21699463 0.13901821 -0.094796784 0.1803694
000010 33 03 81 3e 10 f4 fd 3d 2c 78 cb bc ad 28 f8 3d
       0.25197753 0.12400067 -0.024837576 0.12117133
000020 3a ef 11 bf bc 99 de 3c 9c c0 7f bd 8b ac 0c 3e
       -0.57005656 0.027172916 -0.062439546 0.13737695
000030 31 55 c5 be 1b 63 e4 3d 16 55 65 3d 7a 84 96 be
       -0.38541558 0.11151715 0.055989347 -0.29397947
000040 f2 cd 23 3d c3 dc 1f be 6b 0c 99 bb 26 be 89 be
       0.039991327 -0.15611558 -0.00467067 -0.26902884
000050 ed 8a c0 3d aa 13 2d be b7 d4 5e 3e c6 6d 31 3d
       0.09401498 -0.16902032 0.21760832 0.04331758
000060 82 1b 32 bd 62 07 d3 3c 0b 37 32 3e 81 1b 04 bf
       -0.043483265 0.025760356 0.1740381 -0.5160447
000070 a9 35 1b bb f2 3c 16 be 85 64 17 be 9c 46 9c 3d
       -0.0023683107 -0.14671686 -0.14784439 0.07630655
000080 eb 85 21 3c eb 3e ec be 1c fc 09 be 50 1d c5 be
       0.009858589 -0.46141753 -0.13475078 -0.38498926
000090 75 e9 b0 3d 89 b7 ae 3e bd 8f 7e be 89 0b 63 bd
       0.086382784 0.341244 -0.2485952 -0.055430923
0000a0 b0 87 2d bd 76 6f 26 3e 93 52 bb 3e 29 cc 11 be
       -0.04236573 0.16253456 0.36586437 -0.14238037
0000b0 f0 37 9a bc 66 33 e6 3c 1d b2 f4 3c 24 c1 1f 3e
       -0.018825501 0.02810068 0.029870087 0.15601021
0000c0 21 8f 7a bd 93 86 ae 3d f7 16 7d bb 42 59 39 3e
       -0.061171655 0.08521762 -0.0038618424 0.18100455
0000d0 47 6c aa 39 63 bc 9e 3d f7 a5 26 3d 4f 4e ac 3d
       0.000325056 0.07750776 0.04068562 0.08413374
0000e0 60 43 7a 3c ce 2d b9 3d d5 86 62 3d 0a 70 2f 3d
       0.0152748525 0.0904194 0.055304367 0.04283146
0000f0 9e 4f 76 3d 42 5f 7a be 60 68 21 bd 3b ab 73 bb
       0.060134523 -0.244504 -0.03940618 -0.0037180919
000100 e6 0e 3d 3e a1 55 52 bd d3 b0 75 3e e3 b6 0c 3e
       0.18462715 -0.051351193 0.23993234 0.13741641
000110 c5 03 45 3e 64 1b 14 3e 00 96 e9 bd 82 c7 8d 3d
       0.19239719 0.14463574 -0.11405563 0.06922819
000120 14 8f 12 bf ce 62 f7 3d e7 8c 8e 3d 07 3f 95 3d
       -0.5724957 0.120793924 0.06960469 0.07287412
000130 ff bc 79 bc 29 1a 71 3e 79 af 12 3d 46 ff bd 3e
       -0.015242814 0.23545136 0.035811875 0.3710882
000140 1b 16 90 bd e2 d2 da be 50 c7 19 bf 3c be 74 be
       -0.07035466 -0.42739016 -0.6006975 -0.23900694
000150 53 e2 4a 3d 5a 5c a1 bd 06 7c cb 3d e6 8d 7e 3d
       0.049532246 -0.07878943 0.09935765 0.062147044
000160 06 8b ab bd fa 87 65 3c 55 e3 44 3d db 3c 5a 3e
       -0.08376126 0.01400947 0.048068363 0.21312277
000170 ef eb 12 bc b8 c2 0a 3e b3 03 38 be 2e 4e de bd
       -0.008967384 0.13550842 -0.17970161 -0.10854755
000180 d9 8b b3 be 5c 06 f5 3c f0 1b 40 3e a5 cb d4 3d
       -0.35067633 0.029910259 0.18760657 0.103904046
000190 cd 6c f0 3c 18 58 1b be 7b 6f 10 3e e0 03 14 be
       0.029348755 -0.15170324 0.14105026 -0.14454603
0001a0 87 1f 36 3d 82 1c 29 be e6 a4 98 be 0d 7f 3d 3d
       0.04446366 -0.16514781 -0.29813308 0.046263743
0001b0 28 d7 b9 bc 5b d6 89 3d d4 62 b9 3e ee 30 ef 3d
       -0.022685602 0.06730338 0.36208212 0.116792545
0001c0 61 40 fd bc 03 57 f1 bd 1b 32 a6 bd d6 86 ef 3d
       -0.030914487 -0.11784174 -0.081150256 0.1169564
0001d0 3d 71 75 bb ae 9c ea bd 88 44 88 3d 45 05 7a 3e
       -0.0037451528 -0.114556655 0.06653696 0.24416073
0001e0 7d 80 e7 bd ca 99 7d be 27 dd 3d bc dd 69 88 3d
       -0.11303804 -0.24765697 -0.011588371 0.06660817
0001f0 6b 01 6d 3d 77 17 07 be f3 ff cd bb ee fd 17 3e
       0.05786268 -0.13192545 -0.006286615 0.1484296
000200 b5 80 07 be b0 50 35 be 2f 24 9d bc 62 40 69 bd
       -0.13232692 -0.17706561 -0.019182293 -0.056946166
000210 fb 7a 64 bc 9e 32 b6 3d 22 59 50 3c 6b 3e 70 3e
       -0.013945336 0.08896373 0.012716563 0.2346131
000220 c0 42 dd bd e5 1a 54 3e a5 01 a0 3d 4a 6f bd 3d
       -0.10803747 0.20713384 0.07812814 0.09249742
000230 b1 d7 2a 3e 86 6e 56 bd 40 21 40 3e 33 01 2a bd
       0.16683842 -0.052351497 0.18762684 -0.04150505
000240 2b fd 1b bc 3a b4 05 bd 9a f6 77 bc fa 9c 3a bc
       -0.009520809 -0.03264258 -0.015134478 -0.011389965
000250 f7 a3 e3 bd 77 65 a2 be 65 86 93 be 06 c2 91 3d
       -0.11115258 -0.31718037 -0.28813472 0.07117085
000260 dc 3e 0a 3d 1a 81 12 3c ee 7d d4 3d 9d d3 90 3b
       0.033751354 0.008941913 0.10375582 0.0044197575
000270 89 68 82 3e 55 58 a5 bc eb b4 6f 3e 25 60 00 3e
       0.2547038 -0.020183722 0.23408858 0.12536676
000280 14 ad a8 bb eb c5 4e bc 39 8b c1 bd b8 fa 72 3e
       -0.0051475856 -0.0126204295 -0.09450383 0.23728454
000290 d6 2b 7d be 38 7f f6 bd df 80 34 be 43 ed 76 bd
       -0.24723753 -0.12035984 -0.17627285 -0.060284864
0002a0 e0 d4 90 be 90 88 fb 3d 51 3b 10 bb e3 c3 21 be
       -0.2828741 0.122819066 -0.0022008012 -0.15797381
0002b0 d8 3c d6 bc 57 c1 23 3e 65 c5 1d 3e 76 b5 c7 3c
       -0.02615206 0.15991722 0.15407331 0.02437852
0002c0 16 87 f3 3c 92 18 22 3d b5 74 a0 3d cd c4 c5 3d
       0.0297275 0.039574213 0.0783476 0.096566774
0002d0 72 26 8f 3e 97 d7 2c 3d 24 3d 38 3e 50 67 03 3e
       0.2795902 0.04219779 0.17992073 0.1283238
0002e0 47 9c 6d 3e f5 9e dc 3c 48 05 24 3e 8f 52 2e 3e
       0.23204146 0.026931265 0.1601764 0.17023681
0002f0 6c 18 90 3d 2e 82 a1 bd 0c 4a 31 3d d8 be 77 3d
       0.07035908 -0.07886158 0.043283507 0.060484737
000300 c8 ea 01 be b3 46 f3 bd 61 2b 7c 3e eb 37 53 3e
       -0.12687218 -0.11878719 0.24625923 0.206268
000310 ec f6 d2 3d 0f 5c 10 3d aa 85 b7 3d ee 72 55 be
       0.10301003 0.035244044 0.08961041 -0.20844623
000320 21 5e 80 be 28 38 80 be db 17 85 3d d6 b4 66 3e
       -0.25071815 -0.25042844 0.06498691 0.22529921
000330 54 47 84 3e 12 97 08 3d 15 6d 41 3c 5d 73 a3 3e
       0.2583567 0.033347197 0.011805792 0.31923953
000340 71 4e 00 3c de 9d 6c 3c 93 1a 7c 3d 3f 60 66 3e
       0.007831202 0.014441935 0.06154878 0.22497652
000350 ce 1c 36 3d f8 b6 06 be c5 97 a0 3c dc 13 fb bc
       0.044461064 -0.13155735 0.01960362 -0.030649118
000360 8d 9e 57 3c 92 d3 fb bb 35 e5 9b bd 4c b4 10 be
       0.01316036 -0.0076851333 -0.07612077 -0.14131278
000370 a4 3c dc 3c c2 a3 96 3d 04 7c ea bc 1d aa b5 bd
       0.026884384 0.07355453 -0.028623588 -0.08870337
000380 96 7e 68 3e ba 42 f4 3d 09 df fc bd 86 39 1d 3e
       0.22704539 0.119267896 -0.12347228 0.15353975
000390 a5 70 fe 3d 86 ab 3e 3d d4 fc d5 bc 43 1b 15 bf
       0.12423829 0.046550296 -0.026121534 -0.58244723
0003a0 1b 34 83 bd b1 cb fe 3d fb e0 1c be 0c 82 eb 3e
       -0.06406423 0.12441195 -0.15320198 0.45997655
0003b0 10 0d 83 3d 2c 60 c0 bd 58 42 41 bd 10 4a cc be
       0.06398976 -0.09393343 -0.04718241 -0.39900255
0003c0 77 b1 e8 3b f6 93 b8 ba 5b 17 1f 3e 97 40 81 be
       0.0071012336 -0.0014082182 0.15536253 -0.2524459
0003d0 15 71 a5 3d b4 bd 72 3b 2b f0 04 3e 01 f8 49 3c
       0.08078209 0.0037039341 0.12982242 0.012327195
0003e0 b8 80 38 3e cb 60 32 3e f5 8e 30 3e d1 ca 8d bd
       0.18017852 0.17419736 0.17242034 -0.0692345
0003f0 c3 2c 79 3e 23 63 65 bd 1f 18 6b bc e8 ea 90 be
       0.24333481 -0.056002747 -0.014349013 -0.2830422

advantage_stream.0.bias f4 [64]
000000 1b 07 cc 3d fb e4 e9 3d b0 2a 41 bc cb bc 36 3d
       0.09962293 0.11420628 -0.011789963 0.04461364
000010 4e a3 6a bc 53 9f 92 bd de 8f bb 3d b3 1b ed bc
       -0.014321161 -0.07159295 0.091583 -0.028943872
000020 63 91 df 3a a4 a4 27 3e 63 04 2e bd 29 49 ef 3d
       0.0017056878 0.16371399 -0.042484652 0.11683876
000030 59 ea da 3d bb 5a 1f 3e 04 be 6b 3c a1 cc 45 3e
       0.106892295 0.15561955 0.014388565 0.19316341
000040 db a2 04 3e 53 77 0a 3e d8 58 8c bd 64 6d 01 3d
       0.1295275 0.13522081 -0.06852883 0.031598464
000050 04 af 4d 3c d9 8e d7 3d 85 15 8d bc 3e bd 47 bc
       0.012553934 0.10525293 -0.017222175 -0.012191115
000060 6e 24 8e 3c 64 06 a1 bd 84 f8 c9 3d 05 bc 15 3e
       0.017351355 -0.07862547 0.09861854 0.14622505
000070 e3 6e ab 3c 63 38 09 bd 9b 48 df 3c 39 2f b7 3b
       0.020926898 -0.03350104 0.0272563 0.005590346
000080 2c 15 c0 3d 48 de c5 bc 58 0f 19 3e da 20 8b bd
       0.09379038 -0.024153844 0.1494726 -0.06793375
000090 25 c3 02 bd 68 43 76 bd 83 7e 92 bd e6 6e b8 bb
       -0.031924386 -0.060122877 -0.071530364 -0.0056284545
0000a0 ff d2 aa 3d 39 cd a2 3d 33 11 5b 3d b5 58 28 bc
       0.083410256 0.07949299 0.0534832 -0.010275056
0000b0 55 06 cf bd 73 dd 80 3d bd 68 85 bc 2f e9 9f bc
       -0.101086296 0.06292238 -0.016285295 -0.01952037
0000c0 61 f5 72 ba d3 9f 6f 3d 61 0e a5 3d 10 99 b1 3b
       -0.00092681317 0.05850203 0.08059383 0.005419858
0000d0 00 54 26 3d 90 3c be 3d d1 90 22 3e 2f 47 36 3c
       0.040607452 0.09288895 0.15875556 0.01112537
0000e0 53 43 ca 3d 6e 11 f3 bc 8b 0a 6e bd 23 15 a9 3d
       0.09876122 -0.029671397 -0.058115523 0.08255985
0000f0 c6 ea c9 3d 73 50 23 3e 2b ad 20 3a 7e cd 54 bc
       0.098592326 0.15948658 0.00061293197 -0.012988446

advantage_stream.2.weight f4 [4, 64]
000000 58 9b 0f 3d 64 49 9b 3d a1 db 8b 3d 02 ec 00 bd
       0.035060257 0.075823575 0.06829 -0.031475075
000010 fc fb 2a bd 11 f6 ae bc 24 75 0b 3c a1 a9 8f 3d
       -0.041744217 -0.021357568 0.008511815 0.07014776
000020 11 9f f0 bd 76 44 89 3e 3c ec ac bd b1 fd 1c 3e
       -0.117490895 0.26810044 -0.08443496 0.1533115
000030 eb 21 e3 bd 6d a7 35 3c 48 06 90 3e 4c e9 36 3c
       -0.11090454 0.011087281 0.28129792 0.011164021
000040 b5 17 93 bc ae 9d 8b bc 18 22 13 bf ca e9 14 3d
       -0.01795564 -0.017042961 -0.574739 0.03635577
000050 85 f9 3f bd f8 73 ec bb cf 6f 9c bd 7e ab 46 be
       -0.04686882 -0.007215973 -0.07638513 -0.19401357
000060 5e 9c 84 be 23 35 35 3a b7 11 1b be b7 e0 6a 3e
       -0.2590055 0.000691252 -0.15143476 0.22937284
000070 bf 0c 6e 3d d5 12 47 bc 5d b7 74 3b e2 e1 13 bd
       0.058117624 -0.012150486 0.0037340738 -0.03610409
000080 06 50 b3 bd 64 69 6f bd 7c 3b 6d 3e 07 5a 52 bd
       -0.08755498 -0.058450118 0.23167223 -0.051355388
000090 8a f4 3b bd 73 02 dd bc 3e f6 a5 3d 69 b7 99 3c
       -0.045887507 -0.026978707 0.081036076 0.018764215
0000a0 e4 b3 56 3d 12 66 a8 3c dd 3a 3a 3e e6 62 40 bd
       0.05241765 0.020556483 0.18186517 -0.046969317
0000b0 5d 6a c6 bd 7a 9f 3e bd 7b 81 62 3d 44 e6 1b 3e
       -0.09688256 -0.046538807 0.055299263 0.15224558
0000c0 74 c6 e9 bc 66 cc 08 3e 6b c3 26 bf 7e 72 99 bc
       -0.028537013 0.13359222 -0.65141934 -0.018731352
0000d0 fc 68 8d 3d a2 38 0c be be 80 5e 3e 3a 04 12 3e
       0.0690479 -0.13693479 0.21728799 0.14259425
0000e0 65 ce a3 be cf 5c 6d bd 72 4b 83 3e a0 04 ca bd
       -0.31993404 -0.057949837 0.25643498 -0.098641634
0000f0 64 3c 09 3e 01 1d e2 3d 12 0d ea bd a6 25 09 3e
       0.13401943 0.11040688 -0.11428274 0.13393268
000100 fe fd b7 bd 35 1d 93 be 20 00 81 3d 6f 93 ea 3d
       -0.08983992 -0.2873322 0.06298852 0.11453902
000110 db 07 b2 3e 28 b7 26 be 0b 0b 1d bd 41 8b 2f 3f
       0.34771618 -0.16280806 -0.03834061 0.6857186
000120 b2 14 a8 bc 55 fc ed 3d eb 2a 79 3d 12 6c b5 3e
       -0.02051768 0.11620394 0.060831945 0.35434014
000130 ce 4d 22 3f aa c1 18 3f 05 04 cf 3e 71 ff 0c 3e
       0.6339997 0.5967051 0.40432754 0.13769318
000140 79 52 c0 3e 55 65 db 3d d3 39 07 bf a9 74 b0 bd
       0.37562922 0.10712687 -0.5282261 -0.08616001
000150 63 21 4e 3d c5 a4 51 be d7 8d 91 bd 0c ed 60 be
       0.05032481 -0.20473011 -0.07107132 -0.21965426
000160 e0 ce 9b bd 27 a6 31 3d 49 71 a3 be 69 9c 53 3e
       -0.07607818 0.043371346 -0.31922367 0.20665134
000170 2e 75 76 bb 32 9d 8a 3d ab f1 f2 bd b7 81 66 3e
       -0.0037606466 0.06768264 -0.11862501 0.2251042
000180 72 b0 86 bd 52 73 92 bd f2 16 a8 3d a7 38 04 3e
       -0.06576623 -0.07150902 0.082075015 0.12912236
000190 d6 44 3d 3d a6 b1 b0 be 40 65 b3 3b 28 f4 b4 3e
       0.046208225 -0.34510535 0.0054747164 0.35342526
0001a0 a9 ff f2 3e dd be 6e be 38 33 73 3e db e1 46 3c
       0.47460678 -0.23314996 0.23750007 0.012138809
0001b0 5c 5a de be 6b e7 e9 3d da 1f 34 3e cc 80 1a 3e
       -0.43428314 0.114210926 0.17590275 0.15088195
0001c0 76 cd 49 3e 92 57 9a 3d d7 be 0d 3e 0f 12 9e bd
       0.19707283 0.07536234 0.13842331 -0.07718288
0001d0 f9 9a 13 3f 3f 86 a1 be 9d 35 b2 3e bc e6 63 3d
       0.57658345 -0.31547734 0.3480653 0.055639967
0001e0 cd 24 24 bd 47 76 e3 be 1a e5 92 be a1 43 12 3d
       -0.04007416 -0.44426176 -0.28690416 0.035709027
0001f0 bc bf 85 bd bd 78 11 3f 95 77 10 3d 29 d8 b2 bc
       -0.06530711 0.56824857 0.035270292 -0.021831589
000200 2d 97 a0 be df 22 09 3e 29 c3 c0 3d 25 bc 1c bd
       -0.31365338 0.13392209 0.09412224 -0.038265366
000210 b4 2c 85 bd ff 61 a9 3e d4 13 16 be db 73 80 3e
       -0.06502667 0.33082578 -0.14656001 0.2508839
000220 84 99 16 bb 4d 5a 30 bf 29 1e 11 3d 0a a6 41 bf
       -0.0022979686 -0.6888779 0.035429154 -0.7564398
000230 6a 3e c8 be 7f f1 a3 be ad 82 f3 be ed ac e3 bd
       -0.39110118 -0.32020184 -0.47560635 -0.11116967
000240 d9 54 2b 3e 0e 59 95 be 61 ad 8a 3b da 1f b2 bd
       0.16731586 -0.29169506 0.004232094 -0.086974815
000250 b4 68 41 3e 4a e5 3d 3e d3 b9 ce be d3 63 48 3f
       0.18887597 0.18544498 -0.40376148 0.7827732
000260 46 86 69 3e 9e ee 96 3e ac 45 2f 3f ed 73 29 bf
       0.22805128 0.29478925 0.68465686 -0.66192514
000270 be d0 6a 3d a8 de 81 3c 68 f2 18 bd 28 83 bd 3e
       0.05732798 0.015853241 -0.03734055 0.37014127
000280 b6 b9 e4 3d 40 f2 83 3c 1e 97 14 bf 87 5a 00 3e
       0.11168234 0.016106725 -0.58043087 0.12534533
000290 71 ef d9 3c 7b 0e 69 3e 90 94 81 bc d3 bd 8f be
       0.026603432 0.2275943 -0.01581791 -0.28074512
0002a0 7e 13 b1 3d 0e b1 22 3e 30 9a 4f 3d 63 2a c9 bd
       0.08646296 0.15887854 0.050684154 -0.09822538
0002b0 70 53 4f 3e e2 e9 97 3d c6 2f 37 3c 53 74 a5 3b
       0.20246673 0.074176565 0.011180824 0.0050492673
0002c0 c9 0c 50 bf ae e0 3c be bd e6 68 3f 35 4c 0d 3e
       -0.8126951 -0.18445083 0.9097708 0.13798602
0002d0 03 e7 f7 be 0d 58 2c 3e 5e 71 c3 be 2d ba 59 be
       -0.48418435 0.16830464 -0.3817243 -0.21262427
0002e0 25 f5 48 3f 69 01 be 3d 59 6b 2f be 00 77 4d bd
       0.7849906 0.09277613 -0.17130794 -0.050162315
0002f0 da 1b 5f bd 2c b3 51 be 49 75 89 bd b4 c1 00 be
       -0.05446992 -0.20478505 -0.067118235 -0.12573892
000300 c4 7a cf 3e 8f 59 34 3e 51 0f 99 bd e6 20 b8 bd
       0.4052335 0.17612289 -0.074736245 -0.0899065
000310 ea ea d4 3c 4e ee 10 bd db a8 33 3e 5f 2f 13 bf
       0.025990922 -0.035383515 0.17544882 -0.5749416
000320 65 c0 85 bd 57 32 8f 3e 18 70 52 be 85 86 80 3e
       -0.06530837 0.27968094 -0.20550573 0.2510263
000330 1c 3c bd be 5c 88 61 3e 34 83 11 be 68 b2 88 be
       -0.36959922 0.22024673 -0.14210206 -0.26698613
000340 9f bb c9 be 6e 98 27 3e 5d b0 49 3f b2 c1 0a 3e
       -0.39400956 0.16366741 0.78784734 0.13550451
000350 85 54 64 be 03 06 31 3e 42 26 9d 3e 16 6e 09 bf
       -0.22297867 0.1728745 0.3069325 -0.536836
000360 54 be 58 bd b0 f4 0f bf e5 be d4 be 8c cb 6c 3e
       -0.052915886 -0.5623274 -0.4155189 0.23124522
000370 b6 0f 26 3d 6e c5 ae 3d 95 51 94 bd 0b da 76 be
       0.040542327 0.085337505 -0.07242123 -0.24106614
000380 72 48 3c 3e 74 7d db bd 7c 27 2e 3e 8b 08 14 bc
       0.1838701 -0.10717288 0.1700725 -0.00903524
000390 a2 37 a3 3d c5 2e ad bd c8 7a 49 bd 6b df 8b 3d
       0.079695955 -0.08456186 -0.04918936 0.06829723
0003a0 c9 ae f8 be 01 2f 15 3d 0c de ac be 11 e2 48 3d
       -0.4857085 0.03642178 -0.33763158 0.04904372
0003b0 48 15 ef 3e b4 94 cc 3d 05 ae a7 bd 48 02 eb 3d
       0.46695924 0.099893 -0.081874885 0.114750445
0003c0 ae 93 a9 3e f7 4c 0e be 4c bf c5 be 02 63 09 3e
       0.33120483 -0.13896547 -0.3862251 0.13416675
0003d0 4d 41 99 be 71 cb 00 3e 55 ea 53 be 43 b8 e0 bc
       -0.29932633 0.12577607 -0.2069486 -0.027431613
0003e0 ee 8c f5 be 5b 75 8e 3c 2a 63 02 3f 4d 5d 80 3e
       -0.47959083 0.017389944 0.5093256 0.25071183
0003f0 22 63 60 3e 66 eb 7e be 7b 1a 20 bd 19 36 2e 3e
       0.21912816 -0.24894485 -0.039087754 0.17012824

advantage_stream.2.bias f4 [4]
000000 7e 86 5d 3d fe df a3 3b 19 b9 ae 3c 1c 50 2c 3b
       0.05408334 0.005001067 0.021328496 0.0026292866
