ppo_lunar_lander_v3.pth (torch, 76624 bytes, 7 tensors)

shared.0.weight f4 [128, 8]
0	0xbeec7751	-0.4618478
1	0xbb885fab	-0.004161795
2	0x3e41ad10	0.18913674
3	0xbd571190	-0.052506983
4	0xbe230979	-0.15921582
5	0xbdca9193	-0.09891047
6	0x3e0e3f8c	0.13891429
7	0x3ec110b2	0.3770805
8	0x3e14069d	0.14455648
9	0x3e8a8283	0.27052698
10	0xbb442873	-0.0029931336
11	0xbebc1993	-0.36738262
12	0xbe2aaa8b	-0.1666662
13	0xbe7fe692	-0.249903
14	0x3e1e3c93	0.15452795
15	0xbe6d6542	-0.23183158
16	0xbdf41ffa	-0.119201615
17	0xbcc2a1dd	-0.023758823
18	0x3d457388	0.048205882
19	0xbd1b5e5d	-0.03793179
20	0xbe3f54ab	-0.18684642
21	0xbda86011	-0.08221448
22	0x3c4951ba	0.012287552
23	0x3e06c7e8	0.13162196
24	0x3db5b1b9	0.088717885
25	0x3d44742e	0.04796236
26	0x3e5f8de3	0.21831469
27	0xbe44bf23	-0.19213538
28	0x3e1faba1	0.15592815
29	0xbb6156eb	-0.0034384083
30	0x3e651598	0.22371519
31	0x3dd394a0	0.10331082
32	0x3e6af0fa	0.22943488
33	0x3ea020a7	0.31274912
34	0x3e849b55	0.2589976
35	0xbecfc630	-0.40580893
36	0xbda7de06	-0.081966445
37	0xbdec3258	-0.1153304
38	0x3dc640c7	0.09680324
39	0x3d9f4def	0.077785365
40	0x3f0d7f5c	0.5527246
41	0x3e3dcc84	0.18535048
42	0x3f31c87e	0.6944655
43	0xbb91dd79	-0.0044514504
44	0xbe563c36	-0.20921406
45	0xbedcd4ee	-0.43131202
46	0xbec379ae	-0.38178772
47	0x3ea533bd	0.32266036
48	0xbf1b5152	-0.6067096
49	0x3d9517c5	0.07279924
50	0xbf4e52bd	-0.80595
51	0xbe9af9c8	-0.30268693
52	0x3f0d2d2f	0.5514707
53	0x3eb8ec8d	0.36117974
54	0xbead857a	-0.33890897
55	0xbe17f209	-0.14838423
56	0x3da6e40b	0.081489645
57	0x3f0122cd	0.50443727
58	0xbdd48554	-0.10376993
59	0x3cf787be	0.030216094
60	0xbe696743	-0.22793297
61	0xbe84feb6	-0.2597558
62	0x3ebba9b4	0.3665291
63	0xbba8c026	-0.005149859
64	0x3eded651	0.43522885
65	0x3d881883	0.066453
66	0x3f01862f	0.5059537
67	0xbe7e43bb	-0.24830525
68	0xbee000f5	-0.4375073
69	0xbeee5342	-0.46547896
70	0xbe7c5632	-0.24642256
71	0xbe3d6093	-0.18493871
72	0xbeb92f60	-0.36168957
73	0x3ec7a9f0	0.3899684
74	0x3ea7faad	0.32808438
75	0xbdcc0185	-0.09961227
76	0xbe166e4d	-0.14690514
77	0x3c74d7ed	0.014944059
78	0xbdde524a	-0.10855539
79	0x3eb623e8	0.3557427
80	0x3e0e8d22	0.13921025
81	0x3e44fe57	0.19237648
82	0x3ea8f7be	0.33001512
83	0xbf0cf42f	-0.55060095
84	0xbea53036	-0.32263345
85	0x3d60435a	0.05475173
86	0xbd40d1d5	-0.04707511
87	0x3d146b29	0.03623501
88	0xbe924d50	-0.2857461
89	0x3ece349e	0.4027452
90	0x3ec0388d	0.37543145
91	0xbd6aef09	-0.057356868
92	0x3deebc20	0.11656976
93	0xbda8db89	-0.08244998
94	0x3d4c13a9	0.049823437
95	0x3d8a5dcd	0.06756172
96	0xbe971dab	-0.29514822
97	0x3e1f7bbf	0.15574549
98	0xbe529ea0	-0.20568323
99	0xbeb7dd6a	-0.35911113
100	0xbe357305	-0.17719658
101	0xbe847702	-0.25872046
102	0x3e5c88b0	0.21536517
103	0x3e9c26e7	0.3049843
104	0x3f527d6b	0.8222262
105	0xbd27adbb	-0.040937167
106	0x3f8564f4	1.0421433
107	0x3e73acd0	0.23796391
108	0xbf1025e7	-0.56307834
109	0xbe1a6006	-0.15075693
110	0xbdfc33da	-0.123145774
111	0xbea96e2b	-0.33091864
112	0x3e67e3c7	0.22645484
113	0x3f027624	0.5096152
114	0x3dd4be6f	0.10387885
115	0xbeb31fb6	-0.3498513
116	0xbe4cbb86	-0.1999341
117	0x3dbae6bf	0.091260426
118	0x3e89dc7e	0.26926035
119	0xbdf82812	-0.12117018
120	0x3e3a3f2f	0.18188165
121	0x3ec4fc54	0.3847376
122	0x3eca0e88	0.3946421
123	0xbd099c92	-0.033596583
124	0xbd24a958	-0.04020056
125	0x3e77a9a9	0.24185814
126	0x3d98173b	0.07426306
127	0xbe440d5e	-0.19145724
128	0x3e205990	0.15659165
129	0x3eaa2541	0.33231547
130	0xbd5048a4	-0.050850525
131	0x3e64fc7a	0.22361937
132	0x3c867b01	0.016416075
133	0xbe14695b	-0.14493315
134	0x3e0ea39a	0.13929597
135	0x3cc35d49	0.023848193
136	0xbe91aa5c	-0.28450286
137	0x3e9cf8b9	0.3065851
138	0x38c5c27f	9.42992e-05
139	0xbebcf69c	-0.36906898
140	0x3e27aaf4	0.16373807
141	0xbebfcb9e	-0.37460035
142	0xbe588148	-0.21143067
143	0x3d4c49dc	0.049875125
144	0x3ecf0411	0.4043279
145	0x3da329d3	0.07966962
146	0x3f17b4a4	0.5926001
147	0xbea01c86	-0.31271762
148	0xbeef4163	-0.46729574
149	0xbe8e430c	-0.27785528
150	0xbe01408a	-0.12622276
151	0xbcd28e4a	-0.025702614
152	0xbe2f0716	-0.17092547
153	0xbcbd81bf	-0.023133157
154	0x3d84d4bb	0.064858876
155	0xbb872870	-0.0041246936
156	0x3e148a2f	0.14505838
157	0xbec496de	-0.38396353
158	0xbea91106	-0.330208
159	0x3e872e7e	0.26402658
160	0x3e11028d	0.1416113
161	0xbd1e2809	-0.0386124
162	0xbea56cb2	-0.3230949
163	0x3e51ae73	0.20476703
164	0x3be1f550	0.0068956986
165	0xbda26763	-0.07929876
166	0xbea1e3db	-0.31619152
167	0xbd767926	-0.06017413
168	0xbd5cedd4	-0.053937748
169	0x3dbb2ad8	0.09139031
170	0x3d867595	0.06565396
171	0x3dd34fbd	0.10317943
172	0xbcedbc18	-0.029020354
173	0xbe118664	-0.14211422
174	0xbd9768ef	-0.07393061
175	0x3e0f4d43	0.13994317
176	0x3cf652d7	0.030068798
177	0x3ebec101	0.37256625
178	0x3e8b9893	0.27264842
179	0x3e34a3b2	0.1764057
180	0x3de41f10	0.11138737
181	0xbdb0dac1	-0.08635474
182	0xbdde26a7	-0.10847216
183	0x3e81a32b	0.253198
184	0xbf7a5f07	-0.9780125
185	0x3d4decef	0.050274786
186	0xbf783f78	-0.96971846
187	0xbe0d27f9	-0.1378478
188	0x3f55a823	0.8345968
189	0x3dd084f2	0.10181607
190	0x3e7d505f	0.2473769
191	0xbcebfa45	-0.028805861
192	0xbea48996	-0.3213622
193	0x3e2ef3f9	0.17085256
194	0xbe71deee	-0.23620197
195	0xbe33be4c	-0.17553061
196	0x3dba1ef4	0.09087935
197	0xbe4a162b	-0.19735019
198	0x3e0f1354	0.13972217
199	0xbd25c969	-0.040475283
200	0x3d8947a6	0.06703119
201	0x3ebdbd46	0.37058467
202	0xbbdc663a	-0.0067260535
203	0xbd36745e	-0.04454457
204	0x3db13f5c	0.08654663
205	0xbea366ee	-0.31914467
206	0xbda135a1	-0.07871557
207	0x3daa54b8	0.0831694
208	0x3eab922b	0.33509955
209	0x3e4b226d	0.19837351
210	0x3f3dc435	0.74127513
211	0xbe8d5c74	-0.276096
212	0xbf1d7a1d	-0.61514455
213	0x3e0e97b8	0.13925064
214	0xbd85721f	-0.065159075
215	0x3e8b0f90	0.2716031
216	0x3e90e891	0.28302434
217	0x3e72b6aa	0.23702493
218	0x3e80046e	0.2500338
219	0xbe9d3700	-0.30706024
220	0xbe4493b1	-0.19196965
221	0x3d81dbbb	0.063407384
222	0xbe91ea7a	-0.28499204
223	0x3e34c5e6	0.17653617
224	0x3f06184f	0.5238084
225	0x3d3e057c	0.04639195
226	0x3f6689d7	0.90054077
227	0xbc9a51dc	-0.018837862
228	0xbed01b26	-0.40645713
229	0xbc5b9ff5	-0.013404836
230	0xbea8f286	-0.3299753
231	0xbe2f8010	-0.17138696
232	0x3b18091a	0.0023198784
233	0x3ecb39d4	0.39692557
234	0x3ebb33fe	0.36563104
235	0xbed4bc59	-0.41549948
236	0xbee865dc	-0.45390213
237	0xbe990c1e	-0.29892057
238	0x3e7dfb0a	0.24802795
239	0xbe933026	-0.28747672
240	0x3d095db4	0.033536628
241	0x3ebb7ea2	0.3662005
242	0x3e49ebe1	0.19718887
243	0xbd7db27c	-0.061937794
244	0x3e5959a7	0.21225606
245	0xbebcc3a0	-0.36868
246	0xbe72d304	-0.23713309
247	0xbc833379	-0.016015755
248	0x3c40344d	0.0117312195
249	0x3ea06847	0.31329557
250	0x3e0bddf6	0.1365889
251	0x3e2c5768	0.16830218
252	0xbdd49e91	-0.10381807
253	0x3dffe4ab	0.12494787
254	0x3d597370	0.053088605
255	0xbe834694	-0.25639784

shared.0.bias f4 [128]
0	0x3ef4d248	0.47816682
1	0x3e0d2107	0.1378213
2	0x3f85222c	1.0401053
3	0x3f543225	0.82889014
4	0x3f369840	0.71326065
5	0xbeed0932	-0.46296078
6	0x3ec3afe5	0.38220134
7	0x3f044076	0.5166086
8	0x3e6c40cb	0.23071592
9	0x3f2ac6d9	0.6670967
10	0x3e9fa3a7	0.31179544
11	0x3eb0dddf	0.34544274
12	0x3f4fa726	0.81114423
13	0xbed2b177	-0.4115102
14	0x3ee8597f	0.4538078
15	0x3ed1e852	0.4099756
16	0x3f5e0450	0.8672533
17	0x3f4e3f0c	0.8056495
18	0x3ea9e4ee	0.33182472
19	0x3f63c5a0	0.88973427
20	0x3f781a44	0.9691508
21	0x3f7206d6	0.9454168
22	0x3f15b397	0.5847716
23	0xbb5e0acb	-0.0033880945
24	0x3f475711	0.7786723
25	0x3eff69bc	0.49885356
26	0xbe7273a5	-0.23676927
27	0x3f5b4c5f	0.8566341
28	0xbe8c7b0a	-0.2743762
29	0x3e5d7999	0.21628417
30	0x3f670075	0.9023507
31	0x3f4caf37	0.79954857
32	0x3f60e473	0.87848586
33	0x3f442552	0.76619446
34	0x3f569277	0.8381724
35	0x3f2ea11d	0.6821459
36	0x3ecb3116	0.39685887
37	0x3f4a3fd8	0.7900367
38	0x3f1ef657	0.62094635
39	0x3f77591b	0.9662034
40	0x3f3dad10	0.740922
41	0xbed1a70e	-0.40947765
42	0xbf056294	-0.52103543
43	0x3ef61464	0.48062432
44	0x3eec0959	0.46100882
45	0x3f79e38f	0.9761285
46	0x3e811f1b	0.25219044
47	0x3f65f6a2	0.89829457
48	0x3eb9ff50	0.363276
49	0xbd35ba2f	-0.04436701
50	0x3f8081ae	1.0039575
51	0x3f087d4e	0.533162
52	0xbd6ba372	-0.05752892
53	0x3f0ceb43	0.5504648
54	0x3f0da32e	0.5532712
55	0x3f71e8e5	0.94495994
56	0x3f2d284c	0.67639613
57	0xbd6c941a	-0.05775843
58	0x3e7eee7e	0.24895665
59	0x3f424afb	0.7589566
60	0x3f1e5535	0.61848766
61	0x3f830789	1.0236675
62	0x3f263928	0.64930964
63	0x3f615b2e	0.88029754
64	0x3f88128d	1.0630661
65	0x3f0d93ab	0.5530345
66	0x3f3d5677	0.7396006
67	0x3f103c33	0.56341857
68	0x3f1cad3e	0.61201847
69	0x3f55bf7b	0.834953
70	0x3f6648ea	0.8995501
71	0x3f2bffc3	0.67187136
72	0x3f279a8b	0.6547019
73	0x3f7f7bd4	0.9979832
74	0x3f2aae2b	0.6667201
75	0x3ec90eca	0.39269096
76	0x3f25f54e	0.6482743
77	0x3ef084c1	0.46976283
78	0x3f6ec1bc	0.93264365
79	0x3f021048	0.50806093
80	0x3e6eb2ba	0.23310366
81	0x3f438c6a	0.7638613
82	0x3f0a7883	0.54090136
83	0x3f7a3d64	0.97749925
84	0xbebe8e07	-0.37217733
85	0x3f3d2ebd	0.7389944
86	0x3f8a3585	1.0797583
87	0x3f28384e	0.65710914
88	0xbe44d438	-0.1922158
89	0x3f253883	0.64539355
90	0x3ecf542d	0.4049391
91	0x3f315c73	0.6928169
92	0x3d5c3452	0.053760834
93	0x3f815382	1.010361
94	0xbddc96f3	-0.10770979
95	0x3f4a8d32	0.79121697
96	0xbd8be191	-0.06830133
97	0x3f6a5b67	0.9154572
98	0x3f5c7052	0.8610889
99	0x3e961b2b	0.29317603
100	0x3edfba67	0.436969
101	0x3f46dc57	0.7767996
102	0x3f781d71	0.96919924
103	0x3f7a5ad6	0.97794855
104	0x3d34f440	0.044178247
105	0x3f3cdaa7	0.73771137
106	0xbe441211	-0.19147517
107	0x3f537db4	0.8261368
108	0x3f4a01f9	0.7890926
109	0x3f59bcfc	0.8505399
110	0x3db4022a	0.08789475
111	0x3f61738b	0.8806693
112	0x3f601e67	0.8754639
113	0x3f0d82d8	0.55277777
114	0x3cf91cf9	0.030409323
115	0x3e982a42	0.2971974
116	0x3f0cb60d	0.5496529
117	0x3f47d140	0.78053665
118	0xbf2448af	-0.64173406
119	0x3f618924	0.88099885
120	0x3f75f474	0.9607613
121	0x3f23c9d8	0.63979864
122	0x3f107c10	0.56439304
123	0x3ef44649	0.47709873
124	0x3ef10bc6	0.47079295
125	0x3ee3069e	0.44340986
126	0x3f02ef6e	0.5114659
127	0x3f04cbf4	0.5187371

shared.2.weight f4 [128, 128]
0	0x3cb3cf8f	0.021949558
1	0x3d358cbe	0.044323675
2	0xbda6a2a8	-0.08136493
3	0xbc87ea09	-0.016591089
4	0x3c6c4d24	0.014422689
5	0xbd8d6232	-0.06903495
6	0x3bc4b5b7	0.0060031074
7	0xbd0f91f3	-0.035051297
8	0x3d60bfec	0.05487053
9	0xbd0c5ddc	-0.0342692
10	0xbdb10eab	-0.08645376
11	0x3db0ac7e	0.0862665
12	0xbc5783d7	-0.013153992
13	0x3d91979e	0.07108997
14	0x3a9e9c1e	0.001210097
15	0xbc349889	-0.011022695
16	0x3d86e8a8	0.065873444
17	0x3d46acc1	0.048504595
18	0x3c2c297b	0.010507937
19	0xbd34123d	-0.043962706
20	0xbad2aac5	-0.0016072622
21	0x3d90a454	0.07062593
22	0x3cc14792	0.023593698
23	0x3d5c934d	0.053851414
24	0xbd7ca460	-0.061680198
25	0x3d189e61	0.037260417
26	0xbda03359	-0.07822294
27	0x3c81d8e9	0.015850501
28	0x3d92b10b	0.071626745
29	0xbd9b7bf2	-0.07592
30	0x3d175fb5	0.036956508
31	0xbd3f95e6	-0.046773814
32	0x3d8f1d70	0.06988037
33	0x3d85d10b	0.065340124
34	0x3c963597	0.0183361
35	0xbcad6205	-0.021164903
36	0x3c7999b4	0.0152344
37	0x3d59d8dd	0.053185333
38	0xbdb60ac7	-0.08888774
39	0xbd284e20	-0.04109013
40	0xbd8d0dff	-0.06887435
41	0xbcb99a20	-0.0226565
42	0x3d3cccae	0.046093635
43	0xbd62210b	-0.055207293
44	0x3d9b579a	0.07585068
45	0xbdadb2d3	-0.08481374
46	0x3d2c0e2b	0.0420057
47	0x3d8bd533	0.06827774
48	0xbd6eda66	-0.05831375
49	0xbb267fbe	-0.002540573
50	0x3d8c93dd	0.0686414
51	0xbcf54bba	-0.029943336
52	0xbda7f546	-0.08201079
53	0xbd8c5540	-0.06852198
54	0xbcbc0ca6	-0.02295525
55	0x3d2dd90d	0.042443324
56	0x3bcdcb40	0.006280333
57	0xbd9afd2d	-0.07567821
58	0xbda3ef86	-0.0800467
59	0x3cf27969	0.029598908
60	0x3cb84ee4	0.022498555
61	0xbc1c4dcf	-0.009540035
62	0xbdbb5708	-0.09147459
63	0xbc489e10	-0.012244716
64	0x39cd3b6f	0.00039144928
65	0xbcd1bb19	-0.02560191
66	0xbd7f64e0	-0.06235206
67	0x3ccc8402	0.02496529
68	0xb9b43d41	-0.00034377913
69	0xbc0aff9c	-0.008483794
70	0xbd8c2443	-0.06842854
71	0x3c931cbb	0.017958036
72	0xbd9ebd9d	-0.077510096
73	0xbc926a2a	-0.017872889
74	0xbbcd5f7e	-0.006267487
75	0xbdb589c1	-0.08864165
76	0x3d2e6849	0.042579923
77	0xbd695228	-0.056963116
78	0xbc6026e6	-0.013681149
79	0xbd5e3c0d	-0.054256488
80	0xbd92d677	-0.07169812
81	0xbdae6899	-0.08516044
82	0x3d560bd8	0.05225739
83	0xbd77d04d	-0.060501385
84	0xbd45f738	-0.04833147
85	0xbd9028ab	-0.07039007
86	0x3d20aae9	0.039225493
87	0xbdbb6610	-0.09150326
88	0x3cbbf409	0.022943513
89	0x3d9ea701	0.07746697
90	0x3d81e4d4	0.063424736
91	0xbd84b560	-0.06479907
92	0xbd07d082	-0.033157833
93	0xbda89488	-0.08231455
94	0x3da408e1	0.08009506
95	0x3d37c941	0.044869665
96	0xbd7ca42e	-0.06168001
97	0x3c17249a	0.009225035
98	0xbd973762	-0.0738361
99	0x3ce67a5c	0.028134517
100	0xbd132729	-0.035926018
101	0xbd7e1fad	-0.062041927
102	0x3d7142cf	0.058901604
103	0x3d95b9eb	0.07310852
104	0x3d295beb	0.041347425
105	0x3c59b82b	0.013288538
106	0xbd10ae83	-0.035322677
107	0xbd20bb9c	-0.03924142
108	0xbcb12abb	-0.02162682
109	0x3d87227b	0.065983735
110	0x3d2f84f5	0.042851407
111	0xbd99d5ee	-0.07511507
112	0x3c7fe542	0.015618624
113	0x3d9049fc	0.070453614
114	0x3d68304b	0.05668668
115	0x3d3a8ab2	0.045542426
116	0x3d5fb01e	0.054611318
117	0xbd6cb8f7	-0.057793584
118	0xbcc0f748	-0.023555413
119	0xbd531ebb	-0.05154298
120	0xbd9704a2	-0.073739305
121	0x3d96712d	0.07345805
122	0x3d2b1895	0.04177149
123	0x3ac66415	0.0015136028
124	0xbdbe0e75	-0.09280101
125	0xbcfd99f8	-0.030957207
126	0x3cce50b2	0.025184963
127	0xbd5f635c	-0.054538116
128	0x3dee9565	0.116495885
129	0xbd2bd8a0	-0.041954637
130	0x3f130545	0.57429916
131	0x3e9c3bbc	0.30514324
132	0x3dc2a46b	0.095040165
133	0xbe9e66e4	-0.30937874
134	0xbe951028	-0.2911389
135	0x3e0e3dc2	0.13890746
136	0xbec63568	-0.3871262
137	0x3df89bf7	0.12139123
138	0xbec733a7	-0.38906595
139	0x3da56410	0.08075726
140	0x3e1fbd16	0.15599474
141	0xbf144057	-0.57910675
142	0x3d9476db	0.072492324
143	0x3e369373	0.17829685
144	0x3e8802bf	0.26564595
145	0x3e3cb6d3	0.18429117
146	0xbead3bb2	-0.33834606
147	0x3f12e297	0.57377
148	0x3ed3e49d	0.41385356
149	0x3ecfb34f	0.4056649
150	0x3e203fd4	0.15649348
151	0xbf0ac078	-0.54199934
152	0x3e77accf	0.24187015
153	0x3e12b0d1	0.14325263
154	0xbeadc5ba	-0.33939916
155	0x3dd57580	0.10422802
156	0xbee83e64	-0.453601
157	0xbcccfe1d	-0.025023514
158	0x3e5331af	0.20624422
159	0x3e63bfa9	0.22241081
160	0x3e7ddb97	0.24790798
161	0x3ee1c7eb	0.44097838
162	0x3e52533f	0.20539568
163	0x3f03ff18	0.5156112
164	0x3dce7ebf	0.10082769
165	0x3dacbecc	0.08434829
166	0x3e26a684	0.16274458
167	0x3e83a515	0.25711885
168	0x3d9aad60	0.075526
169	0xbe927bcf	-0.28610083
170	0xbf3c10a6	-0.73462903
171	0x3e3ef07e	0.18646428
172	0x3d5dc492	0.054142542
173	0x3f110ff3	0.5666496
174	0x3dca8fd5	0.09890715
175	0x3e5ac5e2	0.21364549
176	0x3e0b5bce	0.1360924
177	0xbcdeaccf	-0.027182011
178	0x3ef6c97c	0.48200595
179	0x3d8ceb35	0.068808
180	0xbe9a3791	-0.3012052
181	0x3ef1f3c6	0.47256297
182	0x3e1fbf5b	0.1560034
183	0x3e2d4f81	0.1692486
184	0x3eb9a0b3	0.36255416
185	0xbec38a0e	-0.38191265
186	0x3d987475	0.074440874
187	0x3e72fd49	0.23729433
188	0x3e5da1c0	0.21643734
189	0x3ed8a2ff	0.42311856
190	0x3e9ea717	0.30986854
191	0x3f01e463	0.50739115
192	0x3f01f02f	0.50757116
193	0x3e284220	0.16431475
194	0x3e6a4af3	0.22880153
195	0x3e2c73c5	0.16841038
196	0x3e195dc3	0.14977174
197	0x3ead2eee	0.33824867
198	0x3e93acd8	0.28842807
199	0x3e95b905	0.2924272
200	0x3e332d66	0.17497787
201	0x3ed1dc7a	0.40988523
202	0x3e948163	0.29004964
203	0x3d26371c	0.0405799
204	0x3e4cf00c	0.20013446
205	0x3e3b7fda	0.1831049
206	0x3ec761e7	0.3894188
207	0x3e389e85	0.1802922
208	0x3d193b54	0.037410095
209	0x3e96b2c8	0.29433274
210	0x3dde6b18	0.1086027
211	0x3e463696	0.1935676
212	0xbec93143	-0.39295396
213	0x3ec2515b	0.37952694
214	0x3f1f904f	0.6232957
215	0x3e5394e9	0.20662273
216	0x3c90b951	0.01766649
217	0x3e577a81	0.21042825
218	0xbd82d256	-0.06387775
219	0x3e39f1bb	0.18158619
220	0xbc777f13	-0.01510598
221	0x3f2965df	0.6617107
222	0xbf0898a7	-0.5335793
223	0x3e8806e6	0.26567763
224	0xbcfba783	-0.030719524
225	0x3da7d42c	0.081947654
226	0x3e65425a	0.22388592
227	0x3de71b80	0.11284542
228	0x3de9b451	0.11411346
229	0x3e80435f	0.250514
230	0x3e088aa9	0.13334145
231	0x3e9d285d	0.30694857
232	0xbe3bf145	-0.18353756
233	0x3ea914b2	0.33023602
234	0xbec96b4d	-0.39339676
235	0x3e59e73a	0.21279612
236	0x3e8557ff	0.26043698
237	0x3ef109ec	0.47077882
238	0xbea11b0c	-0.31465948
239	0x3eb94904	0.3618852
240	0x3e69819b	0.22803347
241	0x3e249df5	0.16075881
242	0xbec095a0	-0.37614155
243	0x3e28bf30	0.16479182
244	0x3e22104d	0.15826531
245	0x3ea949c5	0.33064094
246	0xbe554074	-0.20825368
247	0x3e4ab1b1	0.19794346
248	0x3e911f3d	0.28344145
249	0x3dbf1444	0.09330037
250	0x3e3543eb	0.1770169
251	0x3e3abe26	0.18236598
252	0x3e5905a3	0.21193556
253	0x3e17c324	0.14820534
254	0x3e5ab77e	0.21359059
255	0x3e314ae3	0.17313723

shared.2.bias f4 [128]
0	0xbc49cc4e	-0.012316776
1	0x3f15747d	0.5838087
2	0x3f2c6589	0.6734243
3	0x3f03177b	0.51207703
4	0x3f0a7f90	0.54100895
5	0x3f188e2e	0.5959195
6	0x3f20cf85	0.6281665
7	0x3d21967f	0.039450165
8	0xbc6d031c	-0.014466073
9	0x3acf186d	0.0015800126
10	0x3d834dbc	0.06411311
11	0xbd7055dd	-0.058675636
12	0xbdac4025	-0.08410672
13	0x3f0d7a52	0.5526477
14	0x3f112a7e	0.5670546
15	0x3f246c99	0.64228207
16	0x3d532117	0.05154523
17	0xbd8d8abc	-0.06911227
18	0xbd850e77	-0.064968996
19	0x3f29ff5d	0.6640528
20	0x3f1c2f97	0.61010116
21	0x3f0e0a89	0.55484825
22	0xbdaaab1e	-0.08333419
23	0xbd2b6277	-0.04184195
24	0x3d994f12	0.074857846
25	0x3f0ef07a	0.5583569
26	0xbda89494	-0.08231464
27	0x3c1138a2	0.0088636
28	0x3d72ca77	0.059275117
29	0xbec0f787	-0.37688848
30	0x3f2380e0	0.6386852
31	0xbc4141f8	-0.011795513
32	0x3d91ac0b	0.07112893
33	0x3f03d027	0.5148949
34	0x3bcadb01	0.006190658
35	0x3f1d9c58	0.61566687
36	0x3f086274	0.5327523
37	0x3f1c432b	0.6103999
38	0x3f20f3bc	0.6287191
39	0x3f1f8dae	0.6232556
40	0x3f15a3e6	0.58453214
41	0xbd51393c	-0.051079974
42	0xbeff1c94	-0.4982649
43	0x3d84b3a0	0.06479573
44	0x3c25b7fa	0.010114664
45	0x3d7b4cbc	0.061352476
46	0xbeb944b0	-0.36185217
47	0x3f0864bb	0.532787
48	0x3f0970d5	0.53687793
49	0x3f149b4d	0.5804947
50	0xbee6454f	-0.44974753
51	0x3f1a20ed	0.6020649
52	0x3f16867b	0.5879895
53	0xbd1123cf	-0.03543454
54	0xbed002de	-0.40627187
55	0x3f1101e3	0.56643504
56	0x3a4b368b	0.0007751963
57	0x3f04f397	0.5193419
58	0xbea5cd2a	-0.3238309
59	0x3f28e32b	0.6597163
60	0x3d875437	0.066078596
61	0x3f16a7f7	0.58850044
62	0x3d8ae73c	0.06782386
63	0x3f05cf39	0.5226932
64	0x3d3be878	0.045875996
65	0x3f1c5f5b	0.61083
66	0x3f10c134	0.56544805
67	0x3d116482	0.035496242
68	0x3f29d485	0.66339904
69	0x3f2c077b	0.67198914
70	0xba7cf02f	-0.0009648827
71	0xbd70fbb4	-0.058833793
72	0xbdbfb4e7	-0.09360676
73	0x3f2aa463	0.66657084
74	0xbeb614a0	-0.3556261
75	0x3ef93bbf	0.48678395
76	0xbc0ee32d	-0.008721155
77	0x3d0159d1	0.031579796
78	0xbd5b23a9	-0.053500805
79	0xbc5deb1d	-0.013544825
80	0x3f0f2a17	0.559236
81	0x3f29e8e6	0.66371
82	0xbd75651d	-0.059910882
83	0xbce66624	-0.028124876
84	0x3c0bb467	0.008526898
85	0x3d3d180d	0.046165515
86	0x3f29f5c3	0.6639063
87	0xbe8fe3fa	-0.2810362
88	0x3f2845ed	0.657317
89	0x3f18d5b8	0.5970111
90	0xbe9d17ad	-0.30682126
91	0x3f2dfc0e	0.6796273
92	0x3f1fba05	0.6239322
93	0xbc0690bd	-0.008213219
94	0x3f1a7f04	0.6035006
95	0x3d240a4a	0.040048875
96	0xbd8d5cae	-0.06902443
97	0x3d1a2ec2	0.037642248
98	0x3f09a262	0.537634
99	0x3f1cb08a	0.6120688
100	0xbed523a2	-0.41628748
101	0x3f0a9816	0.54138315
102	0x3f1a6046	0.6030315
103	0x3f16aa8e	0.58853996
104	0x3f242235	0.64114696
105	0x3d420d53	0.04737599
106	0xbca90fde	-0.020637449
107	0xbec9ca16	-0.39411992
108	0x3f217238	0.6306491
109	0xbe9ac9b9	-0.30232027
110	0xbe8de58b	-0.2771419
111	0x3f124786	0.57140386
112	0xbf015776	-0.5052408
113	0x3d41c421	0.047306184
114	0x3f2a329b	0.6648347
115	0x3f134f45	0.5754283
116	0xbd8036d0	-0.06260455
117	0x3d85e4b1	0.0653776
118	0x3f09fa4d	0.53897554
119	0xbda86220	-0.08221841
120	0x3f0778c8	0.5291867
121	0x3f1497b7	0.58044
122	0x3d10c6d7	0.03534588
123	0x3c613758	0.013746105
124	0x3d3fa258	0.046785682
125	0x3f0647fd	0.52453595
126	0x3f0e5ae2	0.55607426
127	0x3f2481cf	0.6426057

actor.weight f4 [4, 128]
0	0xbd85b9ea	-0.06529601
1	0xbb961a38	-0.0045807622
2	0xbd4a5dac	-0.04940574
3	0xbbb2f666	-0.005461502
4	0x3dc7a8b1	0.09748972
5	0x3dadd731	0.0848831
6	0xbd8c2411	-0.068428166
7	0x3d2b9f35	0.04189988
8	0x3cd2cc67	0.025732232
9	0xbc958d91	-0.01825598
10	0xbd120066	-0.03564491
11	0x3bdb680e	0.006695754
12	0x3d995d25	0.07488469
13	0xbd7fd4f2	-0.06245894
14	0xbd77fcca	-0.060543813
15	0x3d4878aa	0.0489432
16	0xbcf98b3e	-0.030461904
17	0xbd96ed2d	-0.073694564
18	0x3b7211ef	0.0036936959
19	0xbda8c53d	-0.08240745
20	0xbd74f4c4	-0.05980374
21	0x3d559972	0.05214829
22	0xbc541a10	-0.012945667
23	0x3cf103f9	0.02942084
24	0x3ced44ca	0.028963465
25	0x3d6f2aa4	0.058390275
26	0x3c86e3c8	0.016466036
27	0xbc21418f	-0.009842291
28	0xbbca7e20	-0.006179586
29	0xbd5ef42f	-0.05443209
30	0x3d1ab2e6	0.037768267
31	0xbc7acab8	-0.015307121
32	0x3c7b32c4	0.015331928
33	0xbcb90333	-0.022584533
34	0xbd8ae76f	-0.06782424
35	0x3d90743c	0.0705342
36	0x3c826b95	0.01592044
37	0xbc35f5ca	-0.011105964
38	0x3db814d2	0.08988346
39	0x3db29d8a	0.087214544
40	0x3d3ee4f2	0.046605058
41	0xbd8a2241	-0.06744815
42	0x3d83fcee	0.06444727
43	0x3d4ab801	0.049491886
44	0xbd985b14	-0.07439247
45	0x3ccdbc93	0.025114333
46	0xbd819cd8	-0.06328744
47	0x3d85cca0	0.0653317
48	0xbcaa181d	-0.020763451
49	0xbd3c6c1f	-0.04600155
50	0x3d838fbb	0.06423899
51	0xbc0b2c3f	-0.008494436
52	0xbd976b03	-0.07393458
53	0xbcc14056	-0.023590248
54	0x3d847b17	0.0646879
55	0xbcb4a386	-0.02205063
56	0x3d6adf6a	0.05734197
57	0xbd5726aa	-0.052527107
58	0xbdd7d61a	-0.105388835
59	0x3d5ddb53	0.054164242
60	0xbd7aeabb	-0.061259013
61	0xbda5cb7e	-0.08095454
62	0xbbe48b6c	-0.006974628
63	0xbd87fb88	-0.06639773
64	0x3cad5339	0.021157848
65	0x3c5a9434	0.013340998
66	0xbd69578f	-0.056968268
67	0xbd3b99b0	-0.045800865
68	0xbbf9812d	-0.007614276
69	0x3d30b511	0.04314143
70	0xbd35c91d	-0.04438125
71	0x3dafb528	0.08579475
72	0x3d105854	0.035240486
73	0x3d37f8bd	0.04491495
74	0xbddea151	-0.108706124
75	0x3d6d34d4	0.05791171
76	0xbd222dc1	-0.039594416
77	0xbc9524bf	-0.018205998
78	0xbd89f8be	-0.06736897
79	0xbc76d8dd	-0.015066353
80	0x3cb1eaf2	0.021718476
81	0xbc1f216a	-0.009712556
82	0x3be368a0	0.0069399625
83	0x3c55677e	0.013025163
84	0x3d812103	0.063051246
85	0xbc5221ca	-0.012825439
86	0xbda453d5	-0.08023802
87	0xbd864618	-0.06556338
88	0x3d191536	0.037373744
89	0xbd9c0f09	-0.07620055
90	0xbe07d217	-0.13263737
91	0xbd921dfb	-0.071346246
92	0x3db8ce4d	0.09023724
93	0xbcc75593	-0.024332797
94	0xbcbeede9	-0.023306804
95	0x3d2b1183	0.041764747
96	0xbd4ab3e4	-0.049487963
97	0x3d33f668	0.043936163
98	0x3db01b40	0.085989475
99	0xbda607ed	-0.081069805
100	0xbd10c594	-0.035344675
101	0xbd377a52	-0.044794388
102	0xbd96ff6a	-0.07372935
103	0x3c73bf80	0.0148772
104	0xbd89d04d	-0.06729183
105	0xbdb85ab6	-0.09001677
106	0xbd0f4dcc	-0.034986302
107	0xbccf60fa	-0.025314797
108	0xba8b5493	-0.0010630063
109	0xbd02028c	-0.03174071
110	0xbd7da7dd	-0.061927665
111	0x3c0dae00	0.008647442
112	0xbc8eec5c	-0.01744669
113	0x3dbac6f0	0.091199756
114	0x3daebb7b	0.08531853
115	0x3d6130e9	0.054978285
116	0xbc6cb7ce	-0.014448119
117	0xbd45baa0	-0.048273683
118	0x3d3f5f05	0.046721477
119	0xbd6d6828	-0.05796066
120	0x3c8b4dc2	0.017004851
121	0x3d3710f6	0.04469391
122	0x3d94784a	0.07249506
123	0xbd6b04df	-0.057377692
124	0x3b61c127	0.0034447403
125	0xbcc5b180	-0.02413249
126	0x3daf8506	0.08570294
127	0x3db379b9	0.08763451
128	0x3c7d2a62	0.015451999
129	0x3c5437c0	0.012952745
130	0xbc361a41	-0.011114658
131	0x3ce4011d	0.027832562
132	0xbdae7b46	-0.08519606
133	0xbd851485	-0.064980544
134	0x3cdf41ed	0.027253116
135	0xbd83edf3	-0.064418696
136	0xbd998236	-0.07495539
137	0xbd6e6bdf	-0.058208343
138	0xbccd9a13	-0.025097882
139	0xbca2dadf	-0.019879756
140	0x3d1b2eac	0.037886307
141	0x3d9adeb8	0.075620115
142	0xbc9f993b	-0.019482246
143	0x3d635545	0.05550124
144	0x3cc4b3f1	0.024011584
145	0x3ba6b6cf	0.0050877105
146	0x3d9cac4e	0.07650052
147	0xbda4dbfc	-0.08049771
148	0xbd11f777	-0.03563639
149	0x3b15da1b	0.0022865597
150	0xbd946192	-0.072451726
151	0xbd15b36f	-0.036548074
152	0xbd82e0fe	-0.0639057
153	0x3d3810f0	0.044938028
154	0x3af799e2	0.0018890465
155	0x3cfdfac4	0.031003363
156	0xbd7f92e1	-0.062395934
157	0x3d914d3f	0.07094812
158	0xbd979e57	-0.07403248
159	0xbd9e8446	-0.07740073
160	0xbcf9cb5b	-0.030492475
161	0xbd01f837	-0.031730857
162	0xbd6f6698	-0.05844745
163	0x3cec0154	0.028809227
164	0x3d7d63cd	0.061862756
165	0xbcd7d139	-0.026344882
166	0xbcc915d3	-0.02454654
167	0x3dacec77	0.084435396
168	0x3dbc1350	0.09183371
169	0x3d54ae9a	0.051924326
170	0xbdeff14a	-0.11715944
171	0xbc037d59	-0.008025491
172	0x3d70822a	0.058717884
173	0x3d4b7348	0.049670488
174	0x3d1d6913	0.038430285
175	0x3d0c77f0	0.03429407
176	0x3d1a5357	0.037677135
177	0xbd8adcf8	-0.06780428
178	0x3c56bae5	0.013106083
179	0x3c828237	0.015931232
180	0x3da16505	0.07880596
181	0x3d928e6c	0.07156071
182	0x3d3bf468	0.04588738
183	0x3d6b0592	0.05737836
184	0x3ce82a8e	0.028340604
185	0x3dad693d	0.08467338
186	0xbcda161b	-0.026621869
187	0x3d1a417e	0.037660114
188	0xbd820395	-0.063483395
189	0x3c994730	0.018710703
190	0x3d94090c	0.07228288
191	0xba82bc09	-0.0009974252
192	0x3dab78f8	0.08372682
193	0x3d58d4f3	0.05293746
194	0x3cf5c35c	0.030000381
195	0xbabb3cee	-0.0014285126
196	0xbcec441f	-0.028841076
197	0xbd990f5e	-0.07473634
198	0xbe4b9767	-0.19881974
199	0x3d480268	0.04883042
200	0x3d836002	0.064147964
201	0xbd30889d	-0.043099035
202	0xbd9405dd	-0.07227681
203	0x3da2a9e9	0.07942564
204	0x3d56de28	0.05245796
205	0xbd0be0c8	-0.034149915
206	0xbd32e42c	-0.043674633
207	0x3b081ec7	0.0020770298
208	0x3c0ce059	0.0085984105
209	0xbda5a941	-0.08088923
210	0x3b210900	0.0024572015
211	0xbd6e7ed9	-0.05822644
212	0x3d0b4c8d	0.03400855
213	0x3d83db21	0.0643828
214	0xbd7a61aa	-0.061128296
215	0x3dca607d	0.09881685
216	0xbb098879	-0.0020985885
217	0xbcab1b82	-0.02088714
218	0x3c8d1a5e	0.017224487
219	0xbd352ef5	-0.044234235
220	0xbd81ecbf	-0.06343984
221	0xbcbfdd20	-0.02342087
222	0xbd230b01	-0.039805416
223	0x3bfb5fc8	0.00767133
224	0x3d61e8e0	0.055153728
225	0x3cb187cb	0.021671196
226	0x3d748691	0.059698645
227	0xbd58c602	-0.05292321
228	0x3da71be4	0.081596166
229	0xbdadcb8e	-0.084860906
230	0x3d734c7d	0.059399117
231	0x3d3d7e19	0.046262834
232	0x3d5d94c8	0.054096967
233	0xbd273f53	-0.040831875
234	0xbdb0e6e7	-0.08637791
235	0x3d07ebef	0.03318399
236	0xbc6e996c	-0.014562946
237	0x3d1867e9	0.03720847
238	0x3d774a5b	0.060373645
239	0x3d6ceedd	0.057844985
240	0xbdb6e8d6	-0.08931129
241	0xbac059ee	-0.0014675239
242	0xbd8d2124	-0.06891087
243	0xbcbd2016	-0.023086589
244	0xbd58f0eb	-0.052964132
245	0x3d0c6056	0.03427156
246	0xbda82ef7	-0.08212083
247	0xbda0c0cd	-0.07849274
248	0x3d629fd9	0.055328224
249	0xbd0e8bf4	-0.03480144
250	0x3ce3e43b	0.02781879
251	0x3dab726f	0.08371436
252	0xbb9e3e36	-0.0048291935
253	0x3ce7b47e	0.028284308
254	0x3da75618	0.08170718
255	0x3cdfe970	0.027332991

actor.bias f4 [4]
0	0xbda7b4b0	-0.0818876
1	0x3b3e98f0	0.0029082857
2	0xbd04b85c	-0.03240238
3	0x3d363109	0.044480357

critic.weight f4 [1, 128]
0	0x3d5379d4	0.051629856
1	0xbe875d83	-0.2643853
2	0xbe8f558f	-0.27994964
3	0xbe9d3a66	-0.30708617
4	0xbe837450	-0.25674677
5	0xbeae4f09	-0.34044674
6	0xbebca337	-0.36843273
7	0x3c9a3664	0.018824764
8	0x3d9f2b2b	0.077719055
9	0x3cb46b90	0.022023946
10	0x3d81da02	0.0634041
11	0x3cee9130	0.029121965
12	0x3cff01bd	0.031128759
13	0xbea17445	-0.3153402
14	0xbe9efed1	-0.31053784
15	0xbeb23f23	-0.34813794
16	0x3d26be44	0.040708795
17	0x3c0efd92	0.008727448
18	0x3d3a98af	0.045555767
19	0xbec42af9	-0.38314036
20	0xbea7dd6f	-0.32786128
21	0xbeb55f65	-0.35424343
22	0x3da8dda5	0.082454
23	0x3d37d17c	0.044877514
24	0x3c6b4e0e	0.014361871
25	0xbe98cd7b	-0.2984427
26	0x3d941553	0.0723063
27	0x3d56d344	0.052447572
28	0x3d0aec74	0.033916906
29	0x3f4998f1	0.78748995
30	0xbebbfebd	-0.36717787
31	0xbd17c858	-0.037056297
32	0x3ca0742e	0.019586649
33	0xbeb72df1	-0.35777238
34	0x3d9cfa98	0.076649845
35	0xbeb8a8e3	-0.3606635
36	0xbeb41efc	-0.3517989
37	0xbe8b35c2	-0.2718945
38	0xbe9e53c5	-0.30923286
39	0xbea91632	-0.33024746
40	0xbeb417fe	-0.35174555
41	0x3d09c276	0.033632718
42	0x3f013af6	0.5048059
43	0x3d201c07	0.03908923
44	0x3d0dfee3	0.034666907
45	0x3cde8a58	0.027165577
46	0x3f457300	0.771286
47	0xbe960f79	-0.2930868
48	0xbea8753a	-0.32901937
49	0xbe8895a1	-0.26676658
50	0x3f1d548a	0.6145712
51	0xbe8671cd	-0.26258698
52	0xbe964f0c	-0.29357183
53	0x3d56d37f	0.052447792
54	0x3f0e6db2	0.5563613
55	0xbe8d0b45	-0.2754766
56	0x3caf3434	0.021387197
57	0xbe95e4ac	-0.29276025
58	0x3f33a18f	0.70168394
59	0xbea0ad05	-0.31382003
60	0x3d0e48d6	0.03473743
61	0xbeaa923c	-0.33314693
62	0x3d6c5bdf	0.057704803
63	0xbea649cb	-0.32478175
64	0x3cfc42b4	0.030793525
65	0xbe984f02	-0.29747778
66	0xbeb2cde9	-0.34922722
67	0x3d8e9a1d	0.069629885
68	0xbe9dc86c	-0.30816972
69	0xbe990c43	-0.29892167
70	0x3ebf63b6	0.3738076
71	0x3b9c4d7b	0.0047699786
72	0x3d938261	0.07202602
73	0xbea230d7	-0.31677887
74	0x3f3b1d01	0.7309113
75	0xbeb64e4b	-0.35606608
76	0x3d7df742	0.06200338
77	0x3b39e243	0.0028363622
78	0x3d8b98e5	0.06816272
79	0x3d1a42cd	0.037661362
80	0xbe855315	-0.2603995
81	0xbea75e4e	-0.32689136
82	0x3da38342	0.0798402
83	0x3c8d7e9d	0.017272288
84	0x3d241b61	0.040065173
85	0x3cfa5e3a	0.030562509
86	0xbe891a99	-0.26778105
87	0x3f3cd6a2	0.73765004
88	0xbe8b5974	-0.27216685
89	0xbea01660	-0.3126707
90	0x3f30f080	0.69116974
91	0xbe8ba455	-0.27273813
92	0xbeb3c731	-0.35112908
93	0x3d82032f	0.063482635
94	0xbe90354d	-0.28165665
95	0x3d5ec41f	0.054386254
96	0x3d1282a9	0.03576914
97	0x3d5716f8	0.05251214
98	0xbeb05b07	-0.34444448
99	0xbe963a77	-0.2934148
100	0x3f124a18	0.5714431
101	0xbe985b45	-0.29757133
102	0xbe99cf8b	-0.30041155
103	0xbeab5266	-0.33461303
104	0xbea40134	-0.32032168
105	0x3cb7df33	0.022445297
106	0x3d972958	0.073809326
107	0x3f420bbb	0.7579915
108	0xbeae2d8c	-0.34019125
109	0x3f3f0529	0.7461725
110	0x3f3ece82	0.74533856
111	0xbeac8bd0	-0.33700418
112	0x3f0e04d5	0.55476123
113	0x3d2b2e63	0.041792285
114	0xbe963f80	-0.29345322
115	0xbeb6b530	-0.3568511
116	0x3b9ed4e5	0.0048471563
117	0x3d8d0e67	0.06887513
118	0xbea38536	-0.3193757
119	0x3c930530	0.01794681
120	0xbe8b808f	-0.2724652
121	0xbeb82331	-0.3596435
122	0x3c14ac03	0.009074214
123	0x3d886c01	0.06661225
124	0x3d5a3015	0.05326851
125	0xbeaa0faa	-0.33215076
126	0xbe8cefe2	-0.27526766
127	0xbebaa46e	-0.36453575
