ppo_lunar_lander_v3_checkpoint.pth (torch, 345970 bytes, 21 tensors)

shared.0.weight f4 [128, 8]
000000 de 25 83 3d 74 b7 8b 3e 7a 64 97 be 8a a4 9f 3c
       0.06403707 0.272884 -0.29568845 0.019487638
000010 4a 30 51 be f9 d8 a1 3c 9d 86 5c be 23 57 b9 be
       -0.20428577 0.019756781 -0.21535726 -0.36199293
000020 c1 02 3c 3e 68 66 ee 3e 56 bc 7a 3d 70 4e de 3c
       0.18360426 0.46562505 0.061214767 0.027137011
000030 ee cd 4f 3e 82 d9 29 3e 9f f2 d7 3e 4a b8 9f 3e
       0.202934 0.16586879 0.42177293 0.3119529
000040 9a 8b 0e be 4b 1f e7 3e a7 58 ad be 7b 55 88 3d
       -0.13920441 0.45141062 -0.338567 0.06656929
000050 42 32 0c be a7 40 59 3e 14 1e 31 be 32 32 87 be
       -0.13691047 0.21216069 -0.1729663 -0.26405483
000060 0f 31 59 be c0 ad 05 3e f8 61 ab 3d b8 6d bb bc
       -0.2121012 0.13054562 0.083682954 -0.022879466
000070 45 f3 f4 3d 8f 27 04 3c 02 5c c3 3e 6a 3c cf 3e
       0.119604625 0.008066072 0.38156134 0.4047578
000080 70 c1 ab bd 0f 5f ee 3e 61 09 ff 3d e6 f9 e9 3d
       -0.08386505 0.465569 0.12452961 0.114246175
000090 65 03 76 3c 1c d9 84 3d db 61 8e 3c 10 1d 57 be
       0.015015458 0.06486723 0.017380645 -0.2100718
0000a0 83 64 0d be d8 84 3c bd 75 c3 cc be a6 b3 f8 3e
       -0.13807873 -0.046025127 -0.39992872 0.4857456
0000b0 58 89 4b be b3 51 89 3e 30 52 63 3e c8 5e 34 3e
       -0.19876611 0.26820144 0.22199321 0.17614281
0000c0 37 63 c3 bd 5f 0f ac be 9b d5 17 be d1 df 1c 3e
       -0.09540408 -0.33605477 -0.14827578 0.15319754
0000d0 5b de e3 be 23 70 2f be a8 25 87 3d 83 2f 15 be
       -0.4450558 -0.1713262 0.06598979 -0.14568906
0000e0 81 1b 96 be d2 f7 06 3e 6c b3 69 be 71 22 b3 3e
       -0.2931786 0.13180473 -0.2282235 0.34987214
0000f0 f4 97 64 3e 83 93 ca 3e 9e b2 07 be cb b2 cb 3d
       0.2232359 0.39565668 -0.13251731 0.099462114
000100 d5 f7 6e bd 9a 57 ac 3e a1 b9 11 3c a1 d8 e7 3d
       -0.05834182 0.33660585 0.008894355 0.113206156
000110 8e d3 44 3e 9e ce 20 3e 73 fe 84 3e 3c d5 1f be
       0.19221327 0.15703818 0.2597538 -0.15608686
000120 a5 eb bf 3e 84 9e a4 3d 49 df ce 3d de 08 82 be
       0.3748447 0.08038047 0.10101182 -0.2539739
000130 d9 68 c1 bd e5 91 52 bd 26 da 15 3e 8a 88 08 bd
       -0.09443826 -0.051408667 0.14633998 -0.03333334
000140 3a 8f ff 3e 01 99 b7 bd 47 dd 55 bd 46 3e 8f be
       0.4991396 -0.0896473 -0.05221298 -0.27977198
000150 d9 11 b4 be a7 49 b2 be db 2c 82 be 29 cb bb 3e
       -0.35169867 -0.34821817 -0.25424847 0.36678436
000160 93 a8 09 3f 66 60 92 be 4d 4d 97 3e 01 7f cb 3e
       0.5377285 -0.2858917 0.29551163 0.39745334
000170 4e 6e 2a be e2 eb d4 be d8 3d 49 bd 9f 71 7c bd
       -0.1664364 -0.41586214 -0.049131244 -0.061631795
000180 4e 35 b8 be 1a f5 4c bd 16 1d e2 be 99 42 21 3d
       -0.35978168 -0.050038435 -0.44162816 0.039370153
000190 ba fe 7f 3e 3d a3 e7 3e 3c e8 a0 3e 56 f3 c5 3e
       0.24999514 0.45241728 0.3142718 0.38662213
0001a0 a9 00 e5 3d 78 d7 4d be f3 19 aa 3d 27 66 a1 3e
       0.111817665 -0.20101726 0.08305731 0.3152325
0001b0 64 72 e2 3d 51 bd 40 3e aa 15 85 be 59 3b 8a be
       0.110569745 0.18822218 -0.2599309 -0.26998404
0001c0 8b 24 ed be 31 35 b5 3e a4 76 26 be af de 46 3e
       -0.46316943 0.35392144 -0.16256195 0.19420885
0001d0 5b d5 5d be 8d bb 20 3e 43 88 5c be 7a ef ad 3d
       -0.2166342 0.15696545 -0.21536355 0.08492942
0001e0 6b 50 91 3e 18 5c d9 3e 7f 77 9e bd fe f5 1f be
       0.28381667 0.42453074 -0.07737636 -0.15621182
0001f0 cb 87 03 3e 9f 91 05 3e b7 1b d2 bd b8 af 59 be
       0.1284477 0.13043831 -0.102591924 -0.21258438
000200 f2 8e e4 be 10 b4 82 3e 05 88 fd be 47 7b 5b 3e
       -0.4464031 0.25528002 -0.49517837 0.21433745
000210 09 5e 03 3f a5 a4 cf 3e f8 3d c4 3e 26 8b bf 3d
       0.5131536 0.405553 0.38328528 0.09352712
000220 b8 06 80 be f4 2d 99 3e d5 9b 1d 3e 18 24 65 be
       -0.25005126 0.29917872 0.15391476 -0.2237705
000230 6d b1 d0 3c 64 98 60 3e dd 1b 11 3d f6 00 a6 3e
       0.025475228 0.21933132 0.035426963 0.32422608
000240 10 66 26 3e 40 b9 32 3e 53 66 85 3e bf 3e 1a be
       0.16249871 0.1745348 0.2605463 -0.15062998
000250 94 21 9f bc bc 64 c1 bd 19 f7 03 be d5 7e 86 3e
       -0.019425191 -0.09443042 -0.12887229 0.2626864
000260 13 16 10 bf e2 01 03 be fe 22 e7 be 9d ad 9d bc
       -0.5628368 -0.12793687 -0.45143884 -0.019247824
000270 7b 7b c9 3e 58 2b 0e 3f 7f a9 52 3e 57 21 f7 3e
       0.3935202 0.5553489 0.2057247 0.48267624
000280 f7 b0 b5 bd 9b 52 ed bc 64 08 0d 3f 9e a4 49 be
       -0.08871644 -0.028970053 0.5509093 -0.19691703
000290 0a 78 4b be 07 4d 5f 3d e2 b7 1d bd e6 0c 4d 3e
       -0.1987001 0.05451682 -0.038505442 0.20024452
0002a0 2e 38 7a 3e 68 21 3a bd 49 68 99 be cf 59 6c bc
       0.24435493 -0.045442015 -0.29962376 -0.014425709
0002b0 33 71 2d be 81 7f a3 3e 71 41 39 3e 1d e5 25 bd
       -0.16937713 0.31933215 0.1809137 -0.040501703
0002c0 53 fb 22 be 32 c4 69 be 4a f0 0c bf 69 28 9a bd
       -0.15916185 -0.22828749 -0.5505415 -0.07527239
0002d0 75 fb 0e 3f b9 e2 66 3e 57 0c 7b 3e 42 8a 0f be
       0.5585244 0.22547425 0.24516426 -0.14017585
0002e0 cd 57 d9 3e a6 b5 3d 3e 96 20 01 3f ad b6 c1 3e
       0.424498 0.18526325 0.5044035 0.37834683
0002f0 2d ff 16 bf 4c ad dc be ec 59 91 3d 93 06 b2 3e
       -0.5898312 -0.43100965 0.07097229 0.3477064
000300 a3 c3 53 be e8 d6 a3 3e ad 19 00 be 47 17 8a be
       -0.20680098 0.31999898 -0.12509795 -0.26970884
000310 cd ed c0 3d db 78 4a 3e 14 1f 45 be 46 6e 13 3e
       0.09420357 0.19772665 -0.19250137 0.14397535
000320 77 b9 8c 3d b6 de 05 3d 76 8f 0f 3f 88 b3 ea 3c
       0.06871312 0.032683097 0.5607828 0.02865006
000330 cb f5 66 be 99 41 b4 be 45 91 56 3d cf f4 00 3f
       -0.225547 -0.35206297 0.052384634 0.5037355
000340 e7 1a 19 bd ad 62 54 3e aa 7c 23 3e 06 42 14 3a
       -0.03737917 0.20740767 0.15965524 0.000565559
000350 25 59 5d be df 91 79 3d dd 21 f2 bd 69 21 7d be
       -0.21616037 0.06093013 -0.11822865 -0.24719776
000360 57 66 13 3f aa 7a 9f bd d2 77 09 3f c8 03 59 be
       0.57578033 -0.07787068 0.53698456 -0.21192849
000370 99 c6 17 bf 3c eb 84 be fb dd d9 3e db d6 a6 3e
       -0.5928741 -0.2596072 0.4255217 0.32585797
000380 e5 a3 6e 3e e6 bd 80 3e 75 a8 9b be c9 66 d6 bd
       0.23304708 0.2514488 -0.3040196 -0.104688235
000390 d6 35 ff bd cf 5c 06 bd 25 18 83 3e f4 a6 b8 3c
       -0.1246144 -0.032803353 0.25604358 0.022540547
0003a0 a7 be 55 be 37 00 e6 3e f0 d0 79 be 5f 91 4d be
       -0.2087351 0.4492204 -0.2439611 -0.20074986
0003b0 63 ff 24 3d 84 40 1b be ac 6c a9 be 3c d2 ea 3d
       0.04028262 -0.1516133 -0.33090723 0.1146588
0003c0 d7 68 51 3e fc 1e 7d be cb a5 e4 3e 5f 8b 9b 3e
       0.2045015 -0.24718851 0.4465774 0.3037977
0003d0 02 b7 87 be 8d 41 e7 3c b4 2d cb 3e b2 b8 83 3d
       -0.2650681 0.0282295 0.39683306 0.06431712
0003e0 35 a4 ce bd 83 e1 69 3d ec a5 fc be d5 e8 9d 3e
       -0.10089914 0.05709983 -0.49345338 0.308417
0003f0 07 84 06 3e 15 a4 a9 3e 9e 14 a6 3e 4d 4d d2 bc
       0.13136302 0.33132997 0.32437605 -0.025671626

shared.0.bias f4 [128]
000000 80 ae 4d 3e 74 53 11 3f c1 c9 8e 3e a8 10 c0 3e
       0.20086098 0.56767964 0.278883 0.37512708
000010 e0 6c f3 3e 27 19 03 3f c2 49 1d be 3e 64 61 3d
       0.47544003 0.51210254 -0.15360168 0.05502724
000020 31 2d fe 3e ba b7 77 3e a9 51 8d bd 1b 70 e8 3e
       0.49643853 0.2419118 -0.06900341 0.4539803
000030 ff a7 0e 3e 7d b3 a4 bc 95 cc d4 3b 00 53 28 3d
       0.13931273 -0.020105118 0.0064941146 0.04109478
000040 42 ae 10 be 2a 0a 3d 3e 23 40 07 3f 51 26 5b 3e
       -0.14128974 0.18460909 0.5283224 0.21401335
000050 2f a1 11 be 48 53 99 be 34 54 a3 3e 15 49 14 bc
       -0.14221643 -0.2994635 0.3190018 -0.009050627
000060 52 e3 05 3f 28 04 0a be 7c 38 09 3f 9e ab e8 bd
       0.5229999 -0.13478148 0.53601813 -0.113608584
000070 d9 cc 0a 3f 50 e8 c1 bd d7 38 ae 3e f3 28 00 3e
       0.5421882 -0.09468138 0.3402774 0.12515621
000080 24 19 fe 3d 55 40 e6 bd f1 91 01 3f 1b 02 ba 3e
       0.12407139 -0.11242739 0.50613314 0.3632973
000090 3e e4 1e be 04 10 9d be 89 6c c2 3e e2 c4 bd bd
       -0.15516755 -0.3067628 0.3797343 -0.09266068
0000a0 d7 e8 84 be a8 c6 b6 3e a7 07 d4 3b 3a 89 59 3e
       -0.25958893 0.35698438 0.006470639 0.21243754
0000b0 f0 e8 03 3f 35 30 b0 ba a8 58 2a 3e 23 b1 90 3d
       0.5152731 -0.0013442101 0.16635382 0.07065036
0000c0 4a d9 83 3e 67 e0 db 3e 68 7a 86 3c 3e 47 03 3f
       0.25751716 0.42944643 0.01641579 0.5128058
0000d0 c4 75 3c 3e 95 c1 ce bd 74 d2 2d be 85 6b 32 3e
       0.18404299 -0.100955166 -0.16974813 0.17423828
0000e0 21 f7 4d be b9 b0 27 3e 9f 06 ff 3e f3 fc c4 3d
       -0.20113803 0.16376008 0.4980974 0.09618559
0000f0 28 88 ec 3e cc d1 a3 3e ef ae 38 3d 12 6d 61 3e
       0.4619763 0.31996 0.045088705 0.22014263
000100 8d ef 9f bd 79 98 45 3e 43 3e 02 3f 22 d3 30 bd
       -0.078093626 0.19296445 0.50876254 -0.043170102
000110 6e 55 df 3e 68 38 40 be 81 10 f4 3e c8 f6 c6 3d
       0.43619865 -0.18771517 0.4766884 0.097150385
000120 97 96 30 3c 8f 69 dd 3e a1 88 d2 3e 54 dc 43 be
       0.010778091 0.43244597 0.41119865 -0.19127017
000130 0f 0c 00 3e 30 f0 ce 3e 24 6b ee 3e d5 d7 db 3e
       0.125046 0.40417624 0.46566117 0.42938104
000140 8f 19 03 3e b6 d0 fc bb 7e ee c8 3e 31 7e 5b 3e
       0.12802719 -0.00771531 0.39244455 0.21434857
000150 f7 51 b2 3e 3f 36 a7 3e ab d1 6b 3e 34 dc fb 3e
       0.3482816 0.32658574 0.230292 0.4919144
000160 2d a4 8c 3d 3b ba 04 3e 91 62 02 3f f2 07 fb bd
       0.068672515 0.12961666 0.5093165 -0.12257375
000170 65 5b 0a 3f e3 7b 67 3e 7d 0d fd bc f1 b7 d4 3e
       0.54045707 0.22605853 -0.03089022 0.41546586
000180 05 2e 5f 3e 82 92 0c bd ce 50 63 3e b9 f4 c6 3e
       0.21794899 -0.03431941 0.22198793 0.38858584
000190 b6 83 0f 3f b3 29 ab bd 3d 03 0a 3f 0d 3a b7 3e
       0.5606035 -0.08357563 0.5391119 0.35786477
0001a0 25 6a 1e be cc 11 fd 3d 25 43 e3 3d 00 ce 40 3e
       -0.15470178 0.1235691 0.11096791 0.18828583
0001b0 3a 8e 92 3e aa ec 56 3e bb 90 65 bd 05 7e 0e 3e
       0.28624135 0.20988718 -0.05604623 0.1391526
0001c0 96 29 b9 3e 52 af 38 bd eb bb d8 3e a5 93 c9 3e
       0.3616454 -0.045089073 0.4233087 0.39370456
0001d0 32 96 f0 3c 42 2b 02 be 05 e8 2d 3e c7 f9 11 3e
       0.029368494 -0.12711814 0.1698304 0.14255439
0001e0 8e 48 60 3d 11 03 05 3f e7 89 80 3d d1 77 d1 3e
       0.054756694 0.51957804 0.06276303 0.40911725
0001f0 e9 f1 0b 3f 71 ce c2 3e 83 26 b6 3e 23 50 ad 3e
       0.54666 0.38048127 0.35576257 0.33850202

shared.2.weight f4 [128, 128]
000000 98 2a 44 3e 74 2a 38 3d eb de a9 3d ba dd 3e 3e
       0.19156873 0.04496236 0.08294471 0.1863927
000010 e0 30 fa 3d 04 4c 35 3e 3b 79 b3 bd 72 a9 96 3e
       0.122163534 0.17704779 -0.08763357 0.29426152
000020 aa d4 bd 3d 5f b9 fb 3d 6e bf 78 3e a9 bd 84 3e
       0.09269078 0.12291216 0.24291775 0.2592595
000030 ce eb 20 3e a3 d0 e9 3d f4 e0 45 3e 1a 66 d3 3d
       0.15714952 0.114167474 0.19324094 0.10322209
000040 79 82 a0 3e f8 5d 02 3e 4e 67 51 3d be 2a 93 3e
       0.31349543 0.12731159 0.05112391 0.28743547
000050 31 9a 36 3e be f3 f7 bd 74 88 5a 3e 9b 9f 09 3e
       0.17832257 -0.12107037 0.21341115 0.13439791
000060 30 d5 e1 3c f0 f4 54 3e ae c2 0b 3e b4 5c 4f 3e
       0.027567476 0.20796561 0.13648483 0.20250207
000070 49 b3 01 3e 61 9b ff bc c4 e3 a8 3e e8 af b4 3e
       0.12666048 -0.03120202 0.3298627 0.35290456
000080 74 5e 9c 3d 4a c7 01 3e 27 43 a9 3d 49 21 16 3e
       0.07635203 0.12673679 0.082647614 0.14661135
000090 4e 1d b1 3c 94 06 8d be 16 5c 3e 3e 97 fa 32 3e
       0.021620419 -0.2754408 0.18589815 0.17478405
0000a0 13 e1 67 3e 34 9b 46 3e e7 8e 38 3e 2d 1b 1d 3e
       0.22644453 0.19395143 0.18023263 0.15342398
0000b0 d7 76 c1 3d 3f 37 82 3e c6 33 5b 3e 10 d2 ed 3d
       0.09446495 0.25432774 0.21406469 0.11612332
0000c0 32 ac d2 3d 84 da 75 3e 30 23 99 3d 33 c9 50 3e
       0.1028675 0.24009138 0.074774146 0.20389251
0000d0 36 a8 48 3e f6 bc 5e 3e bd 6b 41 3e 51 aa a2 3e
       0.19595417 0.2175177 0.18888755 0.31770566
0000e0 a5 fd 88 3e 2f a4 62 3e 6b fa 18 3e 0c 1a 44 3e
       0.26756015 0.22132944 0.14939277 0.19150561
0000f0 36 56 ab 3d fb c2 ab 3d eb 80 53 3e ef a9 04 3e
       0.08366053 0.08386799 0.20654647 0.1295545
000100 e4 3b 89 3e 4b bb 23 3e a6 75 32 3e 2a 94 6f 3e
       0.26803505 0.15989415 0.17427692 0.23396364
000110 ec 80 e6 3d c1 94 33 3e 64 dc 9f 3e e0 c4 3d 3e
       0.11255059 0.17537214 0.31222832 0.18532133
000120 3a ad 8d 3d fe ef b6 3c b5 5f cb 3d 38 8d 73 3e
       0.06917806 0.022331234 0.09930364 0.2378434
000130 47 e9 0a ba 8e af 5f 3d 85 ff 51 3e c4 8d 14 3e
       -0.0005299043 0.05461078 0.20507629 0.14507204
000140 b0 76 80 3e 50 b9 89 3e bb 25 4d 3e 98 4d 83 3e
       0.2509055 0.26899195 0.20033924 0.25645137
000150 81 9a ee 3d 9d eb 1e 3e 94 7f 39 3d e5 23 5e 3d
       0.11650563 0.15519567 0.045287684 0.05423345
000160 84 df 3e 3e ec 7b 66 3e 0e a2 49 3e 9d 67 66 3e
       0.18639952 0.2250821 0.19690725 0.22500463
000170 a0 be 53 3d 56 99 25 3e 22 ac 3c 3d b7 dd 09 3e
       0.051695466 0.16171774 0.046062596 0.13463484
000180 2f ec 60 3e a2 cd 87 3e 41 99 a9 3e cb f2 e0 3b
       0.21965097 0.26524073 0.33124736 0.0068648807
000190 03 58 7c 3e c0 48 38 3e 4d 02 0d 3e 12 f5 b1 3c
       0.24642949 0.17996502 0.13770409 0.021723304
0001a0 05 2a 50 3e 13 a4 bf 3d ce 91 52 3e 9d 3a 04 3d
       0.20328529 0.093574665 0.20563433 0.03228246
0001b0 72 ab 13 3e 3f 44 f9 3d 30 10 67 3e 10 81 9d bc
       0.1442087 0.1217122 0.22564769 -0.01922658
0001c0 87 2d 7d 3e 2c ab 73 3e 25 7e 05 3e c7 64 9e 3d
       0.24724399 0.23795766 0.13036402 0.077340655
0001d0 a6 22 93 3e 5c cc 8e 3e 22 60 ec 3d 9e 0e ba 3d
       0.28737372 0.2789029 0.115417734 0.09084819
0001e0 6a b7 0b be 7b e7 67 3e 00 18 b9 3c 51 7f 58 3e
       -0.13644186 0.22646897 0.022594452 0.21142317
0001f0 44 e1 4c 3e 88 86 3a 3e 51 5f e8 3c bf b9 09 3e
       0.20007807 0.18215382 0.028365763 0.13449763
000200 34 d6 8f bd 76 98 83 bd ec df fa bc 4b 5c 32 bd
       -0.07023278 -0.06425564 -0.030624352 -0.04354505
000210 2e e9 51 3d 94 b8 d7 3c 64 da b0 bc e0 d1 a6 bc
       0.051247768 0.02633313 -0.021588512 -0.020363748
000220 ba 40 91 bd d6 1b 8a bd 9a 85 2c 3d c0 d2 97 bb
       -0.07092424 -0.067435905 0.0421196 -0.0046332777
000230 1d 8e ae 3d 21 04 05 bd 90 4b c6 3b 2d a7 b1 3d
       0.085232 -0.03247464 0.006051488 0.086744644
000240 28 f8 70 bc 8a 63 68 3d 7f 86 15 bd 65 67 a5 bd
       -0.014707603 0.056735553 -0.03650522 -0.080763616
000250 3e c8 19 3d 58 05 91 bd 00 61 eb bb 1d fb ab bd
       0.03754448 -0.07081097 -0.007183194 -0.083975054
000260 09 1f 8e bd b2 f0 0b 3d 9e 9d d7 bc 10 a5 8b 3c
       -0.06939513 0.03416509 -0.026320275 0.017046481
000270 e6 33 52 bd 7e 06 8c bd da 5f 61 3d f4 b2 91 bd
       -0.051319025 -0.06837176 0.05502305 -0.07114211
000280 00 aa e8 39 58 e5 3e bc 94 02 58 bd d6 12 3f 3d
       0.00044377148 -0.0116513595 -0.052736834 0.046648823
000290 ad 31 b4 3d ea b5 80 bd 7e 0a 5f 3d c8 e4 0f bc
       0.087985374 -0.06284697 0.054453366 -0.008782573
0002a0 67 01 48 bd 5a 9e 79 3d da 64 9f bd 76 97 85 bd
       -0.048829462 0.06094203 -0.07782908 -0.065230295
0002b0 28 f1 cf bc d0 3a f5 3c d0 9a 84 bd 02 a8 df bc
       -0.025383547 0.02993527 -0.06474841 -0.027301792
0002c0 88 13 0f 3d 62 0d 4a 3d 11 df 51 bd 00 c8 13 3b
       0.034930736 0.04932917 -0.051238123 0.002254963
0002d0 b3 18 8e bd e6 e7 3b 3d ae 95 24 3d d7 73 a2 3d
       -0.06938305 0.045875452 0.04018181 0.07932251
0002e0 59 50 84 bd bb 91 4c bd 67 1f 98 bd 4f 3f 99 3d
       -0.064606376 -0.049943667 -0.074278645 0.07482778
0002f0 90 8a 1e bc dd 6b 9e 3d 16 9e 78 3d 4d 4e 9a 3d
       -0.009676591 0.07735417 0.060697637 0.07534466
000300 b7 34 9d 3d 9c 9e f1 3c 41 8a 32 bd 98 be f2 3c
       0.0767607 0.029494576 -0.04358888 0.029631898
000310 e2 f4 73 3d 3d cb ac 3d 48 55 63 3c 5e 66 a9 bd
       0.05955971 0.08437202 0.013875313 -0.08271478
000320 30 51 9f bd eb c3 b1 3d 28 22 47 3c a1 81 b4 3d
       -0.07779157 0.086799465 0.01215414 0.08813787
000330 0b 6d 84 3d a2 79 28 3d 43 dd 56 bd 70 3a 2c bc
       0.06466111 0.041131623 -0.052457105 -0.010511979
000340 b8 5f 15 3c bb 47 1f bd 21 65 b3 3d ea 55 79 3d
       0.009117059 -0.038886767 0.08759523 0.06087295
000350 9c 3c ec bc 42 bf 0f 3d 94 46 98 3c 50 f1 54 bd
       -0.028837495 0.035094507 0.018588342 -0.051987946
000360 4b 26 0d bd 5a 33 55 3d f0 91 c5 bc 3c 0a 7c bd
       -0.034460347 0.052050926 -0.02411744 -0.061533198
000370 6b 74 b0 bd da 76 72 bd 4d bc 8a 3d e1 53 7f bd
       -0.08615955 -0.059195377 0.06774197 -0.062335853
000380 0c 48 91 bc 0c 0a a4 bd 2a 26 9e bd d4 05 91 bd
       -0.01773455 -0.08009729 -0.07722123 -0.0708119
000390 8a d5 7a 3d 7a 49 e7 bc 40 56 56 3c 40 78 a9 bb
       0.061238803 -0.028233279 0.013082087 -0.0051718056
0003a0 ba 2e 3c 3d 0e d7 03 3d c3 e9 7d bd f8 0c 55 bc
       0.045943 0.032187514 -0.06199051 -0.01300358
0003b0 cc ae e6 bc 84 70 a1 3c de 2b 5e bd b0 59 4e bc
       -0.028159522 0.019706972 -0.054241054 -0.012594625
0003c0 3a 34 38 3d 97 7b 04 bd c1 c4 84 bd d7 1e 89 3d
       0.044971682 -0.032344427 -0.0648284 0.06695335
0003d0 2f 67 ac bd 04 13 81 bd e0 db e9 3b 39 c8 00 bd
       -0.08418118 -0.06302455 0.007136807 -0.031440947
0003e0 62 64 8f bd d2 15 00 3d 85 19 ac 3d 84 6d aa bd
       -0.070015684 0.03127081 0.08403305 -0.0832167
0003f0 ef b6 26 bd 07 f7 0c bd 30 45 54 bd 08 bf 6b bc
       -0.040701803 -0.03441527 -0.051823795 -0.014388807

shared.2.bias f4 [128]
000000 f1 cb 5a 3e 7e 43 29 bd 59 c3 4e 3e 02 76 1c bd
       0.2136686 -0.04132413 0.20191707 -0.03819848
000010 32 ed c5 3d 13 06 11 bd ff f8 34 3e 5d d6 54 3d
       0.09664382 -0.035406183 0.1767311 0.051962245
000020 8d ce b4 bd f6 cb 07 3e 4a f3 1e 3e 9f 80 26 3e
       -0.08828459 0.13261399 0.15522495 0.16260003
000030 43 5e 40 3e 85 0c 61 3c 7f c5 80 3e fd 27 b3 bc
       0.18785958 0.013735895 0.25150678 -0.021869654
000040 f1 2c c7 bd 57 03 8b 3e 5c 44 40 3e 3d 90 83 3e
       -0.09725369 0.27150986 0.18776077 0.25695983
000050 e1 78 48 3e e6 10 a7 3d 0a da e0 b9 ef 9c 8b 3d
       0.19577362 0.0815752 -0.0004288706 0.06817042
000060 3b 4a 8e 3c 95 8d d5 3d 94 ae cd 3c e4 72 76 3d
       0.01736938 0.10427395 0.02510766 0.060168162
000070 89 fc 11 3e a5 59 27 bd bd c5 43 3c 69 55 6e 3d
       0.14256491 -0.040856976 0.011949 0.058186922
000080 19 51 c8 bd 55 b4 5d 3d cf 93 7f 3e 74 5d 49 3e
       -0.09781093 0.054127056 0.24958728 0.19664556
000090 3c 36 03 bd 1e 56 8d 3d 35 00 77 3d 88 c5 23 3d
       -0.032034144 0.06901191 0.06030293 0.039983302
0000a0 58 ea d9 bb e8 23 8b 3e c6 89 01 bd 42 be b7 bd
       -0.0066502504 0.27175832 -0.03162553 -0.08971836
0000b0 70 2a e9 3b e1 4d 6a 3e 28 c7 23 bd 32 cd 73 bb
       0.0071156546 0.22881271 -0.039984852 -0.0037201163
0000c0 50 de 57 3e 42 68 62 3e 0d 9a c4 3d 48 25 82 3e
       0.21080899 0.22110084 0.09599695 0.25419068
0000d0 b3 95 de 3d ba f6 16 3e ce 2f b6 3d 4d b0 70 3d
       0.108683966 0.14742556 0.08895837 0.058761884
0000e0 d1 46 89 3e 60 88 02 3e 5f ad 71 3d 30 01 f2 bc
       0.2681184 0.12747335 0.05900323 -0.029541582
0000f0 c9 cf 7a 3d 0e d1 6e be 11 95 0a 3d 93 e8 6d 3d
       0.061233316 -0.23321936 0.033833567 0.05808313
000100 d3 ab d9 bb 2e 79 14 3e e1 39 72 3e a8 cb 59 bd
       -0.0066427975 0.14499351 0.23654892 -0.053172737
000110 2b ba 05 3e 43 1a 83 3e 4d bb f0 3d bc 11 b4 bc
       0.13059299 0.25605974 0.11754475 -0.021981113
000120 56 df 64 bd a3 95 1f bd 03 0c f6 3d 4d 31 03 3e
       -0.055877052 -0.038961064 0.1201401 0.12811776
000130 6f 09 1b 3e d2 f6 6d 3e 64 a3 b1 bd 4b 60 12 3c
       0.15140317 0.23238686 -0.086737424 0.008934091
000140 2c 5f 9a 3d e9 d5 9b 3d ff cc 26 3e 9f ac 12 3e
       0.07537684 0.076091595 0.16289137 0.14323662
000150 c2 e5 52 be 5f 6b 86 3e a9 63 90 bd c7 29 c2 bd
       -0.20595458 0.26253793 -0.07050259 -0.09480625
000160 e4 ca 01 3d 5a 2d 0d 3e 78 68 27 3e 7e d9 a6 bd
       0.031687632 0.13786831 0.16348445 -0.08146952
000170 2a d0 b8 3d df 62 0e bb af 6d 1f bb 02 f8 77 3e
       0.09024079 -0.0021726412 -0.002432685 0.24215701
000180 e2 1f 80 3d 20 f0 ca 3c ae 64 8a 3e 25 8e 2b 3e
       0.06256081 0.024772704 0.27029938 0.16753443
000190 b6 c4 6a 3e ca 10 2d 3e f3 06 91 3d 94 92 2b bd
       0.22926602 0.16900936 0.070814036 -0.041887835
0001a0 be d8 19 3e 3e e9 ea bd 80 67 b3 bd c4 22 5e 3e
       0.15024087 -0.11470269 -0.087599754 0.2169295
0001b0 78 ac 17 bc d0 df 8b 3c f4 24 2a 3d 11 65 2d 3d
       -0.009257428 0.017074496 0.041539147 0.042332713
0001c0 93 a5 33 bd 6b 3b 38 bd e0 7b 30 3e 11 08 82 3a
       -0.043859076 -0.04497854 0.17234755 0.0009920617
0001d0 e5 a2 07 bd c6 eb b7 bd 1c b0 78 3d f1 97 11 3e
       -0.033114333 -0.08980517 0.060714826 0.14218117
0001e0 5b d1 d5 3d 30 45 80 3d 72 80 08 3e 5d fc cc 3d
       0.10440322 0.062631965 0.13330248 0.10009072
0001f0 0c 65 a6 bc 84 08 18 bc 52 9e 81 3e 63 e3 5a bb
       -0.020311855 -0.009279374 0.253161 -0.0033399693

actor.weight f4 [4, 128]
000000 4b 3c 8b bd 61 aa 5f bd 4a 00 b1 bc 7d 95 cb bc
       -0.06798609 -0.054605845 -0.021606583 -0.024851555
000010 0b 78 f0 bc 69 d5 ae bb 65 09 a3 bc 4c 22 08 3c
       -0.029354116 -0.005335499 -0.01990194 0.008308958
000020 f8 3b b1 3d 9c 5c 65 bd c3 f2 62 3d 62 e6 1e 3c
       0.08654016 -0.055996522 0.055407297 0.009698482
000030 28 e2 e1 3d ee 32 6c bd 5e 9d 96 3d 17 44 8d 3d
       0.11029464 -0.057665758 0.07354234 0.06897753
000040 9e 91 0a 3d 6b 79 2e 3d b0 58 32 3d df 8e ad 3c
       0.033830278 0.042596262 0.04354161 0.02118629
000050 2a 74 91 3d b4 b2 9c 3d 15 c8 af 3b 16 3e 00 bc
       0.07102235 0.076512724 0.005364428 -0.007827302
000060 10 ad d3 3b ab 79 6c bd da 9c 56 3d cc b8 a6 bc
       0.0064598396 -0.05773322 0.05239568 -0.02035179
000070 2d f5 3e bd e8 07 7f bd 58 de 76 3d 6b fb 60 3d
       -0.046620537 -0.0622634 0.060270637 0.05492727
000080 94 41 59 bd 33 0f a7 3d da a0 3d bd 42 d9 9c 3d
       -0.053041056 0.08157196 -0.046295978 0.07658626
000090 ee 22 3a 3d e2 60 ad bd e1 ca aa 3d a7 8b d2 3c
       0.045443468 -0.084657446 0.08339477 0.025701357
0000a0 7a bd a0 bc 92 81 80 3c a5 4a c1 bc b7 ac ef 3c
       -0.0196216 0.015686784 -0.023595164 0.029257162
0000b0 20 b5 63 3b 55 19 12 bc 13 6d 33 bd c6 34 60 3c
       0.003474541 -0.008917172 -0.043805193 0.013684457
0000c0 0f 5c a1 bb b0 9e 7e 3c d1 bf fc bc c3 b5 d3 3c
       -0.0049243043 0.015540764 -0.030853184 0.025843507
0000d0 4f f2 2f bb c4 ba 05 3c 80 2f 47 3d f7 c5 98 3d
       -0.0026847308 0.008162204 0.048629284 0.07459634
0000e0 0c bf 1f bd 2c 1a 48 3d ed fe e9 bd 86 89 90 bd
       -0.039000556 0.048853084 -0.11425576 -0.070574805
0000f0 9b 4b 0e 3d e9 9f 97 bd f6 57 9a bd 79 a9 83 3d
       0.03474007 -0.07403547 -0.075363085 0.06428809
000100 4c bb e9 bc 85 f1 60 bd 16 b2 60 bd 08 7a cc bc
       -0.028531693 -0.05491783 -0.054857336 -0.024960533
000110 7e bd 4d bd f5 6b 2e 3d 6d 1f b6 3c c1 a2 81 bd
       -0.050229542 0.042583425 0.022231782 -0.06329871
000120 78 0c 59 3d 45 58 a2 bc b4 4a 97 bc f7 00 4c 3d
       0.052990407 -0.01981748 -0.018468238 0.049805608
000130 38 9a 43 3d 20 75 8a 3d d7 8d 46 bd 9d a4 53 3d
       0.047754496 0.06760621 -0.048475113 0.05167066
000140 22 36 b6 bc c8 d1 a8 bc 42 79 89 3d f2 d7 f3 bc
       -0.02224261 -0.020607844 0.06712581 -0.029766057
000150 16 89 97 bd a5 c1 53 3c b2 5e 32 3d f8 77 89 3d
       -0.07399194 0.012924586 0.04354734 0.06712335
000160 d9 65 11 bc 58 f1 60 bc 12 41 43 3d fb 8c 9e 3d
       -0.00887438 -0.013729416 0.047669478 0.07741734
000170 9b c5 8a 3d 12 0b 10 bd df b1 c2 bd 4f bd 24 3d
       0.067759715 -0.035166807 -0.095065825 0.0402196
000180 9c 53 09 3d ba 8a 0f 3d d4 82 e3 3c d2 79 d0 3d
       0.033527 0.03504441 0.027772345 0.101794854
000190 43 c2 82 3d 9f e3 51 bd 28 51 5f bd b2 1c 0a 3d
       0.06384709 -0.051242467 -0.054520756 0.033718772
0001a0 d7 09 71 3d 82 96 d1 bd 18 5a 11 bc 38 02 53 3d
       0.058847275 -0.10233785 -0.008871578 0.051515788
0001b0 dc 5b f7 bc 7a 45 6e 3d fc 20 a9 bd cb de 80 bd
       -0.03019517 0.058171727 -0.082582444 -0.062924944
0001c0 c6 42 af 3b b6 5e 4a bd a0 23 5e bd 29 b2 cb bc
       0.005348536 -0.04940673 -0.054233193 -0.024865227
0001d0 4f 58 16 bd 45 c6 3b bc d3 a3 7a bd ec 5b 1a 3d
       -0.03670531 -0.011460845 -0.06119139 0.03768532
0001e0 4c b2 61 3d 58 50 3c 3c 7a 32 b8 bc 9d 91 f4 bd
       0.055101678 0.011493765 -0.022485007 -0.11941836
0001f0 24 0f af bc ba dd 5d bd 08 a5 c6 bb 98 44 9a bd
       -0.021369524 -0.054166533 -0.0060621537 -0.075326145
000200 a7 a2 31 bd 19 97 a2 3d 48 34 42 3c 26 c0 fc bc
       -0.043368008 0.07938976 0.011853285 -0.030853342
000210 90 60 d3 3c a9 02 55 bd 0b ab a9 bc b8 57 49 bd
       0.02580288 -0.05200449 -0.020711442 -0.04915592
000220 41 2b 51 3d ca 49 ce bd 9e 74 66 bd f2 e1 5c bd
       0.05106664 -0.10072668 -0.05626356 -0.053926416
000230 65 30 45 bd df b9 43 3d c9 52 bc 3c 1c 47 9c 3d
       -0.048141856 0.047784682 0.022988694 0.076307505
000240 ba cc 8c 3d 9e 5d 77 3d e6 00 d6 3d 29 5e 16 bd
       0.06874986 0.060392015 0.1044939 -0.036710892
000250 38 d4 78 3c 84 0b 4a 3c f5 24 1c 3d b2 c3 70 bd
       0.015187316 0.012331847 0.038121182 -0.05878038
000260 ee 86 00 bc 3d e7 13 3d 94 0d 8e bd fa 9d d5 3c
       -0.00784467 0.036109198 -0.069361836 0.026076306
000270 b0 cb 1a bd 00 40 80 b8 5e 89 95 3c 8b 4a d7 bd
       -0.037791908 -6.1154366e-05 0.018253978 -0.10512265
000280 17 02 eb bc a4 ab 4a bd 39 2f 6a 3d ac 3b e3 bc
       -0.02868752 -0.049480096 0.05717394 -0.027738415
000290 4d cd ed 3c 11 8c 9d bc 67 2e 14 bd f6 31 7c 3d
       0.02902856 -0.019231828 -0.036177065 0.061571084
0002a0 7b e1 fb 3c 10 a3 0e b9 c4 52 41 bd 9c 9b 21 3d
       0.030747166 -0.00013602921 -0.047198072 0.03945504
0002b0 35 8f 95 3d c9 6a 2a 3d 31 3f 0c 3d ef a5 96 3c
       0.07302705 0.041605745 0.03423995 0.01838967
0002c0 56 0c 84 3d 55 c6 d7 3c 39 25 15 3d 97 7c 38 bd
       0.064476654 0.02633969 0.03641245 -0.045040693
0002d0 ae 11 86 bd a4 db 56 bc 7a e1 89 3d 7a e9 b2 bc
       -0.06546341 -0.01311389 0.06732459 -0.021839846
0002e0 7b b0 c2 3d ec 36 4b 3d e0 0c ff bc 07 de 95 3d
       0.09506317 0.049612924 -0.031134069 0.07317739
0002f0 45 b6 be 3a c6 bc 33 3d 01 dc 3a 3c ad 93 8d 3d
       0.001455017 0.0438812 0.011404992 0.069129325
000300 37 9f 91 3c 1b 00 25 3d ed 3f eb 3c fb f0 96 bd
       0.017776115 0.040283304 0.028717006 -0.07370182
000310 af 03 1b 3d 41 bd aa 3d 8e e8 ab bc 7b 2f 36 bd
       0.03784531 0.083368786 -0.020984914 -0.044478875
000320 ca b6 e9 3c 13 fe 99 bd dd a4 c2 3d 9b ac 2c bd
       0.028529543 -0.07519164 0.095041014 -0.042156797
000330 9b f0 c6 bb 59 9c 85 3d e0 08 50 bd 24 54 2f bd
       -0.006071163 0.065239616 -0.050789714 -0.042804852
000340 45 d4 9c bb 56 61 d3 3c 01 e4 ca 3c 84 d2 36 bd
       -0.0047860467 0.02580325 0.024766924 -0.044634357
000350 a4 b8 a5 bd 6e 94 47 bd ab 77 50 3d 01 ae 7e 3c
       -0.08091858 -0.048725538 0.050895374 0.015544415
000360 3a d3 62 3d fc 6d 17 bd cf f3 cf bc 11 fd fa bb
       0.055377223 -0.036970124 -0.025384812 -0.0076595624
000370 3f 0c 9a 3d df 18 ce bd ce d2 6e bd 78 30 39 3d
       0.07521867 -0.100633375 -0.058306508 0.04521224
000380 b3 89 a7 3d 90 5a ed bb 35 25 55 bd ed f5 d9 3d
       0.08180561 -0.007243462 -0.052037437 0.1064261
000390 02 f4 96 bc c6 19 f2 bc 08 39 db bc 92 e2 2f bd
       -0.018426899 -0.029553305 -0.026760593 -0.042940684
0003a0 b9 ed 4e bd 0d 85 50 3c 4d 10 99 3d 3c 4b 68 bc
       -0.05051968 0.012727034 0.07473812 -0.0141780935
0003b0 a0 02 1d bc 17 80 d8 3d 8e 3c 61 3d 1a f8 ac 3c
       -0.009583145 0.10571306 0.05498939 0.021114398
0003c0 46 76 50 bd 05 ca b0 bd 40 d4 0a bb 7a 6d 4c bd
       -0.050894044 -0.08632282 -0.002118364 -0.049909092
0003d0 9d 13 8c 3c 6b 42 5d 3d a0 c5 a3 bd 52 44 a5 bd
       0.017099196 0.05401842 -0.07996678 -0.08069672
0003e0 ec 8e 6e 3d 8e f6 8b bc 21 ab 52 3d 0b c1 59 3c
       0.05824177 -0.01708534 0.051432732 0.013290654
0003f0 5c f1 90 bd be 23 c4 3c fa b3 06 bd 26 61 87 3b
       -0.07077286 0.023942824 -0.032886483 0.004131454

actor.bias f4 [4]
000000 ae 56 a6 3c 4b ac 35 bd 03 69 ac 3d ad 92 89 bd
       0.020305004 -0.044353765 0.08418467 -0.06717429

critic.weight f4 [1, 128]
000000 e5 f0 86 be 68 2d 31 3c 8d 72 72 be 13 57 97 3d
       -0.26355663 0.010814048 -0.2367651 0.07389655
000010 5c b3 8e be 93 4a 70 3d 34 1f 82 be aa d0 5f 3c
       -0.27871215 0.05866487 -0.2541443 0.013660589
000020 68 66 08 3d c3 29 23 3e 6a 43 80 be d6 84 7e be
       0.033300787 0.159339 -0.25051433 -0.2485536
000030 ca 19 68 be bd 39 57 3d 63 02 67 be 9c 09 ed 3c
       -0.22666088 0.052545298 -0.22559504 0.028935246
000040 00 f3 9e 3e ae 59 78 be ce d8 96 be da a9 86 be
       0.3104477 -0.2425296 -0.29462284 -0.2630146
000050 84 16 6d be 63 93 95 be 65 67 d4 3c b1 ea 1f 3d
       -0.2315312 -0.2921401 0.025928209 0.03904218
000060 e0 d9 70 3e ce 1e 8e be 10 2e ee bc bf 4a 8c 3e
       0.23520613 -0.27757877 -0.029074699 0.27400777
000070 08 50 97 be a7 8c a4 3d 1c b1 10 3b 3b 4a 31 3e
       -0.29553246 0.0803464 0.0022078222 0.17313473
000080 72 ea 51 3b c7 6a 8f 3e 90 8d 96 be 65 89 57 be
       0.003203061 0.28011152 -0.2940488 -0.21048506
000090 84 33 97 3e f5 f9 ce 3c 23 53 9c 3c bf 64 a2 3e
       0.2953149 0.025265673 0.019082611 0.31717488
0000a0 69 b8 51 3d 89 21 6b be e4 92 a1 b9 b2 93 09 3e
       0.051201258 -0.22962011 -0.00030817755 0.13435248
0000b0 b0 f4 08 bc 98 56 4d be b9 c2 30 3c 12 29 e3 3c
       -0.008359119 -0.20052564 0.010788613 0.027729545
0000c0 4a e0 86 be 31 9d 54 be d1 c5 82 be da e5 70 be
       -0.26342994 -0.20763089 -0.25541547 -0.23525181
0000d0 e8 58 8a be aa 42 90 be 5f 89 8e be 16 d5 8e 3c
       -0.27020955 -0.2817586 -0.2783918 0.017435592
0000e0 cc 8a 7a be 22 35 72 be 08 b6 82 3e a2 30 6d 3c
       -0.2446701 -0.23653081 0.25529504 0.014476927
0000f0 85 e2 26 3d 3f 04 88 3e a0 12 a5 be 91 08 10 3d
       0.04074337 0.2656574 -0.32240772 0.03516442
000100 31 de a2 3d 15 6f 6d be 99 2b 77 be 42 ee ef bc
       0.07952536 -0.23186906 -0.24137725 -0.029288415
000110 7c 4c 94 be 33 64 86 be 09 34 82 be 5d 9f 5b bd
       -0.28964603 -0.2624832 -0.25430325 -0.053618778
000120 d5 42 d6 3c 86 99 92 3e b9 33 97 be 7c 40 49 be
       0.026154915 0.28632754 -0.2953165 -0.19653505
000130 17 fd 69 3e 88 ee 7d be 44 c1 d2 bc 89 f4 71 3d
       0.22850452 -0.24798024 -0.025726922 0.059071098
000140 bb 51 8c 3d 5e 44 7b 3c 29 a4 49 be fc 71 80 be
       0.06851526 0.015336124 -0.19691528 -0.25086963
000150 1d af 81 3e 7a 3c 56 be 3b 89 b3 3d e5 b7 32 3c
       0.25328913 -0.20921507 0.08766409 0.010908102
000160 f4 41 2b 3e 10 02 59 be 93 8a 88 be 8d 50 81 3c
       0.16724378 -0.21192193 -0.26668224 0.01578548
000170 d7 01 52 3e 21 60 8b 3e 8d 24 a1 3e 19 9e 80 be
       0.20508514 0.27221778 0.314732 -0.2512062
000180 92 f8 40 3d a4 f6 ff 3c e8 f4 81 be 7b fe 07 be
       0.047112055 0.031245537 -0.2538216 -0.1328067
000190 b4 09 88 be 5b 65 4d be 24 16 5a 3d 99 0a 56 bd
       -0.26569903 -0.20058195 0.05324377 -0.0522562
0001a0 71 6e 88 be 8d bf 4c 3e 77 e3 39 3d 86 4b 84 be
       -0.2664676 0.19994946 0.045382943 -0.2583887
0001b0 11 23 88 3c ac d5 b8 bd 8d ad a3 3d 93 b6 34 3d
       0.016618283 -0.0902513 0.079920866 0.04411943
0001c0 20 ce fa 3c 1b 5f 95 3d a5 a7 89 be 25 ee 97 3d
       0.030615866 0.072935306 -0.26885715 0.07418469
0001d0 54 b9 f0 3d 10 e1 73 3d 40 88 98 3e 44 d9 49 be
       0.117540985 0.05954081 0.2979145 -0.19711787
0001e0 d7 43 9d be bd e3 85 3d b8 f9 86 be 1d 21 75 3e
       -0.3071582 0.06537578 -0.26362395 0.23938413
0001f0 ce 97 74 bd 81 33 8a 3e e6 56 83 be bd 74 60 3d
       -0.059715085 0.2699242 -0.25652236 0.05479883

exp_avg f4 [128, 8]
000000 27 6a b0 bf 69 e2 7d 40 b4 64 59 c0 0e 32 8d bf
       -1.3782395 3.966944 -3.3967714 -1.10309
000010 ae 56 6e 3f 8d 04 a3 3e df 44 1f 1d af c8 65 3c
       0.9310101 0.3183941 2.107908e-21 0.0140248975
000020 37 3f bb bf 8a bf 89 40 fd 90 67 c0 ab a5 ac bf
       -1.4628667 4.304631 -3.6182244 -1.3488058
000030 7e 42 73 3f d2 f6 b0 3e e0 13 fa 3d e8 dd 8b 3d
       0.95023334 0.3456331 0.12210822 0.06829435
000040 5b 4c 62 bf 92 b7 2e 40 d7 1f 11 c0 d0 ba 5b bf
       -0.8839776 2.7299542 -2.2675683 -0.8583193
000050 b6 cd 25 3f 3c f9 75 3e 3a c6 c4 3c 64 aa 39 3d
       0.64767015 0.24020857 0.024020303 0.045328513
000060 fe c4 0c c0 6d f9 d0 40 e5 ff ae c0 59 7c ff bf
       -2.1995234 6.5304475 -5.468737 -1.9959823
000070 c4 02 b5 3f 61 2f 04 3f 31 24 33 3e 39 59 c2 3d
       1.4141469 0.51634794 0.17494275 0.09489674
000080 36 1e af bf 49 b3 80 40 04 41 58 c0 e3 fc a1 bf
       -1.3681095 4.0218854 -3.3789682 -1.26553
000090 ad 68 66 3f ad ea a7 3e 6d 39 f7 3d c7 b5 8f 3d
       0.9000347 0.3279623 0.120715 0.07017093
0000a0 37 74 a3 bf 99 83 3c 41 14 12 53 c0 0d 77 b3 c0
       -1.2769841 11.782128 -3.2979784 -5.6082826
0000b0 bb be a0 3e 8d b1 3d be 41 7c 73 3d 16 59 e5 3d
       0.31395516 -0.18524761 0.05944467 0.111986324
0000c0 40 1c dc 2a 26 d9 85 2a c1 af 3c 2b df ca 6a 2a
       3.9099453e-13 2.3776223e-13 6.7034925e-13 2.085376e-13
0000d0 a4 c2 d7 29 8a ae b6 ab a1 e9 d0 2a 7e 0b ef 9e
       9.581683e-14 -1.2980322e-12 3.7110335e-13 -2.5309862e-20
0000e0 42 c5 3f c0 19 17 a8 41 a9 40 da c0 20 67 3f c1
       -2.9964147 21.011278 -6.820393 -11.962677
0000f0 f6 36 f9 3e 03 76 ec be f6 49 aa 1d e8 85 a5 3d
       0.48674744 -0.46183786 4.50751e-21 0.08082181
000100 2b 34 97 bf ba 43 5f 40 ca fd 3a c0 1a 28 8d bf
       -1.1812795 3.4885087 -2.92174 -1.1027863
000110 3b 86 45 3f 95 f8 8f 3e 9d ef cc 3d 97 74 6c 3d
       0.77157944 0.2811934 0.1000664 0.057728376
000120 39 77 80 bf c2 ad 64 40 33 d9 2e c0 0a 23 5d bf
       -1.0036384 3.5731053 -2.7320068 -0.8638159
000130 c1 55 16 3f 25 39 6b 3e 6f 5d ce 3d 66 a7 25 3d
       0.587246 0.22971018 0.10076415 0.040442847
000140 49 48 90 bf cc 03 97 c0 92 39 4c c0 c3 2b b4 40
       -1.127206 -4.7192135 -3.1910138 5.630342
000150 2f 94 e0 3f ef 97 88 3f 49 c1 7a 3e 8e b1 c2 3d
       1.7545222 1.0671366 0.24487795 0.09506522
000160 48 3a 3b c0 7f ee 03 c1 3e a2 e3 c0 e4 63 dd 40
       -2.9254322 -8.245727 -7.113555 6.9184437
000170 e9 23 3d 40 32 d6 e6 3f d7 21 a0 3e 78 ff 8a 3a
       2.9553168 1.8034117 0.31275818 0.00106047
000180 56 1a 1b c0 ca 40 b8 41 9c d0 cb c0 d1 16 2e c1
       -2.4234824 23.031635 -6.369215 -10.88057
000190 96 f9 f9 3e 2c 5a db be 55 57 c3 3d 1b 98 38 3e
       0.4882323 -0.42842233 0.09538142 0.18026774
0001a0 1d 97 37 b8 1e 0e 0c 37 da 36 5d b8 9a a0 74 b8
       -4.3771335e-05 8.347937e-06 -5.274159e-05 -5.8323705e-05
0001b0 c2 1c 8c 38 b5 59 7e 39 64 d1 fc 02 2e 2b 4c 38
       6.681077e-05 0.00024256746 3.7148256e-37 4.8677604e-05
0001c0 7a 53 3e bf 13 a8 8c 40 58 99 09 c0 cb 28 06 c0
       -0.74346125 4.395517 -2.1499844 -2.0962398
0001d0 e1 0d ba 3e 33 bf c2 3d 1d 12 ff 1c 07 d6 ed 3c
       0.36338714 0.095091246 1.6879167e-21 0.02903272
0001e0 15 4f 24 be 76 f3 ee 3e 90 71 c5 be ee a6 32 be
       -0.16045792 0.4667012 -0.38563204 -0.17446491
0001f0 84 1e 01 3e 87 14 3c 3d 60 ad 55 3c 91 32 fa 3b
       0.12609297 0.045918014 0.013041824 0.0076354225
000200 25 3f 0f c0 81 f5 a8 41 92 b5 bb c0 84 e7 1f c1
       -2.238229 21.119875 -5.8659143 -9.994022
000210 a9 4f ee 3e 15 b8 c5 be 78 82 b7 3d 9f 78 2d 3e
       0.4654515 -0.38617006 0.08960432 0.16940545
000220 c5 a1 1d bf cc 59 e7 3f b9 e6 c1 bf 4a ed 14 bf
       -0.61574966 1.8074279 -1.5148536 -0.58174574
000230 b9 40 d2 3e cf 3d 19 3e 9d 39 6c 3d 67 c9 0b 3d
       0.41065004 0.14964984 0.05767213 0.03412762
000240 74 16 c3 bf f0 5c 90 40 ab 99 71 c0 1b 12 b4 bf
       -1.5241227 4.511345 -3.7750041 -1.4068025
000250 b5 7e 7d 3f 6b ad b8 3e d4 ae 03 3e 1e 43 93 3d
       0.99021465 0.36069807 0.1285966 0.07190536
000260 a6 d0 22 c0 20 0b c2 41 80 38 d6 c0 6b 40 37 c1
       -2.543985 24.255432 -6.694397 -11.453227
000270 72 ef 00 3f 42 fa e8 be e8 68 ca 3d 3e 85 3f 3e
       0.50365365 -0.45503432 0.098832905 0.18703172
000280 fa 99 f9 bf 4e fa ad c0 45 86 96 c0 23 96 91 40
       -1.9500115 -5.436805 -4.7038903 4.549577
000290 bc 5c fd 3f 73 18 95 3f 19 ff 4e 3e fa af 2b 3a
       1.9793925 1.1648086 0.202145 0.0006549355
0002a0 4f 91 e9 38 8e 3a b2 b7 86 b9 0c 39 ee ab 1b 39
       0.000111373716 -2.124652e-05 0.00013420553 0.00014846
0002b0 a4 40 32 b9 26 d4 21 ba c2 eb bd b2 06 e7 01 b9
       -0.00016999483 -0.0006173275 -2.2109706e-08 -0.00012388462
0002c0 73 46 46 c0 d5 b8 cf 41 bc 12 ee c0 81 be 40 c1
       -3.0980499 25.96525 -7.439787 -12.04651
0002d0 6d dc d4 3e 8f 66 11 bf 91 5a e1 3d 7a f3 54 3e
       0.41574422 -0.56797117 0.11003602 0.20796004
0002e0 51 ce db bf 88 cf 94 c0 5e ea 84 c0 55 10 7f 40
       -1.7172338 -4.6503334 -4.1536093 3.9853718
0002f0 43 66 de 3f db 4c 83 3f 00 bb 3a 3e bb 7f 65 3a
       1.7374958 1.025783 0.18235397 0.000875469
000300 1d e8 95 bf 03 6c 5f 40 7b 55 3a c0 01 52 8a bf
       -1.171146 3.4909675 -2.9114673 -1.0806276
000310 94 bd 41 3f 34 86 8d 3e 6a ba c0 3d e9 ca 55 3d
       0.756799 0.2764145 0.09410556 0.052195463
000320 cb ba 1e c0 f2 37 d9 c0 e2 e4 bd c0 0e 6b b2 40
       -2.480151 -6.7880793 -5.93419 5.575568
000330 8b 57 1e 40 b4 ef b9 3f f5 90 b3 3e 0e 7f c5 3d
       2.4740932 1.4526277 0.3507153 0.096433744
000340 53 8b ff bf 88 e1 bc 40 81 42 9e c0 3d 48 eb bf
       -1.9964393 5.9025307 -4.945618 -1.838142
000350 b5 6a a5 3f cc 10 f1 3e a1 fe 26 3e 4c 93 bd 3d
       1.2923189 0.47083127 0.1630807 0.0925661
000360 44 13 12 c0 f8 95 c7 c0 02 5f ae c0 78 10 a4 40
       -2.2824259 -6.2370567 -5.4490976 5.1270103
000370 1a 56 11 40 82 b3 aa 3f cf 21 a1 3e a8 08 b1 3d
       2.2708802 1.3336031 0.31471106 0.08644229
000380 5b 7e ee bf 54 3d b1 40 ab 3f 94 c0 db 87 d9 bf
       -1.8632311 5.5387363 -4.632772 -1.6994585
000390 32 2d 9a 3f da 5b e1 3e 59 10 1b 3e c8 ed a9 3d
       1.2045043 0.4401539 0.15142955 0.08297306
0003a0 4d 53 7f bb 86 a9 75 bd 20 22 f9 3c e3 e9 a4 bc
       -0.0038959563 -0.059976123 0.03041178 -0.020131057
0003b0 fb dc b0 3c 3d 32 dd 3b 27 9f ea 3b ac 92 59 3c
       0.021589747 0.0067503736 0.0071600857 0.013279598
0003c0 1b ab 58 c0 bb bb 13 c1 30 49 01 c1 b8 13 f3 40
       -3.3854434 -9.233333 -8.080368 7.596157
0003d0 e0 8c 57 40 75 11 fd 3f b8 33 f6 3e e9 97 07 3e
       3.3679733 1.9770952 0.48086333 0.13241543
0003e0 2a f6 25 c0 7b 63 c3 41 d7 38 d9 c0 e6 d7 38 c1
       -2.5931497 24.423574 -6.7881885 -11.55271
0003f0 c8 db 0c 3f c9 59 e2 be 43 48 d9 3d 36 45 4d 3e
       0.5502286 -0.44209126 0.10609486 0.20045933

exp_avg_sq f4 [128, 8]
000000 c1 c6 73 41 59 1d e2 42 a6 56 68 42 ac f9 a1 42
       15.236024 113.05732 58.084618 80.98764
000010 84 9d b6 41 9d 05 3f 41 02 37 0b 3e 30 e8 6c 3d
       22.826912 11.93887 0.13595203 0.05783862
000020 51 0f bc 41 f5 8f f2 42 d9 47 92 42 3a c6 b9 42
       23.507479 121.281166 73.14033 92.88716
000030 1d 10 1d 42 86 4f 4f 42 83 12 19 3f 86 83 35 40
       39.265736 51.82766 0.5979387 2.8361526
000040 14 26 ff 40 cc 22 70 42 aa 3f d5 41 1b 6e 27 42
       7.973398 60.03398 26.656086 41.857525
000050 2f a3 4e 41 81 50 ac 41 18 9a 9c 3c 2f 9c b1 3f
       12.91484 21.539309 0.019116446 1.3875788
000060 d0 03 42 42 88 5b 89 43 88 7f 1b 43 a4 4e 45 43
       48.503723 274.7151 155.49817 197.30719
000070 7f 7a 9f 42 e3 cc c7 42 02 f9 9f 3f 51 ad ad 40
       79.73925 99.90017 1.2497866 5.427407
000080 d4 dc ad 41 9a f3 ef 42 57 d4 89 42 c5 f0 c0 42
       21.732826 119.975784 68.91473 96.47025
000090 ea a0 f7 41 75 08 47 42 14 e7 13 3f c4 8b 47 40
       30.953571 49.75826 0.5777447 3.1179056
0000a0 6f 0d fd 41 fb 8d 88 43 d8 d8 c9 42 ab 63 2c 43
       31.63156 273.10922 100.92352 172.38933
0000b0 38 c1 6b 42 0f d5 c3 42 c5 6c b6 3e 2a fe d5 40
       58.93869 97.91613 0.3562986 6.687276
0000c0 83 40 5e 3e 81 1d 46 3d d5 ba db 3e 0a 10 92 3d
       0.21704297 0.04836798 0.4291598 0.071319655
0000d0 15 24 56 3e a1 9f 5f 40 85 cf 34 3e ce a5 e1 39
       0.20912202 3.494118 0.17657287 0.00043038878
0000e0 b8 66 8b 42 b1 2f 04 44 b7 08 61 43 c4 6b b7 43
       69.70062 528.7452 225.03404 366.84192
0000f0 f9 23 02 43 83 d0 4a 43 2d da d2 3d 0b 7e 66 41
       130.14052 202.8145 0.1029552 14.405772
000100 19 16 77 41 ff 70 ad 42 d2 1b 44 42 20 67 88 42
       15.442895 86.720695 49.02717 68.201416
000110 9a 5c be 41 d9 63 05 42 62 63 b4 3e 15 ec 0a 40
       23.795216 33.347507 0.35232073 2.1706593
000120 0b e6 14 41 27 8c 89 42 3e 59 11 42 76 39 43 42
       9.306163 68.773735 36.33715 48.806114
000130 7f 30 44 41 05 4a 9f 40 6d 6e 98 3e f7 e9 a8 3e
       12.26184 4.9777856 0.29771748 0.32991
000140 a5 4e e5 41 aa 75 bd 42 63 9f c1 42 5f 06 c4 42
       28.6634 94.72981 96.8113 98.01244
000150 0a 2a cd 41 1e 63 86 41 c1 a9 a3 3f 0b e2 9a 3f
       25.645527 16.798397 1.278618 1.2100233
000160 ac d8 d9 42 8e 16 18 44 aa 5d c1 43 3c 04 9f 43
       108.92319 608.3524 386.73175 318.03308
000170 04 3e ca 42 9b 5a 8b 42 4d 33 b0 40 93 b0 ac 3f
       101.121124 69.67696 5.5062623 1.3491386
000180 17 5d a8 42 82 01 22 44 fc a5 88 43 fb 40 f5 43
       84.181816 648.02356 273.29675 490.50766
000190 67 61 1d 43 6c 1e 66 43 59 bc 23 3f d0 25 82 41
       157.38048 230.11884 0.6395927 16.268463
0001a0 11 84 62 3e 48 b5 e7 3c 4d a6 ef 3d 46 0e 93 3d
       0.22120692 0.028284684 0.11701641 0.07180457
0001b0 be 8c 76 3f 06 ed a0 40 61 b1 14 39 72 8d 44 3e
       0.96308506 5.0289335 0.00014180459 0.19194582
0001c0 da d1 4a 41 e5 f3 bd 42 26 82 16 42 b2 80 6a 42
       12.676233 94.97636 37.627098 58.62568
0001d0 c6 0e 14 42 34 6e 64 42 ac 5d 17 3c c9 0d 1b 40
       37.014427 57.10762 0.009238642 2.4227164
0001e0 39 e2 83 3f 19 7c 85 40 f0 b1 3a 40 a7 88 89 40
       1.0303413 4.1713986 2.9171104 4.297931
0001f0 9f 66 cb 3f ce d7 93 40 e6 b5 d3 3b de 26 88 3e
       1.5890692 4.6200933 0.006460893 0.26592153
000200 e4 66 8f 42 9a cc 02 44 63 1d 63 43 f9 bf c7 43
       71.70096 523.1969 227.11479 399.4998
000210 21 0e 04 43 74 6c 47 43 13 16 09 3e c1 81 63 41
       132.05519 199.42365 0.13387327 14.219178
000220 37 f5 a8 40 f9 ce ee 41 42 00 86 41 66 6e c0 41
       5.2799335 29.85106 16.750126 24.053905
000230 5a 50 05 41 da 72 60 41 37 9f 42 3d bf 39 6e 3f
       8.332117 14.02804 0.04751512 0.93056864
000240 a1 22 b4 41 46 07 f7 42 48 74 8f 42 cc 62 bc 42
       22.516909 123.514206 71.72711 94.19296
000250 ae 33 10 42 ab 68 5a 42 5f 07 17 3f ba 38 45 40
       36.05047 54.602215 0.5899562 3.0815873
000260 e4 74 b9 42 93 c5 35 44 b8 e8 97 43 2f 45 09 44
       92.7283 727.0871 303.8181 549.081
000270 02 4a 2d 43 c9 88 7a 43 30 81 f7 3e 11 83 8e 41
       173.2891 250.53432 0.4834075 17.813997
000280 66 1b 1e 42 4b b6 4e 43 87 50 11 43 39 05 fe 42
       39.526756 206.71208 145.31456 127.0102
000290 63 c6 0a 42 43 09 c7 41 ba 19 d9 3f ba 63 42 3f
       34.693737 24.879522 1.6960976 0.7593342
0002a0 77 f7 04 40 7f ba 6f 3e e9 77 16 3f 9a 9f a6 3e
       2.077604 0.23410986 0.5877672 0.3254364
0002b0 4e bf 97 41 1f a4 49 42 85 41 e5 3c 9d 8c ba 3f
       18.96841 50.410275 0.027985344 1.4574162
0002c0 58 b6 eb 42 06 f1 4e 44 c2 33 b4 43 9e 50 26 44
       117.85614 827.766 360.40436 665.25964
0002d0 fe f7 4f 43 11 3e 9b 43 bf 6b 60 3f d7 46 ac 41
       207.96872 310.4849 0.8766441 21.53459
0002e0 59 4f 13 42 24 bb 8d 43 61 73 0a 43 e4 15 f2 42
       36.827488 283.46204 138.4507 121.042755
0002f0 7d ec ff 41 f8 82 bd 41 37 4b f7 3f b4 68 44 3e
       31.990473 23.68895 1.9319829 0.19180566
000300 e1 a1 46 41 30 b7 9d 42 b6 47 23 42 f0 23 68 42
       12.414521 78.85779 40.82003 58.035095
000310 63 41 96 41 be 3f d6 41 ac 5d f2 3d 6f a8 e7 3f
       18.781927 26.781124 0.11834273 1.8098277
000320 6b 11 88 42 02 0e bb 43 47 35 7b 43 63 25 51 43
       68.03402 374.10944 251.20811 209.14604
000330 78 82 6a 42 1e 8d 26 42 48 ed 4f 40 b0 d9 3f 3f
       58.62741 41.63781 3.2488575 0.7494154
000340 97 ec 21 42 34 e7 5b 43 16 0e fa 42 50 58 26 43
       40.481045 219.90314 125.02751 166.34497
000350 6d 4f c0 42 a5 b8 f9 42 56 72 7a 3f de 84 89 40
       96.15513 124.860634 0.9783071 4.297469
000360 82 8b 55 42 6c b8 8f 43 64 35 43 43 e3 3c 2c 43
       53.38624 287.4408 195.20856 172.23784
000370 80 96 3c 42 84 cb 00 42 e3 5d 2c 40 bf 31 b6 3e
       47.146973 32.198746 2.6932304 0.35584828
000380 c2 68 01 42 60 97 39 43 1f 87 cb 42 cf 60 09 43
       32.352303 185.59131 101.76391 137.37816
000390 c5 e5 71 42 f8 96 ae 42 18 fe 5b 3f 87 8d 83 40
       60.474384 87.29486 0.8593459 4.1110263
0003a0 05 3c 60 3f 69 4d 9b 40 5f 64 3c 40 e4 c8 9a 40
       0.8759158 4.8531995 2.9436262 4.837023
0003b0 5d 6a e8 3f 80 b1 e5 3f ff fc 45 3b 8b 17 4e 3e
       1.815746 1.7944794 0.0030210612 0.20126168
0003c0 96 ae 05 43 6a 95 34 44 18 3f ef 43 22 58 c5 43
       133.68198 722.3346 478.49292 394.68854
0003d0 e1 0a fb 42 5d 58 c3 42 40 a0 e8 40 89 b8 80 40
       125.52125 97.672585 7.269562 4.0225263
0003e0 63 4f c4 42 c0 c4 33 44 55 ce 9b 43 84 18 06 44
       98.15505 719.0742 311.61197 536.38306
0003f0 f9 0a 34 43 1e 06 88 43 9a a2 b1 3e 87 dc 91 41
       180.04286 272.0478 0.34694368 18.23268

exp_avg f4 [128]
000000 f3 04 3d 40 38 00 55 40 5a ae 08 40 59 44 a0 40
       2.953427 3.3281384 2.1356416 5.008343
000010 4b f6 46 40 4b 61 26 41 21 8a 30 2b 53 50 a1 41
       3.1087825 10.398753 6.2719453e-13 20.16422
000020 46 f7 2c 40 3c 90 25 40 58 ab d5 c0 6f 8d 15 c1
       2.7025924 2.5869284 -6.677166 -9.34703
000030 62 f8 a1 41 03 25 4c 38 ee a6 79 40 47 45 c4 3e
       20.24628 4.867186e-05 3.9008136 0.38334104
000040 a7 a5 94 41 c7 3a b4 3f 5d a6 5e 40 ce 8a aa 41
       18.580885 1.4080437 3.478904 21.317776
000050 ae 93 c3 c0 41 e6 01 b9 72 2a b4 41 e3 1b a9 c0
       -6.1117773 -0.00012388175 22.520725 -5.284654
000060 f4 22 2c 40 a7 65 f1 c0 90 99 91 40 75 0a de c0
       2.6896334 -7.5436587 4.5499954 -6.9387765
000070 0b 19 88 40 37 e7 b1 bc f3 5f 24 c1 a4 d6 ab 41
       4.253057 -0.021716697 -10.273425 21.479805
000080 c5 d6 37 40 a0 8f 30 c0 4d b9 26 40 62 85 35 40
       2.8724835 -2.7587662 2.6050599 2.836266
000090 98 ef d3 bd 63 7f e5 2b 94 43 9a 40 ab c8 ef c0
       -0.10348433 1.6306786e-12 4.8207493 -7.4932456
0000a0 a3 4a 85 c0 88 63 d5 c0 e0 10 c4 c0 12 2e 99 40
       -4.165361 -6.6684 -6.12706 4.786874
0000b0 90 9a 96 40 c3 23 1e 41 8d 3f a2 41 4b 1f 99 c0
       4.7063675 9.883731 20.28103 -4.78507
0000c0 f5 bc 67 40 2f ef fb 40 82 eb a0 3e 97 de cd 40
       3.620908 7.872947 0.31429678 6.4334216
0000d0 f0 87 b5 41 9e b6 d4 c0 a8 d6 7e 41 2c 53 f4 c0
       22.691376 -6.647292 15.927406 -7.635153
0000e0 ad 36 a4 c0 b2 c9 c4 40 49 d3 37 40 4c 05 84 41
       -5.1316743 6.149621 2.8722708 16.502586
0000f0 a2 20 5b 40 dd 5c ac 3f b3 11 a1 3e 4e 6d 24 40
       3.4238667 1.346584 0.31458816 2.5691714
000100 fb 4e 05 c1 2e 97 bd 3f 82 62 a1 40 5c fc ae 41
       -8.331782 1.4811761 5.043275 21.873222
000110 85 a6 67 40 44 02 99 c0 0c 29 a7 41 9a f8 f6 c0
       3.6195385 -4.7815266 20.895042 -7.717847
000120 84 fb 20 bd b0 87 1a 3f 68 8a 76 40 51 dc 8d c0
       -0.039302364 0.6036329 3.8521976 -4.433144
000130 2b 8b 8c bf 24 4a 36 40 5c ef 84 40 16 51 37 40
       -1.0979971 2.8482752 4.1542187 2.864324
000140 5b 30 c5 c0 09 7e 53 41 3e 97 9e 40 1e cd 01 41
       -6.162153 13.21827 4.955962 8.112577
000150 98 69 b9 40 a5 77 52 40 99 04 34 3f 39 ab 55 40
       5.79414 3.2885525 0.70319515 3.3385756
000160 46 9c 9d 41 f7 56 f8 40 65 10 53 40 48 0d 45 41
       19.701305 7.760616 3.2978756 12.3157425
000170 69 d0 6a 40 86 d8 0b 40 77 33 2d bf dc a9 68 40
       3.6689703 2.1850905 -0.67656654 3.6353674
000180 c2 fa c7 c0 f0 d9 bb 41 ab 71 a4 41 cb 0a d2 3f
       -6.24936 23.481415 20.555502 1.6409544
000190 04 71 cf 40 53 2f ed c0 af 73 b1 40 7b 37 86 40
       6.482546 -7.412027 5.5453715 4.1942725
0001a0 de 96 ad c0 60 63 b2 3f fa 3e 98 41 34 89 24 40
       -5.4246664 1.3936577 19.03075 2.5708742
0001b0 ac d5 4d 40 56 76 e2 bf c5 9a 89 41 17 d6 26 be
       3.2161665 -1.7692363 17.200571 -0.16292606
0001c0 e2 91 2a 41 61 d5 91 41 4e 46 32 40 04 4a 53 40
       10.660616 18.229189 2.785541 3.3013926
0001d0 d8 34 f9 c0 d7 ce ee c0 15 91 8a 40 58 6a 21 40
       -7.7877007 -7.462749 4.33021 2.5221157
0001e0 91 11 82 c0 4c 06 88 40 2f 10 03 40 e6 1e 9a 40
       -4.0646443 4.2507687 2.0478628 4.816272
0001f0 a6 77 90 40 e8 69 58 40 82 cc 32 40 ca 66 63 40
       4.5146055 3.381464 2.7937322 3.5531487
