ppo_acrobot_v1_checkpoint.pth (torch, 255678 bytes, 21 tensors)

shared.0.weight f4 [128, 6]
0	0x3e815c04	0.25265515
1	0xbd2e1b8b	-0.042506736
2	0x3f174442	0.5908853
3	0x3eafc5e1	0.34330657
4	0x3cc1432f	0.023591606
5	0x3dda90ad	0.10672126
6	0x3eef72ed	0.4676737
7	0x3f150fa5	0.58226997
8	0x3de71613	0.11283507
9	0xbee2ab8a	-0.442715
10	0x3d27c542	0.040959604
11	0x3e7e59e3	0.24838977
12	0xbe9273db	-0.28604016
13	0xbe304b72	-0.1721628
14	0xbf0ffea8	-0.5624795
15	0x3daeb176	0.08529942
16	0xbacf9a87	-0.0015838899
17	0xbc552048	-0.013008185
18	0xbe8277f8	-0.25482154
19	0xbf066228	-0.52493525
20	0xbe76dd8c	-0.24107951
21	0x3e673472	0.225786
22	0x3d96edda	0.07369585
23	0x3e6f64d1	0.23378302
24	0x3cc324f3	0.02382133
25	0xbe25ee55	-0.16204198
26	0xbe193274	-0.14960653
27	0x3d8e6744	0.0695329
28	0xbf107ff3	-0.56445235
29	0xbdce00ff	-0.10058784
30	0x3ebd31e8	0.36952138
31	0x3e2ca415	0.16859467
32	0x3efdd1d4	0.4957415
33	0xbeb03954	-0.34418738
34	0x3d861924	0.06547764
35	0xbd302adb	-0.04300962
36	0xbd0f4ebe	-0.034987204
37	0x3e8122cf	0.2522187
38	0x3eabe700	0.33574677
39	0xbf3696c7	-0.7132382
40	0x3e8a18b0	0.2697196
41	0xbe693eb9	-0.22777833
42	0x3f0da430	0.55328655
43	0x3f0eda7e	0.5580214
44	0xbc554501	-0.01301694
45	0xbeda1ea9	-0.42601517
46	0xbe793530	-0.24336696
47	0xbe7809f0	-0.24222541
48	0x3ccc5822	0.024944369
49	0xbe01740f	-0.12641929
50	0xbe8f8b63	-0.2803603
51	0x3e4edadf	0.2020068
52	0xbef29561	-0.47379592
53	0xbead02dd	-0.33791247
54	0x3ece48ba	0.4028986
55	0xbec77452	-0.38955933
56	0xbe8491b0	-0.258924
57	0x3f1a4720	0.6026478
58	0xbe5a40a5	-0.21313722
59	0x3d8ebf0b	0.06970032
60	0x3f0bed44	0.54658914
61	0x3e3f9a51	0.18711211
62	0xbc2930a1	-0.010326535
63	0xbf03ed0a	-0.5153357
64	0xbeb906b0	-0.36137915
65	0x3e3a7857	0.18209969
66	0x3d7c2e70	0.061567724
67	0x3c219cdc	0.009864058
68	0x3c37e25d	0.011223403
69	0x3efbff07	0.49218008
70	0x3d0456ca	0.03230933
71	0x3e667b05	0.22507866
72	0x3eab9c4f	0.33517691
73	0xbf0a4f36	-0.54027116
74	0x3f00af9b	0.5026795
75	0x3ec88329	0.39162567
76	0xbda79e60	-0.081845045
77	0xbe14e5c8	-0.1454078
78	0x3d6d5670	0.05794376
79	0x3f170fb8	0.5900836
80	0x3e0593fa	0.1304473
81	0xbea272e0	-0.31728268
82	0xbe2a4da0	-0.16631174
83	0x3e5f3d3e	0.21800706
84	0xbd008cce	-0.03138428
85	0x3ec7968e	0.38982052
86	0xbe41abec	-0.18913239
87	0xbf0ee6c1	-0.5582085
88	0x3cedafd1	0.0290145
89	0x3e44f67d	0.19234653
90	0xbeecd6f2	-0.4625774
91	0xbedfd912	-0.437203
92	0xbf188881	-0.5958329
93	0x3e87cc1d	0.26522914
94	0x3a86d799	0.0010287642
95	0xbde12f84	-0.10995391
96	0x3ecf489e	0.4048509
97	0x3d9e0076	0.07714932
98	0x3f0af2c7	0.542767
99	0x3f04c4fe	0.51863086
100	0x3e9c1aaf	0.30489108
101	0x3e344bda	0.1760706
102	0x3e456937	0.19278418
103	0x3ef0752a	0.4696439
104	0x3eccc942	0.39997298
105	0xbe64a1a8	-0.22327292
106	0xbe415140	-0.1887865
107	0xbe53500f	-0.20636009
108	0xbdeaf7ca	-0.11473043
109	0x3e793748	0.24337494
110	0x3f1b2bb8	0.60613585
111	0xbd7e0435	-0.06201573
112	0xbf1c09c8	-0.60952425
113	0xbeb747c7	-0.3579695
114	0x3f0e251c	0.55525374
115	0x3f0c6056	0.54834497
116	0xbe8857d8	-0.2662952
117	0xbe49e054	-0.1971448
118	0x3d3f724b	0.046739858
119	0xbae9fd63	-0.0017852004
120	0x3e9fd6e6	0.31218642
121	0xbe0c9360	-0.13728094
122	0xbe675e8c	-0.2259466
123	0x3e403ba9	0.18772759
124	0xbdf89522	-0.1213782
125	0xbe21feda	-0.15819874
126	0x3e8007b1	0.25005868
127	0x3eb0f0d4	0.34558737
128	0x3efddf32	0.49584347
129	0xbe44b633	-0.19210128
130	0x3bb673fa	0.0055680247
131	0xbe016337	-0.12635504
132	0x3e775b75	0.24155982
133	0xbef75efe	-0.4831466
134	0xbe1a67d1	-0.15078665
135	0x3f0e9ee4	0.557112
136	0xbdf92c6b	-0.12166675
137	0xbce4b4d2	-0.027918253
138	0x3ec5a0db	0.38599285
139	0xbf2673da	-0.65020525
140	0x3ef888ba	0.48541814
141	0x3eec3169	0.46131447
142	0xbde719f8	-0.1128425
143	0xbe345823	-0.17611746
144	0xbdfff0f5	-0.12497131
145	0x3deb490c	0.11488542
146	0x3eaa7606	0.3329317
147	0x3ed7e4ce	0.42166752
148	0x3dae97a3	0.08525016
149	0x3ea33b3f	0.3188114
150	0x3eb36760	0.35039806
151	0xbe204f20	-0.15655184
152	0xbe22fb86	-0.15916261
153	0x3d9983b0	0.074958205
154	0x3dbdca34	0.09267083
155	0xb74109e0	-1.1505996e-05
156	0x3e9efbea	0.3105157
157	0x3f1404d2	0.57819855
158	0x3e6a372e	0.22872612
159	0xbf1375a2	-0.5760137
160	0xbe79c38f	-0.24391006
161	0xbe534868	-0.2063309
162	0xbc4a9d6c	-0.012366634
163	0x3f0b01dd	0.5429972
164	0xbd9bce5e	-0.07607721
165	0xbcc83750	-0.024440438
166	0x3eb018af	0.34393832
167	0x3ebb6ee6	0.36608046
168	0x3ef7d6b3	0.4840599
169	0xbe586997	-0.2113403
170	0xbdf32d79	-0.118739076
171	0x3ef11b44	0.47091115
172	0x3e32d800	0.1746521
173	0xbde5d8cb	-0.112229906
174	0x3eff22be	0.49831194
175	0xbec384ba	-0.381872
176	0xbe185710	-0.14876962
177	0x3e50de33	0.20397262
178	0xbe98a0fd	-0.29810324
179	0xbe39dfc0	-0.1815176
180	0x3d220f21	0.03956521
181	0xbe851d71	-0.25999025
182	0x3cb02212	0.021500621
183	0xbd7dd09c	-0.061966524
184	0x3e232341	0.15931417
185	0x3e978023	0.29589948
186	0x3e3f4002	0.18676761
187	0x3f21efd2	0.6325656
188	0xbd7aeb87	-0.061259773
189	0xbf0a4648	-0.5401349
190	0xbde7e3a9	-0.113227196
191	0x3cc41709	0.023936765
192	0xbd78de74	-0.060759023
193	0x3f1f6f4f	0.6227922
194	0x3e9cd152	0.3062845
195	0xbe992d06	-0.29917163
196	0xbeba8e97	-0.36436912
197	0x3e8a72a6	0.27040595
198	0x3ed0da73	0.40791664
199	0x3d0a785e	0.033806197
200	0x3eae6a5f	0.3406553
201	0xbe74c102	-0.23901752
202	0x3cf5ab2c	0.029988848
203	0x3cc1387d	0.023586506
204	0xbf11a872	-0.5689765
205	0x3df5313e	0.11972283
206	0xbf23fb5e	-0.6405543
207	0xbf065697	-0.52475876
208	0x3d866daa	0.065638855
209	0x3d3e60e5	0.046479125
210	0x3db0e81a	0.0863802
211	0xbe21061b	-0.15724985
212	0x3ea97b71	0.3310199
213	0x3eaec587	0.34135076
214	0x3b78fbef	0.003799196
215	0xbe03674f	-0.12832378
216	0x3f185ec7	0.5951962
217	0xbf02d682	-0.5110856
218	0xbdcd0468	-0.10010606
219	0x3ec2a5f7	0.38017246
220	0x3e86e8ac	0.2634939
221	0xbc1414ca	-0.00903816
222	0x3f1220c3	0.5708124
223	0xbe913144	-0.283579
224	0x3ea1b1fa	0.31581098
225	0x3edf5256	0.43617505
226	0xbdeebbb9	-0.11656899
227	0xbda7779f	-0.08177113
228	0x3e33acef	0.17546438
229	0xbef9dcc0	-0.4880123
230	0x3e6f7adc	0.23386711
231	0x3e1d6253	0.15369539
232	0xbeb638ed	-0.35590306
233	0xbe3f614e	-0.18689463
234	0x3cb31395	0.021859923
235	0x3e313fc5	0.17309482
236	0x3c474e9b	0.012164737
237	0x3db0fab5	0.086415686
238	0xbc827b32	-0.015927885
239	0xbdb6327b	-0.08896347
240	0xbe92575d	-0.28582278
241	0x3e392f8f	0.18084548
242	0xbe658266	-0.22413024
243	0x3eb1dfe0	0.34741116
244	0xbe2191a0	-0.15778208
245	0x3eab5c22	0.3346873
246	0x3f25197d	0.6449202
247	0xbd879e8f	-0.066220395
248	0xbd850d4d	-0.064966775
249	0xbdca4ff2	-0.098785296
250	0xbdf2df65	-0.118590154
251	0x3e2368c6	0.15957937
252	0x3ec12602	0.3772431
253	0x3b99d797	0.0046948898
254	0x3d772189	0.060334716
255	0x3cb2df3c	0.021834962

shared.0.bias f4 [128]
0	0x3da3459b	0.079722606
1	0x3e98117f	0.29700848
2	0x3df739ba	0.12071557
3	0xbc18c854	-0.009325106
4	0xbdffcd8b	-0.12490376
5	0x3eaf2433	0.34207305
6	0xbda409f5	-0.08009712
7	0x3e72ea39	0.23722161
8	0xbdd0c849	-0.10194451
9	0x3ef5fd6f	0.48044917
10	0x3d916d65	0.071009435
11	0x3e84dc2a	0.25949222
12	0x3e21b178	0.15790355
13	0x3e8f8178	0.28028464
14	0x3ef6950b	0.48160586
15	0xbe6eb7c4	-0.23312289
16	0x3c71ca38	0.014757685
17	0x3e93d22e	0.28871292
18	0xbe44deb4	-0.1922558
19	0xbd68351c	-0.056691274
20	0x3f2066d0	0.6265688
21	0x3f10776f	0.5643224
22	0x3e904087	0.2817423
23	0xbd07a605	-0.033117313
24	0x3e40156b	0.1875817
25	0x3eac1489	0.33609417
26	0xbd9c9b43	-0.07646801
27	0x3c065c6b	0.008200745
28	0x3f24553d	0.64192563
29	0x3f077278	0.5290904
30	0x3ec21112	0.3790365
31	0x3e0ed7ea	0.13949552
32	0x3ef04c49	0.469332
33	0xbdf3207d	-0.11871431
34	0x3e350bc2	0.17680266
35	0x3f0e43cc	0.555722
36	0xbcaa8dde	-0.0208196
37	0xbe01d746	-0.12679777
38	0x3b0c73f4	0.0021431418
39	0x3f143f68	0.5790925
40	0xbdaec53b	-0.085337125
41	0x3f01b241	0.5066262
42	0x3e109c2c	0.14122075
43	0x3dcb7a76	0.09935467
44	0xbe624fa0	-0.22100687
45	0xbddf8946	-0.10914855
46	0x3ec06ba8	0.37582135
47	0x3eb19b27	0.34688684
48	0x3ed45aa3	0.414754
49	0x3f2fbf37	0.68651146
50	0x3decb1fa	0.11557384
51	0x3efd045d	0.4941739
52	0xbe0b3325	-0.13593729
53	0x3f1787c8	0.5919156
54	0x3ef956f7	0.4869916
55	0x3e19a573	0.1500452
56	0xbdd162fc	-0.10223958
57	0x3f3c7a2b	0.73623914
58	0x3eb670cb	0.3563293
59	0x3f2f688d	0.68518907
60	0x3cadd2a7	0.02121861
61	0x3f28a6d1	0.6587954
62	0x3e1c45a6	0.15260944
63	0x3d3bb078	0.04582259
64	0x3ec7feb1	0.39061502
65	0xbd694e15	-0.05695923
66	0x3f094041	0.5361367
67	0x3ec16016	0.3776862
68	0x3e8ae85e	0.27130407
69	0x3f08adc5	0.5339015
70	0x3f294184	0.66115594
71	0x3ca92598	0.020647809
72	0x3dc77a86	0.09740166
73	0xbdc8c9a3	-0.09804084
74	0x3ec085c8	0.37602067
75	0x3df0f2c2	0.117650524
76	0x3de0b273	0.109715365
77	0x3e5e12dd	0.21686883
78	0x3f098d71	0.5373145
79	0xbd7203b7	-0.059085574
80	0xbd98a3b1	-0.07453097
81	0xbe248580	-0.16066551
82	0xbe08f1b3	-0.13373451
83	0x3ebf0d5f	0.3731489
84	0x3e99c861	0.3003569
85	0xbe277a1e	-0.16355178
86	0x3ed9dd90	0.4255185
87	0x3e530522	0.20607427
88	0xbd15415a	-0.036439277
89	0x3e9ed529	0.31022003
90	0x3f138f1e	0.57640254
91	0xbe7d6564	-0.24745709
92	0x3efae8d8	0.4900577
93	0x3d4b3bdc	0.049617633
94	0x3e72f114	0.23724777
95	0x3d4c41c5	0.04986741
96	0x3f101e27	0.5629601
97	0x3f252f5a	0.6452538
98	0xbe161530	-0.1465652
99	0x3eb42e48	0.3519156
100	0x3edb54ea	0.42838222
101	0x3e1131c9	0.14179148
102	0x3e427c8e	0.18992826
103	0x3e81ac94	0.2532698
104	0x3e4e0578	0.20119274
105	0xbe280303	-0.16407399
106	0x3e0793d2	0.13239983
107	0x3e822333	0.2541748
108	0xbe27307c	-0.16327089
109	0x3f23576d	0.63805276
110	0xbe8524f7	-0.26004764
111	0xbe6395af	-0.22225069
112	0xbcb1cd48	-0.021704331
113	0xbcd25d64	-0.025679298
114	0x3f0763ea	0.5288683
115	0x3e0f8cfe	0.14018628
116	0x3d65160a	0.05592922
117	0x3dab6c4d	0.08370266
118	0xbe2e5f11	-0.17028452
119	0x3e949c47	0.2902548
120	0x3f362977	0.7115702
121	0xbceddbbe	-0.029035445
122	0x3e4ea16e	0.20178768
123	0xbe874da7	-0.26426432
124	0x3ed3aa9f	0.4134111
125	0x3f00587b	0.5013501
126	0x3f188779	0.59581715
127	0x3f07683c	0.52893424

shared.2.weight f4 [128, 128]
0	0x3dddef0f	0.108366124
1	0x3d8e96c8	0.06962353
2	0x3e70eaa6	0.23527011
3	0xbd2d41b7	-0.042299
4	0xbe33db09	-0.17564024
5	0x3e29c23f	0.16578005
6	0xbd424dab	-0.04743735
7	0x3ca5ffb9	0.02026354
8	0x3c948da5	0.018133948
9	0x3c6b3072	0.014354812
10	0xbae0b93c	-0.0017145048
11	0x3c926c33	0.017873859
12	0x3dafe463	0.08588483
13	0x3b7d1595	0.00386176
14	0x3de667d3	0.11250272
15	0x3e99617b	0.29957184
16	0x3da58f8e	0.080840215
17	0x3c9ab3ca	0.018884558
18	0xbd867ce8	-0.06566793
19	0x3e3221b5	0.1739567
20	0x3db0dd17	0.086359195
21	0x3e136c4c	0.1439678
22	0x3d28c239	0.04120085
23	0x3de84d27	0.11342841
24	0x3d9a627b	0.07538315
25	0x3e46fdac	0.19432706
26	0x3e0ed1fa	0.13947287
27	0xbce5ea98	-0.028065965
28	0x3d060a9c	0.03272496
29	0x3e42b1c9	0.19013132
30	0x3d6388a0	0.055550218
31	0xbc039093	-0.008030075
32	0xbd2b0334	-0.0417511
33	0x3e4c60d8	0.19958818
34	0x3e8c8fe3	0.27453527
35	0x3e534d9f	0.20635079
36	0x3ca53359	0.020166086
37	0x3da0a7f8	0.078445375
38	0x3c89d88c	0.01682689
39	0x3e69d470	0.22834945
40	0xbc66b7d2	-0.014081912
41	0x3c8f19a0	0.017468274
42	0x3e2433fa	0.16035452
43	0x3dc6903f	0.096954815
44	0xbd4929d2	-0.04911215
45	0x3e38130d	0.17976017
46	0xbc40b878	-0.011762731
47	0x3e0f1e5b	0.13976423
48	0x3cd58b0f	0.026067285
49	0x3e3e16cc	0.18563384
50	0x3e51e2fb	0.20496742
51	0x3da18d5e	0.07888292
52	0x3dd50b7f	0.10402583
53	0x3d586934	0.052834705
54	0xbd5c77a6	-0.053825043
55	0x3c77bcb5	0.015120675
56	0x3e4ad21c	0.19806713
57	0x3d163694	0.036673144
58	0x3ddaceb2	0.10683955
59	0x3e1c36f9	0.15255345
60	0x3dbf430b	0.09338959
61	0xbb0abca4	-0.0021169567
62	0x3e21636f	0.15760587
63	0x3c93ab79	0.0180261
64	0xbd009562	-0.031392463
65	0x3e519251	0.20465972
66	0x3c70a509	0.014687785
67	0x3d93cd41	0.072168835
68	0x3da74026	0.08166532
69	0x3d0e5f92	0.03475911
70	0x3db1c42f	0.08679997
71	0xbd65c1a0	-0.05609286
72	0x3d9ac63d	0.07557342
73	0x3c571070	0.013126478
74	0x3d73f2eb	0.059557837
75	0x3d142720	0.036170125
76	0xba984550	-0.0011617336
77	0x3e1d08bc	0.15335363
78	0x3ddda1aa	0.108218506
79	0xbcdf9aad	-0.027295435
80	0x3d645c15	0.05575188
81	0x3e0001b0	0.12500644
82	0xbda58f1b	-0.08083936
83	0x3dff0b82	0.12453367
84	0x3c765849	0.015035697
85	0xbdda3f9b	-0.10656663
86	0x3d69f610	0.05711943
87	0x3d41202e	0.04714983
88	0x3cf8e3fd	0.03038215
89	0x3e734164	0.23755413
90	0x3e2f107f	0.17096137
91	0x3e76736c	0.24067467
92	0x3e1d9cc1	0.15391828
93	0xbdb6386d	-0.08897481
94	0x3def1004	0.116729766
95	0x3d552931	0.052041236
96	0x3e2deb41	0.16984273
97	0x3e613b34	0.2199524
98	0x3d8b1b0f	0.067922704
99	0x3db1625f	0.08661341
100	0x3bf8dd46	0.007594737
101	0xbd933c00	-0.071891785
102	0x3e2b45c3	0.1672583
103	0x3e43de9d	0.19127889
104	0x3e2c34ef	0.16817068
105	0x3e31b1a7	0.17352925
106	0x3d89563c	0.06705901
107	0x3d2f9c09	0.042873416
108	0xbd13571a	-0.03597174
109	0x3dc6885b	0.096939765
110	0xbdd1070e	-0.10206424
111	0x3d2bcea8	0.04194513
112	0x3cefb51c	0.029261164
113	0x3dc80f2f	0.09768521
114	0x3e1051f5	0.14093764
115	0xbbdf7b1d	-0.006820096
116	0x3e33d8ca	0.17563167
117	0x3e29724a	0.16547504
118	0xbca13165	-0.019676873
119	0xbc5ce6a3	-0.013482722
120	0xbc1739c7	-0.009230084
121	0xbd8df026	-0.0693057
122	0xbcf78965	-0.030216882
123	0xbde1025a	-0.10986777
124	0x3c83a07a	0.016067732
125	0x3e08ae1e	0.1334767
126	0x3d80439a	0.06262894
127	0x3dd1316e	0.10214506
128	0x3da222ef	0.07916819
129	0x3da9442a	0.082649544
130	0x3e1a5efd	0.15075298
131	0x3d86323b	0.065525495
132	0xbe5ba39b	-0.2144913
133	0x3e455890	0.19272065
134	0xbb6b266b	-0.0035881053
135	0x3d6c64a3	0.057713162
136	0x3c64b220	0.013958484
137	0x3e173829	0.14767517
138	0x3d490577	0.049077477
139	0x3d06534a	0.032794274
140	0x3d9c538f	0.07633125
141	0xbd1ee7ff	-0.038795467
142	0x3cb96150	0.02262941
143	0x3e8b66a3	0.27226743
144	0x3dd86ec1	0.10568
145	0x3e06a969	0.13150562
146	0xbe6d33a0	-0.23164225
147	0x3e0ae0ba	0.13562289
148	0x3e027272	0.1273897
149	0x3d5dd108	0.054154426
150	0x3dbe8548	0.09302765
151	0x3dd453dc	0.103675574
152	0x3d65fdc1	0.0561502
153	0x3dfb23a1	0.12262655
154	0x3bb3c63b	0.0054862774
155	0xbe0c63f5	-0.13710006
156	0x3dd099a9	0.10185558
157	0x3e20cf0a	0.15703979
158	0xbda797c8	-0.08183247
159	0x3c556591	0.013024704
160	0xbd1d6ffc	-0.038436875
161	0x3e76802a	0.24072328
162	0x3e4d51cb	0.20050733
163	0x3d99ffdf	0.07519507
164	0x3c19673d	0.009362993
165	0x3d0fce94	0.035109118
166	0x3c2dcef4	0.0106084235
167	0x3e78d818	0.24301183
168	0x3bca7747	0.0061787697
169	0x3b709523	0.0036709986
170	0x3e55177d	0.20809741
171	0x3e3572e4	0.17719609
172	0xbcb3a671	-0.021929951
173	0x3e0f75e0	0.1400981
174	0x3d4838bc	0.04888223
175	0x3d8759e9	0.06608946
176	0x3d23f700	0.04003048
177	0x3d19b468	0.037525564
178	0x3e4554b8	0.19270599
179	0x3e3bec92	0.18351963
180	0x3cc4043e	0.023927804
181	0x3e26bf47	0.16283904
182	0xbb1a4a03	-0.002354265
183	0xbd89d4a2	-0.067300096
184	0x3dcc274f	0.09968435
185	0x3e17c810	0.14822412
186	0x3e09332c	0.13398427
187	0x3df560cd	0.11981354
188	0x3d6bab3f	0.05753636
189	0x3e08ba3e	0.13352296
190	0x3d343a4b	0.044000905
191	0xbdfb11d5	-0.122592606
192	0xbd2ba1f7	-0.04190251
193	0x3e09db09	0.13462462
194	0x3e026a91	0.12735964
195	0x3dafa878	0.08577055
196	0x3e098cec	0.13432664
197	0x3d0ff4a8	0.03514543
198	0x3d4f0a7c	0.050547108
199	0xbd8b31b3	-0.06796589
200	0x3e054287	0.1301366
201	0x3d760152	0.060059853
202	0x3e046b3a	0.12931529
203	0x3b0ed7cb	0.0021796103
204	0xbd82fc5c	-0.0639579
205	0x3da89d7b	0.08233162
206	0x3ddccee2	0.10781647
207	0x3e005db4	0.12535745
208	0x3bdd5354	0.0067543183
209	0x3dade5ff	0.08491134
210	0xbe56ff56	-0.2099584
211	0x3d7d425d	0.061830867
212	0x3e1a8e8f	0.15093444
213	0xbdc6e230	-0.097111106
214	0x3c45ca07	0.012072093
215	0x3e256bfd	0.16154476
216	0x3c5e8c11	0.013583199
217	0x3dfa6b33	0.12227478
218	0x3e0e4790	0.13894486
219	0x3e07f543	0.13277154
220	0x3dce8f2d	0.10085902
221	0xbe1210fd	-0.14264293
222	0x3cd35396	0.025796693
223	0x3e1a0c1f	0.15043686
224	0x3e552691	0.20815493
225	0x3e636806	0.2220765
226	0x3e18b570	0.14912963
227	0x3d963897	0.073350124
228	0x3c1516bf	0.009099661
229	0xbd8c8e66	-0.06863098
230	0x3de80192	0.113284245
231	0x3e29da7a	0.16587248
232	0x3c8e1d2a	0.01734789
233	0x3d80a208	0.06280905
234	0x3dd8a9ff	0.10579299
235	0x3da8e13d	0.08246086
236	0xbd45504f	-0.04817229
237	0x3ca5286e	0.02016088
238	0xbe49c404	-0.1970368
239	0xbd05ddf4	-0.032682374
240	0x3c6d56da	0.014486039
241	0x3aa95c24	0.0012921137
242	0x3e1d6a16	0.153725
243	0x3dc1f678	0.09470838
244	0x3d324a13	0.043527674
245	0x3e68fcf1	0.2275274
246	0xbda981d7	-0.08276718
247	0x3d7824af	0.06058186
248	0x3b1db704	0.0024065385
249	0xbd6ecd54	-0.058301285
250	0x3d2dda8c	0.04244475
251	0xbe5c5951	-0.21518447
252	0x3d832601	0.06403733
253	0x3e36f3df	0.17866467
254	0xbc119217	-0.008884928
255	0x3dce941e	0.10086845

shared.2.bias f4 [128]
0	0x3e468143	0.19385247
1	0x3db37ab1	0.08763636
2	0xbc596c94	-0.013270516
3	0x3e0f20be	0.13977334
4	0x3e3d21eb	0.1846997
5	0x3da60cb1	0.081078894
6	0x3e382dbb	0.17986195
7	0x3d0dbbfa	0.034603097
8	0x3e156bc0	0.14591885
9	0x3c23eb5c	0.0100048445
10	0xbd858a7b	-0.06520554
11	0x3dfac620	0.122448206
12	0x3e17ef8b	0.14837472
13	0x3dab63d2	0.083686486
14	0xbc9293cd	-0.017892743
15	0xbd2d04cb	-0.0422409
16	0x3db29d53	0.087214135
17	0x3d8f56dc	0.06998989
18	0xbd0a1a89	-0.033716712
19	0x3daa2753	0.08308282
20	0x3e4fa246	0.20276746
21	0x3d43bcb6	0.04778739
22	0x3d48535d	0.048907626
23	0x3e4f964c	0.20272177
24	0x3d053a28	0.032526165
25	0x3e03385b	0.12814467
26	0x3e28dbec	0.16490144
27	0xbd8ff25a	-0.07028647
28	0x3e60f26d	0.21967478
29	0x3e111385	0.14167602
30	0x3d55b0ac	0.05217044
31	0xbdc453a0	-0.09586263
32	0x3deca90c	0.11555681
33	0x3e20a3c9	0.15687479
34	0x3d9fa4b7	0.07795089
35	0x3d935545	0.07193998
36	0x3cb70e2a	0.022345621
37	0xbdb21d20	-0.086969614
38	0x3e008fb1	0.12554814
39	0xbdb592dc	-0.08865902
40	0x3e56bea0	0.20971155
41	0x3dccb851	0.09996093
42	0x3ca1e430	0.019762129
43	0x3dd44da5	0.10366372
44	0x3e086161	0.13318397
45	0x3c27f480	0.010251164
46	0xbd2645d5	-0.04059394
47	0x3c98ea63	0.018666452
48	0x3da49e59	0.08038015
49	0x3e213286	0.1574193
50	0x3d843808	0.064559996
51	0xbdab1e6f	-0.08355414
52	0xbd1e319e	-0.038621537
53	0xbe0b9658	-0.1363157
54	0x3c8e7e4f	0.017394213
55	0x3daa789a	0.08323784
56	0x3d966567	0.0734356
57	0xbdab0272	-0.08350076
58	0x3dea806e	0.11450277
59	0x3d90ae80	0.07064533
60	0x3cc2c5c2	0.023775939
61	0xbd9392a3	-0.07205703
62	0x3da8fde8	0.08251554
63	0xbd8041b5	-0.062625326
64	0x3cdf65f1	0.02727029
65	0x3e3bffc5	0.18359287
66	0x3e7f57cf	0.2493584
67	0x3d8f4138	0.06994861
68	0x3e63f20d	0.22260304
69	0x3c72d355	0.014820893
70	0x3e317883	0.17331128
71	0x3e2bc148	0.1677295
72	0x3e328027	0.17431699
73	0x3d3070d5	0.043076355
74	0xbd85c2ad	-0.06531272
75	0x3dbd06f7	0.09229844
76	0x3cc3c862	0.02389926
77	0x3d93a217	0.072086506
78	0x3d5706c3	0.052496683
79	0xbd959767	-0.07304268
80	0x3c482e38	0.012218051
81	0x3e016341	0.12635519
82	0x3e0435ef	0.12911199
83	0xbe0209cb	-0.12699048
84	0xbdb75464	-0.08951643
85	0x3e0fa1e3	0.14026599
86	0xbdb0bfd8	-0.08630341
87	0x3d8a0418	0.06739062
88	0x3df4b60f	0.119487874
89	0x3c3f1a7c	0.011664029
90	0x3e50727d	0.20356174
91	0xbcf0c3fd	-0.02939033
92	0x3ddcc859	0.10780401
93	0xbdb8b73d	-0.09019325
94	0x3ced2e37	0.028952701
95	0x3e44613e	0.1917772
96	0xbded4409	-0.11585242
97	0x3d28f1a8	0.041246086
98	0x3d85072f	0.06495511
99	0x3c484de8	0.012225606
100	0x3e456cc2	0.19279769
101	0x3e0b7b58	0.1362127
102	0x3dfa9833	0.12236061
103	0x3d9608d4	0.073259026
104	0xbd718c93	-0.058971953
105	0x3d8399b9	0.06425805
106	0x3de40eb2	0.111356154
107	0x3cfc16cd	0.030772591
108	0x3dd1b9fb	0.10240551
109	0x3d98d156	0.07461803
110	0x3e12cfb8	0.14337051
111	0x3d9f43e4	0.07776621
112	0x3d1feb04	0.039042488
113	0x3d89da60	0.06731105
114	0x3be32029	0.006931324
115	0x3e019516	0.12654528
116	0x3e35e14f	0.1776173
117	0x3d9523f7	0.072822504
118	0xbd643567	-0.05571499
119	0xbcb40d25	-0.021978924
120	0x3d98a218	0.07452792
121	0x3d5479ca	0.05187396
122	0x3de5f41c	0.11228201
123	0x3db3e6f1	0.08784283
124	0x3e63b966	0.22238693
125	0x3d88b3e7	0.06674939
126	0x3e4a0247	0.19727431
127	0x3e6019f7	0.21884905

actor.weight f4 [3, 128]
0	0x3c625258	0.013813578
1	0x3c5a34ef	0.013318284
2	0x3d840d58	0.064478576
3	0xbc2894af	-0.010289355
4	0x3da4f458	0.08054417
5	0x3dc33b15	0.095327534
6	0x3d99eaa5	0.07515458
7	0xbd629c71	-0.055324975
8	0xbcb6f4d3	-0.022333538
9	0xbd818bf7	-0.06325524
10	0xbc405f49	-0.011741468
11	0x3d3eb857	0.04656252
12	0xbd65fc05	-0.056148548
13	0x3c89a8f0	0.016804188
14	0x3c5bb4e6	0.013409829
15	0xbe10f8d2	-0.14157417
16	0xbdb8e043	-0.090271495
17	0x3d8dbecb	0.069211565
18	0x3c36f139	0.01116591
19	0xbc32487a	-0.010881538
20	0x3caec771	0.021335335
21	0xbd569e65	-0.05239715
22	0xbd9db61f	-0.077007525
23	0x3dc9b8cb	0.098496996
24	0xbd2669b2	-0.040628143
25	0xbd980f17	-0.07424753
26	0x3db9013e	0.0903344
27	0x3cfaa6a7	0.030597044
28	0x3d0cabe7	0.034343626
29	0x3d96db45	0.07366041
30	0x3c9445f2	0.018099759
31	0xba39c2b0	-0.00070862006
32	0xbd10c96a	-0.035348333
33	0x3d0d7177	0.034532037
34	0x3d0a7ab4	0.033808425
35	0x3da490b7	0.08035415
36	0xbcf45498	-0.029825494
37	0xbcf1f41b	-0.029535344
38	0x3de38c88	0.111107886
39	0x3cdfbef6	0.027312737
40	0xbd49ffc0	-0.049316168
41	0x3cbd535a	0.023111034
42	0xbdc926b7	-0.098218374
43	0xbd665530	-0.056233585
44	0x3d0e3a55	0.0347236
45	0x3caeba83	0.02132917
46	0x3d0dd745	0.034629125
47	0xbd8d8d09	-0.06911666
48	0x3de06ffe	0.10958861
49	0x3d320f4d	0.043471623
50	0xbd32a5c5	-0.04361512
51	0x3d4332e8	0.04765597
52	0xbd80c9b4	-0.06288472
53	0x3d438f13	0.047743868
54	0x3dbea7c5	0.09309343
55	0xbb1f904e	-0.0024347487
56	0x3bb633f1	0.005560391
57	0x3beb7634	0.007185722
58	0x3da268aa	0.07930119
59	0xbd6f747b	-0.058460694
60	0xbd901010	-0.07034314
61	0x3d9e9e7f	0.077450745
62	0xbd97fc7e	-0.07421206
63	0x3e70fe4f	0.23534511
64	0xbd97ff3f	-0.07421731
65	0x3dce3b10	0.10069859
66	0xbd92b6fc	-0.07163808
67	0xbd07d30d	-0.033160258
68	0xbd5089bd	-0.050912607
69	0x3d80efd3	0.06295743
70	0x3d1769b2	0.036966033
71	0x3c66051c	0.014039304
72	0xbd98132d	-0.074255325
73	0xba4afec2	-0.00077436503
74	0xbdd804f3	-0.10547819
75	0x3dcf7cdd	0.10131238
76	0xbc7b0ccb	-0.015322874
77	0x3dac5d26	0.08416204
78	0x3d0cc9fb	0.03437231
79	0xbd5a1bb4	-0.053249076
80	0xbc8c40dd	-0.017120773
81	0x3d41b967	0.047295954
82	0x3d99652d	0.07490001
83	0x3dd7cbb5	0.10536901
84	0x3dc516f3	0.09623518
85	0x3d5f2228	0.054475933
86	0x3d214795	0.039374907
87	0xbbc61195	-0.0060445764
88	0xbd926efe	-0.07150076
89	0xbd2f72a7	-0.04283395
90	0x3b56b1b6	0.0032759733
91	0xbd41e7c8	-0.047340184
92	0x3dc152b0	0.094395995
93	0xbd8152ec	-0.06314644
94	0xbe4df4bd	-0.20112891
95	0xbb7f9cce	-0.0039003375
96	0xbd6f9ce9	-0.05849925
97	0x3d7c10f9	0.061539624
98	0xbd4dc90d	-0.050240565
99	0x3d2ebc61	0.04266012
100	0x3da59ea9	0.08086903
101	0x3c7a6775	0.015283455
102	0x3cdac26f	0.026704041
103	0xbc7e15c8	-0.015508123
104	0x3a7b8311	0.00095944206
105	0x3d40b8ff	0.047051426
106	0xbb3742f2	-0.0027963487
107	0xbd000a6c	-0.03125994
108	0xb86a3704	-5.5841185e-05
109	0x3d3a712a	0.045518078
110	0xbc814b49	-0.01578297
111	0x3c3f58df	0.011678903
112	0x3d96ff7c	0.073729485
113	0xbc5306b3	-0.012880015
114	0x3dd92eb9	0.10604615
115	0xbd8505fc	-0.06495282
116	0xbbef358f	-0.007300086
117	0x3da651a9	0.08121044
118	0xbdfdab65	-0.123862065
119	0xbd5896c9	-0.052878175
120	0x3d90cd81	0.07070447
121	0xbb017df1	-0.0019758905
122	0xbd594401	-0.05304337
123	0x3c8abe6c	0.016936503
124	0xbd79366f	-0.060842928
125	0x3d2ee967	0.04270306
126	0xbda51869	-0.080612965
127	0xbc9858bd	-0.018597001
128	0xbddd104f	-0.10794126
129	0x3d0ace3a	0.03388808
130	0x3d8ddd36	0.06926958
131	0xbd38964f	-0.04506522
132	0x3cce85d6	0.025210302
133	0xbbdc1e06	-0.0067174463
134	0xbce00c8f	-0.027349738
135	0xbdd96451	-0.10614837
136	0xbca3229a	-0.01991396
137	0x3c6c6670	0.01442872
138	0x3b0684a5	0.002052584
139	0xbb9202e4	-0.004455911
140	0x3c9893be	0.018625136
141	0x3cc4dce2	0.024031106
142	0xbced4fa2	-0.028968636
143	0xbd441f4b	-0.047881406
144	0xbde8d55b	-0.11368819
145	0xbda8e752	-0.08247246
146	0x3c815eba	0.01579224
147	0xbdb9a881	-0.09065343
148	0x3d45d3d8	0.048297733
149	0xbd87d9f2	-0.06633367
150	0xbbe59070	-0.0070057437
151	0x3c722c20	0.014781028
152	0xbbaeb7be	-0.0053319624
153	0xbd15942c	-0.03651826
154	0xbd07c4e5	-0.033146758
155	0x3d62fa2a	0.055414356
156	0x3c887c5d	0.016660864
157	0x3d157c20	0.036495328
158	0x3b17bb88	0.0023152549
159	0x3d384d03	0.04499532
160	0x3bbef2c6	0.0058272807
161	0xbdcd746e	-0.10031973
162	0xbdde5c39	-0.10857434
163	0x3d0c351d	0.03423034
164	0xbd7fc867	-0.062446978
165	0x3da65f1d	0.0812361
166	0xbc774e96	-0.01509442
167	0x3d0752fe	0.033038132
168	0x3d666000	0.056243896
169	0x3cbc8823	0.023014134
170	0xbc99d28a	-0.01877715
171	0xbcc4dfbe	-0.02403247
172	0x3c88fa45	0.0167209
173	0x3d972b4a	0.073813036
174	0xbdb3e601	-0.08784104
175	0xbdf54a8e	-0.11977111
176	0x3c41bfbb	0.011825497
177	0xbdaedd8f	-0.08538353
178	0x3cfdd95e	0.030987438
179	0x3d921bcc	0.07134208
180	0xbd82f9a9	-0.06395275
181	0x3d2238ba	0.03960488
182	0xbc8a393c	-0.016872995
183	0x3cba55bc	0.02274596
184	0xbcb2eaa2	-0.021840397
185	0xbd012f0a	-0.031539
186	0xbdcbfa9d	-0.0995991
187	0xbd9c4818	-0.07630938
188	0xbd7bc3b3	-0.06146593
189	0x3d7315c6	0.059346937
190	0xbb7073c7	-0.0036690102
191	0xbdcfef06	-0.10153012
192	0x3d47ecb1	0.04880971
193	0xbbb4e738	-0.0055207275
194	0x3cd93065	0.026512334
195	0x3d29b360	0.04143083
196	0xbdbcc23e	-0.09216736
197	0x3ceda96b	0.029011449
198	0x3d819c42	0.06328632
199	0xbd5ec537	-0.054387297
200	0xbd80e2b9	-0.06293244
201	0xbd854856	-0.065079376
202	0x3c4eba64	0.012617681
203	0x3d035dc0	0.03207183
204	0xbd7d4645	-0.061834592
205	0x3b514fd2	0.0031938446
206	0xbd0d3a87	-0.034479644
207	0xbd6f9d08	-0.058499366
208	0xbda3207e	-0.07965182
209	0x3c8cd9a1	0.017193617
210	0xbdcc671c	-0.09980604
211	0xbd100ca1	-0.035168294
212	0xbdb01092	-0.085969105
213	0xbd248a91	-0.04017121
214	0x3d6b7390	0.057483256
215	0xbc821cfe	-0.015882965
216	0x3be0f81e	0.0068655154
217	0xbda04f14	-0.07827583
218	0xbc440c8f	-0.011965885
219	0xbc2bffba	-0.010497982
220	0xbd9a4113	-0.07531943
221	0xbda4ce28	-0.08047134
222	0xbde7421f	-0.112919085
223	0xbdb56c05	-0.08858494
224	0x3ce5f974	0.02807305
225	0x3a4472c8	0.00074939104
226	0x3d330d66	0.04371395
227	0x3ca52dac	0.02016338
228	0xbb58137d	-0.00329706
229	0x3cc371a7	0.023857905
230	0x3cb103f5	0.021608332
231	0x3d9a8de5	0.075465955
232	0xbcaf40d9	-0.021393226
233	0xbd9ddc22	-0.077080026
234	0xbdee902e	-0.11648594
235	0xbd8333c6	-0.064063594
236	0xbd953c51	-0.07286895
237	0x3c769ba7	0.015051759
238	0xbbd46c6d	-0.006482652
239	0xbdd9556b	-0.10611995
240	0xbb9fd88e	-0.0048781103
241	0xbda30ea5	-0.079617776
242	0xbdb9f9d3	-0.09080853
243	0x3d16b699	0.036795232
244	0x3cb40bab	0.02197822
245	0xbdd047c8	-0.10169941
246	0xbd9b71db	-0.075900756
247	0xbd58ed7e	-0.052960865
248	0xbd92456e	-0.07142149
249	0x3c0ccb8a	0.008593449
250	0xbbc84be4	-0.0061125625
251	0xbbd9bd59	-0.0066448865
252	0x3b97468e	0.004616565
253	0x3c0fc239	0.008774334
254	0xbdf97610	-0.12180722
255	0xbdbb35c3	-0.091411136

actor.bias f4 [3]
0	0x3d1c93c5	0.03822686
1	0xbdcce0e1	-0.1000383
2	0xbc6e074a	-0.014528105

critic.weight f4 [1, 128]
0	0xbe21747d	-0.15767093
1	0xbe186a72	-0.14884356
2	0x3d5bcada	0.05366025
3	0xbe18a90e	-0.14908239
4	0xbe2d3f61	-0.16918708
5	0xbe21403b	-0.15747158
6	0xbe3c09fd	-0.18363185
7	0x3e3e52bb	0.18586247
8	0xbe12eeb7	-0.14348875
9	0x3e6c45eb	0.23073547
10	0x3dd20ce3	0.10256364
11	0xbe027a2c	-0.12741917
12	0xbdcbc526	-0.099497125
13	0xbe3564e3	-0.17714266
14	0x3d79d3bb	0.060992938
15	0x3e3038f4	0.17209226
16	0x3ddb226c	0.10699925
17	0x3da5bf71	0.08093155
18	0x3e72e274	0.23719198
19	0xbe340899	-0.17581405
20	0xbe20a386	-0.15687379
21	0x3d83af71	0.06429947
22	0xbe223fec	-0.15844697
23	0xbdc245c7	-0.09485965
24	0x3d8bbd1a	0.06823178
25	0xbe0e77d7	-0.13912903
26	0xbde35331	-0.11099852
27	0x3d646571	0.055760805
28	0xbe0517a1	-0.12997295
29	0xbe0fd7cc	-0.14047164
30	0x3d5f4936	0.05451318
31	0x3deff1b6	0.117160246
32	0xbdd6792f	-0.10472333
33	0xbe300255	-0.1718839
34	0xbe2ad462	-0.1668258
35	0x3d8da439	0.069160886
36	0x3d9b1fbd	0.07574413
37	0x3d3e5919	0.04647169
38	0xbe20cf13	-0.15703993
39	0x3da85423	0.08219173
40	0xbe0e73d8	-0.13911378
41	0xbe1394b9	-0.14412202
42	0x3e79e4ba	0.24403659
43	0xbe132704	-0.14370352
44	0xbe235691	-0.15950991
45	0xbdad968d	-0.08475981
46	0x3e776203	0.24158482
47	0x3e80c4c9	0.25150135
48	0x3e74bdf4	0.23900586
49	0xbddbbc76	-0.107293054
50	0xbe3627f8	-0.17788684
51	0x3d2b2795	0.041785795
52	0x3c629cbe	0.013831316
53	0x3e8a6738	0.27031875
54	0x3e7b1223	0.24518637
55	0xbdecd4fc	-0.11564061
56	0xbe453707	-0.19259273
57	0x3d170a7e	0.03687524
58	0xbe2316b6	-0.15926632
59	0xbe391ef6	-0.18078217
60	0x3d97eaf6	0.07417862
61	0x3cd5c44f	0.026094584
62	0xbe363fa9	-0.17797722
63	0x3e802b44	0.2503301
64	0x3d52f858	0.05150637
65	0xbe43bcda	-0.1911501
66	0xbdc6bffd	-0.097045876
67	0x3e2f4721	0.17116977
68	0xbe0bfd6c	-0.13670892
69	0x3cdef1a6	0.027214836
70	0xbe00f6d9	-0.12594165
71	0xbe40147c	-0.18757814
72	0xbe2a7962	-0.16647866
73	0x3d60946d	0.05482905
74	0x3e5de497	0.21669231
75	0xbe368daa	-0.17827478
76	0x3e81b85c	0.25335968
77	0xbdeaadb4	-0.114589125
78	0x3e78b4ea	0.24287763
79	0x3e75df18	0.24010885
80	0x3e8518f1	0.2599559
81	0xbe2ab379	-0.16670026
82	0xbe0783d5	-0.13233884
83	0x3e74bc0a	0.23899856
84	0x3e705ee5	0.234737
85	0xbe137e49	-0.14403643
86	0x3da8b7ff	0.082382195
87	0x3e681093	0.22662573
88	0xbe45bcf9	-0.19310369
89	0x3d3fe298	0.046846956
90	0xbe12b0d1	-0.14325263
91	0x3c42a857	0.011880956
92	0xbe01d37e	-0.12678334
93	0x3d256f21	0.040389184
94	0x3e47b466	0.1950241
95	0xbe378495	-0.1792167
96	0x3e207f5b	0.15673582
97	0x3e075bed	0.1321866
98	0x3c956d35	0.01824055
99	0x3cc44269	0.023957448
100	0xbe2907f9	-0.16506948
101	0xbe148cd8	-0.14506853
102	0xbe37b7be	-0.17941186
103	0x3d7f22ee	0.06228917
104	0x3d675dd0	0.05648595
105	0x3b8b901a	0.0042591216
106	0xbe069c15	-0.13145478
107	0x3cfe22fe	0.031022545
108	0xbe0f29c0	-0.1398077
109	0xbe20511a	-0.15655938
110	0xbe12112d	-0.14264365
111	0xbe08091b	-0.13284723
112	0x3e86f662	0.2635985
113	0xbe45960d	-0.19295521
114	0x3e5ba45f	0.21449421
115	0xbe380b31	-0.17973019
116	0xbe1183f0	-0.14210486
117	0xbe39281c	-0.18081707
118	0x3e870835	0.2637345
119	0x3d896680	0.067090034
120	0xbe3cb55d	-0.1842856
121	0x3d98973d	0.074507214
122	0xbe3597cb	-0.17733686
123	0xbddcd279	-0.10782332
124	0xbe00acae	-0.12565872
125	0xbe28d7c4	-0.16488558
126	0xbdfb1432	-0.12259711
127	0xbe07dec5	-0.13268574

exp_avg f4 [128, 6]
0	0x3d9fe05e	0.078064665
1	0x3d31f049	0.043442044
2	0x3deefbce	0.11669122
3	0x3db95a0b	0.090503775
4	0x3e5704a0	0.20997858
5	0x3df1960d	0.11796198
6	0x3c2e5b6a	0.010641912
7	0xbcd155ed	-0.025553668
8	0x3da0912b	0.078401886
9	0x3e076c78	0.13224971
10	0x3cade1a3	0.021225756
11	0x3edeb3c0	0.43496513
12	0xbe5071f8	-0.20355976
13	0x3ebec3f4	0.37258875
14	0xbf0fbafd	-0.56144696
15	0x3ea9d463	0.3316985
16	0x3f232c21	0.6373921
17	0xc01dadde	-2.463737
18	0xbd38f669	-0.04515687
19	0x3cd4790a	0.025936622
20	0xbd127394	-0.035754755
21	0xbd423295	-0.04741152
22	0xbb20cbbe	-0.0024535502
23	0xbef53b20	-0.4789667
24	0xbe3708e0	-0.1787448
25	0x3c1b1e3c	0.009467658
26	0x3dca6715	0.098829426
27	0xbeba5264	-0.36390984
28	0x3fd2be00	1.6464233
29	0xbecfb78d	-0.40569726
30	0x3ddef9e6	0.10887508
31	0x3e4cd509	0.20003141
32	0x3e8d5c12	0.27609307
33	0x3e9263e7	0.28591844
34	0x40280a18	2.625616
35	0xc022bb9e	-2.5427012
36	0xbd351574	-0.044209912
37	0xbd952919	-0.072832294
38	0x3cd24eab	0.025672277
39	0xbc50d3ba	-0.012745792
40	0xbf8ecc93	-1.1156181
41	0x3fd65363	1.6744198
42	0xbc71fcb9	-0.014769726
43	0x3e7fbf7b	0.24975388
44	0xbe2d462b	-0.16921298
45	0x3e22b7ac	0.15890378
46	0x3f9dae49	1.2318813
47	0xc01ee610	-2.482792
48	0xbe9168cf	-0.28400275
49	0xbc1201bf	-0.008911549
50	0x3e4f693c	0.20254987
51	0xbe74a44d	-0.23890801
52	0xbf991071	-1.1958143
53	0x406884fb	3.6331165
54	0xbdd8657e	-0.10566233
55	0xbd834747	-0.064100794
56	0xbd88c0d9	-0.06677408
57	0x3e28af5a	0.16473141
58	0xbe153eb4	-0.145747
59	0x3e6771d9	0.22602023
60	0x3c981cb3	0.018568372
61	0xbc848d76	-0.016180735
62	0x3d0be132	0.03415031
63	0xbda03a1f	-0.07823586
64	0x3e4106b8	0.18850219
65	0xbea10cb5	-0.31455007
66	0xbcd04dad	-0.025427664
67	0x3b92eb5e	0.0044836244
68	0xbcc77cc9	-0.024351494
69	0x3aaf5bbc	0.0013378779
70	0xbb578472	-0.003288534
71	0xbe52d9ea	-0.2059094
72	0x3e2e98dd	0.170505
73	0xbe819832	-0.25311428
74	0x3e8fe66d	0.28105488
75	0x3dbfd52b	0.093668304
76	0x3fc9de52	1.5770972
77	0xc0177ac9	-2.3668692
78	0xbbf20d78	-0.0073868595
79	0xbcb3b6a7	-0.021937681
80	0x3c2d8d56	0.010592779
81	0xbcc97a2e	-0.024594393
82	0x3ceed8d3	0.029156124
83	0xbd72147e	-0.059101574
84	0xbc8f28ce	-0.017475512
85	0x3d00f30d	0.03148179
86	0xbdb99b1c	-0.09062788
87	0x3d4b6d1b	0.049664598
88	0x3e64a078	0.22326839
89	0xbdc194e3	-0.09452226
90	0xbd1a0b41	-0.03760839
91	0x3e0d0659	0.13771953
92	0xbf36e1be	-0.71438205
93	0x3d666b20	0.056254506
94	0x40016355	2.0216877
95	0xc0b97be5	-5.796374
96	0x3d6553a7	0.05598798
97	0xbd5bf240	-0.053697824
98	0xbce09b7f	-0.027417896
99	0x3d080a0c	0.033212706
100	0x3f0cb4f4	0.5496361
101	0xbfa5cb4e	-1.2952669
102	0x3d7fd748	0.062461168
103	0x3e94d579	0.29069117
104	0xbc317a4c	-0.0108323805
105	0x3e14a95a	0.14517727
106	0x3f9f0f94	1.2426629
107	0xbfe93b99	-1.8221313
108	0xbe5f28e7	-0.21792947
109	0x3c9ddb45	0.019269595
110	0xbd8d886e	-0.069107875
111	0xbf0a7e83	-0.5409929
112	0xbf0b32cf	-0.543744
113	0x40463140	3.096756
114	0x3d7d8f5c	0.061904296
115	0x3f01ea29	0.50747925
116	0xbcfc660c	-0.030810378
117	0x3e7681fc	0.24073023
118	0x3fa77cc0	1.3084946
119	0xbfc01c5c	-1.5008655
120	0x3dbf9786	0.09355073
121	0x3e8c866e	0.27446312
122	0xbd9af9d7	-0.075671844
123	0x3ec1ee90	0.3787732
124	0x4018c667	2.3871095
125	0xc0594a41	-3.395157
126	0x3e177d65	0.14793928
127	0x3ea756c0	0.32683372
128	0x3e4ebfef	0.20190404
129	0x3ee5b943	0.44867906
130	0x4040fec2	3.0155492
131	0xc058a2de	-3.3849406
132	0xbd9eae2c	-0.077480644
133	0xbe171bc4	-0.14756685
134	0xbd43d58d	-0.04781108
135	0x3e737a24	0.23777062
136	0xb959b3b4	-0.00020761677
137	0xbe650962	-0.2236686
138	0x3e62a67a	0.22133818
139	0xbe3db51e	-0.18526122
140	0x3dd78c2f	0.10524785
141	0x3dc6c75e	0.09705995
142	0x3fb9bb3f	1.4510268
143	0xbfead993	-1.8347648
144	0xbc1074ac	-0.008816879
145	0x3ae7ea2a	0.0017693688
146	0xb9dfebee	-0.00042709656
147	0x397ff620	0.00024410384
148	0xbc9741ee	-0.018464055
149	0xbd6f5e3f	-0.05843949
150	0x3e29dd02	0.16588214
151	0x3e0c1db7	0.1368321
152	0xbcf412ed	-0.02979418
153	0x3ec9c78e	0.3941006
154	0x4014c971	2.324795
155	0xc02ad88c	-2.669467
156	0x3dd1312b	0.10214456
157	0x3e75a31e	0.23988006
158	0xbdd8a3c9	-0.105781145
159	0x3c84c91a	0.016209174
160	0x3f8f72a5	1.1206862
161	0xc0014bcc	-2.0202513
162	0xbe2b8bd4	-0.16752559
163	0xbe128459	-0.14308299
164	0xbed452a3	-0.41469297
165	0xbe4fdf2a	-0.20299974
166	0xbf448593	-0.7676632
167	0xbfcdf30b	-1.6089796
168	0x3dcdf49e	0.10056423
169	0x3d2abb73	0.04168267
170	0xbd14d8bf	-0.036339518
171	0x3e4ee345	0.20203884
172	0x3f8bac6a	1.0911992
173	0xbfcb148a	-1.5865643
174	0xbd91eace	-0.071248636
175	0x3e4f6a37	0.20255361
176	0xbe8f4d1b	-0.27988514
177	0x3e183ec9	0.148677
178	0x3f0a662b	0.54062146
179	0xc01824c0	-2.377243
180	0xbd3033e8	-0.04301825
181	0xbcf590da	-0.029976297
182	0xbdc67ff4	-0.09692374
183	0xbdb34add	-0.087545134
184	0xbd827c2e	-0.06371342
185	0xbf3aa242	-0.72903836
186	0x3d9f54bf	0.07779836
187	0x3e0425a9	0.12904991
188	0xbd0bbb79	-0.034114335
189	0xbd854fec	-0.065093845
190	0x3f2daa91	0.6783839
191	0xbf74aeed	-0.95579416
192	0x3b6de758	0.0036301222
193	0xbd24a3b1	-0.04019517
194	0x3c81be74	0.015837885
195	0xbdb7bed8	-0.089719474
196	0x3e178a86	0.14798936
197	0xbe842a48	-0.25813508
198	0x3f1402e1	0.5781689
199	0x3d1a428d	0.037661124
200	0x3f3b8c5a	0.73261034
201	0x3e835025	0.25647083
202	0x4095a53c	4.67642
203	0xc02d33fa	-2.7062974
204	0xbeb7d851	-0.35907224
205	0x3dbe2153	0.092837
206	0xbf0ae008	-0.54248095
207	0x3dfbebb6	0.12300818
208	0x3fd347f7	1.6506337
209	0xc0316233	-2.7716186
210	0x3e4ff408	0.20307934
211	0x3e856d37	0.26059887
212	0xbd54d2fb	-0.05195902
213	0x3eba3414	0.36367857
214	0x40091826	2.142099
215	0xc0533838	-3.3003063
216	0xbd12162f	-0.035665687
217	0xbd59e566	-0.053197287
218	0xbd2450e4	-0.040116206
219	0x3caa3b6e	0.020780291
220	0xbf15cfd2	-0.58520234
221	0x3ee52821	0.44757178
222	0x3e4d288c	0.20034999
223	0xbdbc0f8a	-0.09182651
224	0x3e9b7a8c	0.30366933
225	0x3e2623b6	0.1622456
226	0x3f8df75e	1.1091115
227	0xbfb7a5c6	-1.4347465
228	0x3d1cf214	0.0383168
229	0x3e29a3f1	0.16566445
230	0x3ddfbe57	0.10924976
231	0xbdb59c75	-0.088677324
232	0xbcdb8418	-0.026796386
233	0x3f76cb64	0.964041
234	0x3e15aaa4	0.14615875
235	0x3ed123b4	0.40847552
236	0xbd9edf45	-0.07757429
237	0x3f0d3920	0.5516529
238	0x405a0922	3.4068074
239	0xc0aaa951	-5.3331685
240	0xbdbe06e7	-0.0927866
241	0xbd229acc	-0.039698407
242	0xbd7aeeac	-0.06126277
243	0xbe38bfd5	-0.18041928
244	0x3e361fe7	0.17785607
245	0xbf77aae4	-0.96745133
246	0xbc5f3044	-0.013622347
247	0xbcfe715f	-0.031059919
248	0x3db13078	0.08651823
249	0x3d803f0d	0.06262026
250	0xbe28a26d	-0.1646821
251	0x3f40f317	0.75370926
252	0x3e72d30e	0.23713323
253	0x3ebdd8d1	0.3707948
254	0x3daccfb8	0.08438057
255	0x3f01f1cd	0.50759584

exp_avg_sq f4 [128, 6]
0	0x3e1f7006	0.15570077
1	0x3c81fdb2	0.015868042
2	0x3d7d5b7f	0.061854836
3	0x3d1ea2da	0.038729526
4	0x3fb19438	1.3873358
5	0x4121ccd2	10.112505
6	0x3da69236	0.08133356
7	0x3cde2f33	0.027122116
8	0x3d55f9d5	0.05224021
9	0x3d0cb1cf	0.03434926
10	0x40115e8e	2.2713962
11	0x40a79875	5.2373605
12	0x3f8befde	1.0932577
13	0x3e47046b	0.19435279
14	0x4075e12a	3.841868
15	0x3ed9d9c8	0.42548966
16	0x4284ba27	66.36358
17	0x429234eb	73.103355
18	0x3df50f5e	0.11965822
19	0x3d895f90	0.0670768
20	0x3d058ee9	0.032606993
21	0x3c563991	0.013075248
22	0x40332444	2.7990885
23	0x4191aabf	18.208372
24	0x40103d6d	2.2537491
25	0x3e4ad45c	0.19807571
26	0x401a182d	2.4077256
27	0x3ef0846e	0.46976036
28	0x43573da2	215.24075
29	0x437cc5ae	252.77219
30	0x3fb36489	1.4015056
31	0x3e731210	0.23737359
32	0x3eedbfaf	0.46435305
33	0x3e9ba8d0	0.3040223
34	0x418c9978	17.574936
35	0x429d4dad	78.65171
36	0x3d86cf52	0.06582512
37	0x3ced07bb	0.02893435
38	0x3d18c540	0.037297487
39	0x3c0e465e	0.008683769
40	0x406daa9b	3.713538
41	0x4105cbde	8.362272
42	0x3ee7a142	0.45240217
43	0x3e973582	0.2953301
44	0x3e7750a5	0.24151857
45	0x3e09d542	0.13460258
46	0x412487ae	10.283125
47	0x4180f6ff	16.120604
48	0x3ead6720	0.3386774
49	0x3e3139b2	0.17307165
50	0x3f0b210f	0.5434732
51	0x3e0b3763	0.13595347
52	0x41a5527f	20.665281
53	0x4210bc03	36.183605
54	0x3e8d9fe2	0.27661043
55	0x3d7958f9	0.060875867
56	0x3e298fcb	0.16558759
57	0x3d9e8dc1	0.07741881
58	0x4057bd6c	3.3709364
59	0x41ae6caa	21.803059
60	0x3dd660d4	0.10467687
61	0x3b9288c3	0.0044718697
62	0x3d688956	0.0567716
63	0x3c88e8aa	0.016712505
64	0x40e239d1	7.0695577
65	0x4141f8b1	12.123216
66	0x3c513cd1	0.012770847
67	0x3b8a2837	0.0042162198
68	0x3b6934f9	0.0035584553
69	0x3aba3aeb	0.0014208233
70	0x3d89e5ad	0.0673326
71	0x3fd36e8d	1.6518112
72	0x3fa66e9b	1.3002504
73	0x3f44a72a	0.7681757
74	0x3f1bee3b	0.60910386
75	0x3f3a0ffb	0.72680634
76	0x4199f8a1	19.2464
77	0x424946cc	50.319138
78	0x3c1452a6	0.009052908
79	0x3b134f83	0.0022477813
80	0x3b6a2ada	0.0035731108
81	0x3a85ddf4	0.0010213242
82	0x3f82475e	1.017803
83	0x3fd7f171	1.6870557
84	0x3dccfd41	0.10009242
85	0x3d0ffbe6	0.03515234
86	0x3deb18c7	0.11479335
87	0x3d298859	0.041389797
88	0x405c9dfb	3.4471424
89	0x40e21473	7.0649962
90	0x3fb20bbb	1.390983
91	0x3fa5f586	1.2965553
92	0x4073d393	3.8097885
93	0x3f842387	1.0323342
94	0x42b5869c	90.76291
95	0x4305460b	133.2736
96	0x3cd36551	0.025805147
97	0x3bf7167e	0.007540523
98	0x3d00b3f3	0.031421613
99	0x3c1bdad3	0.009512621
100	0x3eff28c2	0.49835783
101	0x3f9aec36	1.2103336
102	0x3e8aad50	0.27085352
103	0x3e3f331a	0.18671837
104	0x3e05c0da	0.13061848
105	0x3d911468	0.0708397
106	0x40b7939d	5.736769
107	0x411a4049	9.640695
108	0x401ee435	2.4826787
109	0x3fb9976f	1.4499339
110	0x3fd8bd25	1.6932722
111	0x3fb5df86	1.4208839
112	0x42f6a4be	123.32176
113	0x4332a678	178.65027
114	0x3f9498ea	1.1609166
115	0x3f29822e	0.66214263
116	0x3eff324f	0.4984307
117	0x3e80b49f	0.25137803
118	0x412e7b05	10.905034
119	0x42947a49	74.23884
120	0x3fb8552c	1.4400992
121	0x3e24663c	0.16054624
122	0x3f9c7632	1.222357
123	0x3e9ac233	0.30226287
124	0x423fcc9a	47.949806
125	0x425e4c76	55.57467
126	0x3fc01cbf	1.5008773
127	0x3ee940a9	0.45557144
128	0x3f3ec5a3	0.7452032
129	0x3e9b4eef	0.3033366
130	0x41f30b88	30.38063
131	0x427ef4eb	63.739178
132	0x3f047d7d	0.5175398
133	0x3e5e53bb	0.21711628
134	0x3ea2d63d	0.31804076
135	0x3e96586f	0.29364344
136	0x411a63a9	9.649331
137	0x420cfe3d	35.24828
138	0x3f2d8193	0.6777584
139	0x3edf2439	0.43582323
140	0x3ec36868	0.38165593
141	0x3f0027d3	0.50060767
142	0x4121da00	10.115723
143	0x41c43656	24.526531
144	0x3b441a8d	0.0029923052
145	0x3a5e017d	0.00084688497
146	0x3a62c767	0.0008650929
147	0x39b53d80	0.0003456883
148	0x3c92905a	0.017891098
149	0x3ed9fecb	0.42577204
150	0x40107470	2.2571068
151	0x3e34c641	0.17653753
152	0x3f8a7c90	1.0819263
153	0x3e90b142	0.28260237
154	0x41f2f021	30.36725
155	0x43268d91	166.553
156	0x3e9affc6	0.30273265
157	0x3e917121	0.28406623
158	0x3e162cfc	0.14665598
159	0x3e44d312	0.19221142
160	0x40f8a44e	7.7700567
161	0x416a8102	14.656496
162	0x3fb25462	1.3932002
163	0x3e91350d	0.28360787
164	0x3f461250	0.7737169
165	0x3e147b3e	0.14500138
166	0x41b0cb40	22.099243
167	0x4316a0d9	150.62831
168	0x3eaeddd1	0.34153607
169	0x3d72a4d4	0.059239224
170	0x3eac57f1	0.33660844
171	0x3deae73a	0.11469884
172	0x40f787a0	7.735306
173	0x41b35dc9	22.420794
174	0x3f99e886	1.2024086
175	0x3e2e6595	0.17030938
176	0x3f19e3b2	0.6011306
177	0x3e757af2	0.23972681
178	0x41d032d6	26.024822
179	0x422229ac	40.540695
180	0x3e611522	0.21980718
181	0x3d93434a	0.07190569
182	0x3dd742fb	0.105108224
183	0x3cc804d6	0.024416368
184	0x403b79d9	2.929312
185	0x41b39c24	22.45124
186	0x3cb15db5	0.021651128
187	0x3d12963e	0.035787813
188	0x3c30acb2	0.010783361
189	0x3c4fd5ae	0.012685223
190	0x3e8cdb95	0.27511278
191	0x401f4591	2.488621
192	0x3d95413d	0.07287834
193	0x3b7b3267	0.0038329603
194	0x3d2c5d24	0.042081013
195	0x3c4d1143	0.012516323
196	0x40a5ae2a	5.1775103
197	0x410ef5ea	8.935038
198	0x40a98d61	5.298508
199	0x3ea90556	0.33011883
200	0x3febbf4a	1.8417752
201	0x3f5b03b6	0.8555254
202	0x4210fb8d	36.245655
203	0x43c10d17	386.10226
204	0x3ff4f58d	1.9137436
205	0x3f132272	0.57474434
206	0x40aa8ec7	5.329929
207	0x3f7e6944	0.9937937
208	0x42c35bde	97.67943
209	0x42fadf81	125.43653
210	0x3f788e16	0.97091806
211	0x3e4c73cb	0.19966047
212	0x3f5638e4	0.8368056
213	0x3ee4af39	0.44664934
214	0x41f3312f	30.399015
215	0x42530076	52.75045
216	0x3d539cbc	0.051663145
217	0x3c23807d	0.009979364
218	0x3d489bdc	0.048976764
219	0x3cdd571b	0.027019074
220	0x400a2f6b	2.1591442
221	0x40446fd7	3.0693262
222	0x3f5a7eac	0.85349536
223	0x3e405397	0.18781887
224	0x3e9ccfb1	0.30627206
225	0x3eb7f909	0.35932186
226	0x40ff6403	7.9809585
227	0x420efeca	35.748817
228	0x3dea7935	0.114489
229	0x3cb69f01	0.022292616
230	0x3db56bb5	0.08858434
231	0x3cb42e11	0.021994622
232	0x40852e3e	4.161895
233	0x4132ac78	11.167107
234	0x402d1ebf	2.7050016
235	0x3e7611e3	0.2403026
236	0x40301bc3	2.7516944
237	0x3f12c635	0.5733369
238	0x42a8e439	84.44575
239	0x42ef55ed	119.66782
240	0x3ec34ed7	0.38146088
241	0x3d84df6f	0.06487929
242	0x3e063038	0.13104331
243	0x3cba4d8c	0.022742055
244	0x417b2e08	15.698738
245	0x426539e6	57.30654
246	0x3e67088c	0.22561854
247	0x3d0a7a46	0.033808015
248	0x3e1bc375	0.1521128
249	0x3cde84af	0.027162878
250	0x4076644c	3.8498716
251	0x41874204	16.907234
252	0x4034fed3	2.8280532
253	0x3df8e6e4	0.12153414
254	0x3f5fa847	0.87366146
255	0x3e8268d0	0.2547059

exp_avg f4 [128]
0	0x3e625599	0.22102965
1	0x3d810c99	0.06301231
2	0x3f404d5d	0.75118047
3	0xbdc7b673	-0.09751596
4	0xbf1853be	-0.5950278
5	0x3f3a3a76	0.72745454
6	0xbe92c8bb	-0.2866877
7	0x3f116ae7	0.56803745
8	0xbf778665	-0.96689445
9	0x3e658227	0.2241293
10	0xbccb4697	-0.024813933
11	0xbc924921	-0.017857136
12	0x3f25f0ba	0.64820445
13	0xbc8ffdf8	-0.017577156
14	0x3e481a49	0.19541277
15	0x3f974250	1.1817112
16	0x3dfd2e14	0.12362304
17	0x3ef405bc	0.47660625
18	0xbee25cba	-0.4421137
19	0x3ef37a80	0.47554398
20	0x3f6c3ca9	0.9228006
21	0x3f849df2	1.0360701
22	0x3ed46ead	0.4149069
23	0x3f16d7ff	0.58923334
24	0xbc37f8ad	-0.0112287225
25	0x3f902717	1.1261929
26	0x3ebf325a	0.37343103
27	0xbf1e6f99	-0.61889035
28	0x3f22ae5c	0.635473
29	0x3efc21b9	0.49244478
30	0xbe20d205	-0.15705116
31	0x3e5b9a63	0.21445613
32	0xbd55cd13	-0.052197527
33	0x3f9796b4	1.1842866
34	0x3f157bac	0.58391833
35	0x3f905c9b	1.1278261
36	0xbe228995	-0.15872796
37	0x3f07c2ce	0.53031623
38	0xbe3325c6	-0.17494878
39	0x3fb115c6	1.383477
40	0xbe8106ee	-0.252006
41	0x3e0b0ffb	0.13580315
42	0x3f94df05	1.163056
43	0x3f3c2da7	0.7350716
44	0x3dbd06fb	0.09229847
45	0x3e2d7bc6	0.16941747
46	0x3e2166d2	0.15761879
47	0x3f823fb8	1.0175695
48	0x3e065864	0.13119656
49	0x3f424d62	0.75899327
50	0x3f36758e	0.71273124
51	0x3f161d1f	0.58638185
52	0x3ca82493	0.020525252
53	0x3f89cf33	1.0766357
54	0xbdb0b23d	-0.08627746
55	0x3d8c8c19	0.06862659
56	0x3f2bc2cf	0.6709413
57	0x3e8b6cca	0.27231437
58	0x3ee2d8a5	0.44305912
59	0x3ee04dd3	0.43809375
60	0x3f057d3c	0.5214422
61	0x3eedb843	0.46429643
62	0x3f0beb47	0.5465588
63	0xbf1453cf	-0.5794038
64	0xbdabaae4	-0.08382204
65	0x3f5dea90	0.8668604
66	0x3de394aa	0.1111234
67	0x3de45684	0.11149314
68	0x3e59b9ff	0.21262358
69	0xbe9ba51a	-0.303994
70	0x3ed5bfb4	0.4174782
71	0xbf292d1f	-0.66084474
72	0x3f52484d	0.8214157
73	0x3dc796bd	0.09745548
74	0x3e6fff71	0.23437287
75	0xbf03be66	-0.514624
76	0xbd675d87	-0.05648568
77	0x3e2ecdc4	0.17070681
78	0x3ecde510	0.40213823
79	0x3d93dead	0.072202064
80	0x3d8d9ab1	0.06914271
81	0x3d838cae	0.06423317
82	0xbf983943	-1.1892475
83	0x3f7e23d3	0.99273413
84	0x3dfaf447	0.122536235
85	0xbe970934	-0.2949921
86	0x3e9c21f7	0.30494663
87	0x3e080966	0.13284835
88	0xbcb497ff	-0.022045134
89	0x3f518003	0.81835955
90	0x3fb06a28	1.3782396
91	0x3f350768	0.70714426
92	0x3f86fd0e	1.0545976
93	0xbfa16c45	-1.2611166
94	0x3e049410	0.12947106
95	0x3ee55c53	0.44797
96	0x3f846e80	1.0346222
97	0x3f8cd2bd	1.1001812
98	0x3ecbf4f3	0.3983532
99	0x3f6870b6	0.90796983
100	0x3eb33d5a	0.35007745
101	0xbc5256ba	-0.01283806
102	0x3efabc6b	0.48971877
103	0x3fa60a7f	1.2971953
104	0x3e9aca6e	0.30232567
105	0x3e72f7ba	0.23727313
106	0x3df45b26	0.11931448
107	0x3d99f459	0.07517309
108	0xbd33a713	-0.043860506
109	0x3eb67ae3	0.3564063
110	0xbf6ee59c	-0.93319106
111	0xbeb64c65	-0.3560516
112	0xbe821c81	-0.25412372
113	0x3d88cbf7	0.06679528
114	0x3f4b5273	0.7942268
115	0x3e7413da	0.23835698
116	0x3efbf34e	0.49209064
117	0x3f9ddcb4	1.2332978
118	0xbf02aaf5	-0.5104211
119	0x3ececdda	0.40391427
120	0x3e101726	0.1407133
121	0xbf343e3b	-0.70407456
122	0xbe602143	-0.21887688
123	0xbf894cba	-1.072654
124	0x3e134806	0.14382944
125	0x3f66f707	0.90220684
126	0x3f04eaa6	0.51920545
127	0x3f4718af	0.7777204

exp_avg_sq f4 [128]
0	0x3eb98744	0.36236012
1	0x3eaf58d5	0.3424746
2	0x41038190	8.219131
3	0x3ed120de	0.40845388
4	0x4159c8d3	13.611529
5	0x4086e2cb	4.2151847
6	0x3ea256ab	0.31706747
7	0x3fe09782	1.7546237
8	0x40042965	2.0650265
9	0x3f8059d3	1.0027412
10	0x3ed4bfd6	0.4155261
11	0x3d058174	0.03259416
12	0x4095ba83	4.6790175
13	0x3d125371	0.035724107
14	0x3f1925a0	0.59823036
15	0x4110863e	9.032774
16	0x3d66494e	0.056222253
17	0x3f801cba	1.0008767
18	0x413dadda	11.854944
19	0x4051da2c	3.2789412
20	0x4114e798	9.306541
21	0x40bf3e27	5.976337
22	0x40095fcf	2.1464727
23	0x400d6540	2.2093048
24	0x3bec558d	0.007212347
25	0x411d5e94	9.83559
26	0x3f9c59c4	1.2214894
27	0x409e9338	4.955471
28	0x3fe60094	1.7968926
29	0x40d5d985	6.6828027
30	0x3f35ecb1	0.7106429
31	0x3da478db	0.08030864
32	0x3ea18beb	0.3155206
33	0x411a33cb	9.637645
34	0x41469ed3	12.413775
35	0x40cacad1	6.337258
36	0x3e451ea4	0.1924997
37	0x40027a3d	2.0387108
38	0x3ef26334	0.4734131
39	0x418cb5fa	17.588856
40	0x3fb62e25	1.4232832
41	0x3f561ac4	0.8363459
42	0x410fb331	8.981248
43	0x401eccf3	2.481259
44	0x3d9bd912	0.07609762
45	0x3e98c4d5	0.2983767
46	0x3e9fef0f	0.31237075
47	0x40982ec0	4.755707
48	0x401e3237	2.4718149
49	0x40926d68	4.5758553
50	0x40e58969	7.1730237
51	0x40c05071	6.0098195
52	0x3e89922a	0.26869327
53	0x40af32c3	5.4749465
54	0x3e247ec7	0.16063987
55	0x3e824f52	0.25451142
56	0x4026f28e	2.6085544
57	0x403ec5e4	2.9808283
58	0x4059dcbd	3.4040978
59	0x405a0636	3.406629
60	0x40068f20	2.1024857
61	0x3f61e63e	0.88241947
62	0x403a6f49	2.9130423
63	0x403b135b	2.9230564
64	0x3de21cb3	0.1104063
65	0x40975f60	4.7303925
66	0x3f539825	0.8265403
67	0x3e331d0c	0.17491549
68	0x3f142277	0.5786509
69	0x3eba9084	0.36438382
70	0x4009960c	2.1497831
71	0x40084580	2.129242
72	0x4093ba0c	4.616461
73	0x3e945efe	0.28978723
74	0x3f958b0c	1.1683059
75	0x3f87088f	1.0549487
76	0x3ebb7f3a	0.36620504
77	0x3f824daf	1.0179957
78	0x3f9b5ca2	1.2137644
79	0x3da471a8	0.08029491
80	0x3e3196d9	0.173427
81	0x3e904cdb	0.28183636
82	0x4097e0b9	4.746182
83	0x4090870a	4.5164843
84	0x3e4f8c3a	0.20268336
85	0x406713be	3.61058
86	0x3eb72047	0.35766813
87	0x3f170d5a	0.5900475
88	0x3e510e48	0.20415604
89	0x4124b712	10.294695
90	0x415a762b	13.65385
91	0x40305847	2.755388
92	0x40f57830	7.6709213
93	0x40cfac3c	6.4897747
94	0x3f6d5d1a	0.92720187
95	0x40add9c0	5.432831
96	0x40ce65f1	6.449944
97	0x4101759b	8.091212
98	0x402baf29	2.682566
99	0x41091ac1	8.569032
100	0x4018a969	2.38534
101	0x3bbf919e	0.0058462163
102	0x3fa0187c	1.2507472
103	0x40e6c2d3	7.2112823
104	0x3ffb5727	1.9635972
105	0x3fa00732	1.2502196
106	0x3f395b3c	0.7240484
107	0x3dedadce	0.11605416
108	0x3d67b3a1	0.05656779
109	0x3f89d676	1.0768573
110	0x405e82d8	3.476736
111	0x3f33eccf	0.70283216
112	0x3ed49e6e	0.41527122
113	0x3da4e007	0.08050542
114	0x409696ff	4.705932
115	0x3f657617	0.89633316
116	0x4010bb77	2.261442
117	0x40ad4eaf	5.415855
118	0x401c39b2	2.4410214
119	0x3f3ac0b5	0.729503
120	0x3ee3f749	0.445246
121	0x3ff209e8	1.8909273
122	0x3e6484f8	0.22316349
123	0x4083dc01	4.120606
124	0x3d88fcf5	0.06688873
125	0x4099f75b	4.8114448
126	0x3f90fd3c	1.1327281
127	0x4026f1f7	2.6085184
