rainbow_lunar_lander_v3_checkpoint.pth (torch, 497666 bytes, 33 tensors)

feature.0.weight f4 [128, 8]
0	0xbe7a7be0	-0.24461317
1	0x3dd381bd	0.1032748
2	0x3e1b5a1b	0.15171091
3	0x3ddbed95	0.107386746
4	0x3d245f1a	0.04012976
5	0x3eaaf296	0.33388203
6	0x3da49603	0.08036425
7	0x3eb3cc6b	0.35116896
8	0x3e3dab5f	0.18522404
9	0x3ef0ca5c	0.47029388
10	0x3c6e9c40	0.01456362
11	0xbd9d7db2	-0.0768999
12	0xbe2294f2	-0.1587713
13	0x3eb072dd	0.34462634
14	0x3cb8c552	0.022555027
15	0xbddbd892	-0.10734667
16	0xbe387d40	-0.18016529
17	0xbe68444d	-0.22682305
18	0x3ed67351	0.41884854
19	0xbe68f0a4	-0.22748047
20	0xbeb11f5b	-0.34594235
21	0xbcfd730f	-0.030938653
22	0x3ec08376	0.37600297
23	0x3e520380	0.20509148
24	0x3e1152cc	0.14191741
25	0xbd90e950	-0.07075751
26	0xbe026da6	-0.1273714
27	0xbe3c2f51	-0.18377425
28	0xbe116a92	-0.1420081
29	0x3eb5dac0	0.35518456
30	0xbe53e4fc	-0.2069282
31	0xbeb9e856	-0.3631007
32	0x3e454dc9	0.19267954
33	0x3d339e87	0.043852355
34	0xbf3209cd	-0.69546205
35	0x3f11ab9a	0.5690247
36	0xbe116073	-0.14196949
37	0xbe04958c	-0.12947673
38	0xbe7d5a09	-0.24741377
39	0xbde61af3	-0.11235609
40	0x3de5c9eb	0.112201534
41	0x3e3ede8c	0.18639582
42	0x3dbf7294	0.09348026
43	0x3e2bdbf9	0.16783132
44	0xbea5e49f	-0.32400987
45	0xbe96fd3e	-0.29490083
46	0xbe82a005	-0.2551271
47	0xbd9627c9	-0.07331807
48	0x3d970882	0.073746696
49	0x3de18a27	0.110126786
50	0xbe49b9e0	-0.19699812
51	0x3ed70529	0.41996124
52	0x3e912609	0.2834933
53	0x3e5ef8a5	0.21774538
54	0xbf055e3b	-0.5209691
55	0xbe648d57	-0.22319542
56	0xbee27b1f	-0.4423456
57	0xbe9c94ab	-0.30582175
58	0xbe9b426b	-0.3032411
59	0xbd09e8f3	-0.033669423
60	0x3e65ae6d	0.2242982
61	0xbe309a01	-0.17246248
62	0xbd045328	-0.032305866
63	0xbd76c23e	-0.060243838
64	0x3dd2d0b5	0.10293714
65	0xbe19f435	-0.15034564
66	0xbea6e40b	-0.32595858
67	0xbe98472a	-0.29741794
68	0xbdadf388	-0.084937155
69	0x3ea49f8d	0.32152978
70	0x3d0bd7fa	0.03414152
71	0xbeb27f20	-0.34862614
72	0x3deb9f7b	0.11505028
73	0x3ef184cc	0.47171628
74	0xbf03d773	-0.51500624
75	0xbedb5ba0	-0.42843342
76	0xbec0d6b4	-0.37663805
77	0x3d8db41d	0.069191195
78	0x3dcde56d	0.10053525
79	0x3eb47b35	0.3525025
80	0x3caf4335	0.021394351
81	0x3c9514c9	0.018198388
82	0x3e4afa14	0.1982196
83	0x3dc4f847	0.09617668
84	0xbe68b608	-0.2272569
85	0xbec81239	-0.39076403
86	0x3c5e751d	0.013577727
87	0xbe257430	-0.16157603
88	0xbe72878a	-0.23684517
89	0x3e80d465	0.25162044
90	0xbe91c384	-0.2846948
91	0x3dee34c7	0.1163116
92	0x3e95eb1f	0.29280946
93	0x3c5259aa	0.01283876
94	0xbedf6c46	-0.43637294
95	0xbec9eeb6	-0.39439934
96	0x3e7ce077	0.24695002
97	0xbde02f05	-0.10946468
98	0x3e176350	0.14783978
99	0x3d02b5ec	0.031911775
100	0x3c8008c3	0.015629178
101	0xbe05f132	-0.1308029
102	0x3d895e14	0.06707397
103	0xbe55e998	-0.2088989
104	0x3e1e139a	0.15437165
105	0x3e4a2b7f	0.19743155
106	0x3d888298	0.06665534
107	0x3e24c3bf	0.16090296
108	0xbeb1024c	-0.34572065
109	0xbeedd1ac	-0.4644903
110	0x3e199325	0.14997537
111	0xbf0b0099	-0.54297787
112	0xbd9538dc	-0.07286236
113	0xbf48ec41	-0.78485495
114	0x3f0418e6	0.5160049
115	0xbe4659f2	-0.19370249
116	0xbd1195e5	-0.03554334
117	0xbd550488	-0.052006274
118	0x3d598b99	0.053111646
119	0x3dcd05c3	0.100108646
120	0xbe328b50	-0.17435956
121	0x3d0bf6fe	0.034171097
122	0x3de55f68	0.11199838
123	0x3cc795eb	0.024363479
124	0xbf4706e2	-0.7774488
125	0xbd9be3f8	-0.07611841
126	0x3daab616	0.083355114
127	0x3e36d98a	0.17856422
128	0xbccbef50	-0.024894387
129	0xbd38abbd	-0.045085657
130	0xbe829827	-0.25506708
131	0x3ea9e580	0.33182907
132	0x3ed3f502	0.41397864
133	0x3d804fc9	0.06265218
134	0xbe91ba80	-0.284626
135	0xbda49967	-0.08037072
136	0xbed51670	-0.4161868
137	0xbe145231	-0.14484479
138	0x3f04def8	0.51902723
139	0x3c4373ee	0.011929495
140	0xbe0f7acc	-0.14011687
141	0xbe3d26a1	-0.18471767
142	0x3e4bf6be	0.19918343
143	0xbe961f35	-0.29320684
144	0x3da34062	0.079712644
145	0x3de16060	0.1100471
146	0xbe1190d5	-0.14215405
147	0x3edac951	0.42731717
148	0x3dcc8818	0.09986895
149	0x3e913a38	0.2836473
150	0x3eda8c7e	0.42685312
151	0x3e8b24bc	0.27176464
152	0xbeb12408	-0.34597802
153	0x3e43fe90	0.19140077
154	0x3dc24b64	0.09487036
155	0x3dfde680	0.1239748
156	0x3e22afe4	0.1588741
157	0x3e19894b	0.1499378
158	0xbebee49f	-0.372838
159	0xbe5a1af6	-0.21299347
160	0xbeaef7c0	-0.34173393
161	0x3e939774	0.28826487
162	0x3e5d17e3	0.21591143
163	0xbda9c2e2	-0.08289124
164	0x3e7b38f4	0.24533445
165	0x3e82c759	0.25542715
166	0x3dca2612	0.098705426
167	0xbde4e458	-0.111763656
168	0x3e4342dc	0.19068474
169	0x3db34162	0.08752705
170	0x3de239d5	0.11046187
171	0x3d8ee69d	0.0697758
172	0x3e3f0119	0.18652762
173	0x3ebdf1f4	0.37098658
174	0xbe5ae7c2	-0.21377471
175	0x3e9b8663	0.30375966
176	0xbe70a3d6	-0.23499998
177	0x3ea28a4b	0.31746134
178	0xbe771a79	-0.24131192
179	0xbcd3bea4	-0.02584774
180	0x3e0b7b94	0.1362136
181	0x3e839e8c	0.257069
182	0x3e3b6638	0.18300712
183	0x3e35c2fb	0.1775016
184	0x3dfc6989	0.12324817
185	0x3e55e56a	0.20888296
186	0xbd9e9190	-0.077426076
187	0xbf0480f8	-0.5175929
188	0xbe993399	-0.29922178
189	0x3e278230	0.16358256
190	0x3d2fe93b	0.042947035
191	0x3d108071	0.03527874
192	0xbf0a27c2	-0.53966916
193	0xbe9ad0bf	-0.30237386
194	0xbcc2b5a1	-0.023768248
195	0x3e41e9f7	0.18936907
196	0xbd04ff3b	-0.03246997
197	0x3d76a33a	0.06021426
198	0x3db49d9d	0.08819125
199	0xbe5c958c	-0.21541423
200	0x3ea5a5b3	0.3235298
201	0x3ecd43a2	0.40090662
202	0xbdd2d232	-0.10293998
203	0xb986f94f	-0.0002574422
204	0xbd597618	-0.05309114
205	0xbef911ac	-0.48646295
206	0xbe897cb3	-0.2685295
207	0x3eb1889c	0.34674537
208	0x3d3474ce	0.044056706
209	0x3e9553c6	0.29165477
210	0x3e29140f	0.16511558
211	0x3e2646d1	0.16237952
212	0xbf27857e	-0.6543807
213	0xbe4877bc	-0.19576925
214	0xbe77e205	-0.24207313
215	0x3e0b7c36	0.13621601
216	0xbe907299	-0.2821243
217	0x3e624256	0.22095618
218	0xbe50edcc	-0.20403212
219	0x3d479dd0	0.048734486
220	0xbf127c97	-0.5722136
221	0x3ea42655	0.32060495
222	0x3e7eacc3	0.24870591
223	0x3c46426e	0.012100799
224	0x3e96a67e	0.29423898
225	0xbf05fa28	-0.52334833
226	0xbdc40b94	-0.09572521
227	0x3f05b79e	0.522333
228	0xbc137fe3	-0.009002659
229	0xbea548b3	-0.32282028
230	0x3e588d48	0.21147645
231	0xbbddba45	-0.00676659
232	0xbe423d67	-0.18968736
233	0xbdb0ea3b	-0.08638426
234	0x3e53f33b	0.20698254
235	0x3ef66d98	0.48130488
236	0x3e41722a	0.18891206
237	0xbe4c8f9e	-0.1997666
238	0xbd27d8ad	-0.040978123
239	0x3eeb6f1a	0.459832
240	0x3e61afcc	0.22039717
241	0xbd1ece42	-0.03877092
242	0xbe9fbdef	-0.31199595
243	0xbe251823	-0.16122489
244	0x3d2d6db6	0.042340957
245	0xbdb82556	-0.08991496
246	0xbddf153d	-0.10892723
247	0xbe476255	-0.19471104
248	0x3f1290b9	0.5725208
249	0xbdec4976	-0.11537449
250	0x3e55c937	0.20877539
251	0x3dfd4880	0.12367344
252	0xbde53787	-0.111922316
253	0x3d0535fa	0.03252218
254	0x3e5d7587	0.21626864
255	0xbe346a5a	-0.17618695

feature.0.bias f4 [128]
0	0x3e89495b	0.26813778
1	0x3ed7e1a2	0.42164332
2	0x3e78c3c5	0.2429343
3	0x3e902c75	0.28158918
4	0x3b7627d5	0.0037560363
5	0x3da9b8bb	0.08287188
6	0x3ea1fa8b	0.31636462
7	0xbe4da243	-0.20081429
8	0xbe0156f1	-0.12630822
9	0x3eae055e	0.3398847
10	0x3eeded79	0.4647024
11	0x3d0b531b	0.034014802
12	0x3e96c851	0.29449704
13	0x3d1a77ef	0.037712034
14	0x3e9d70be	0.30750078
15	0xbc66b8e2	-0.014082165
16	0xbe8f7085	-0.28015533
17	0x3ed20e83	0.41026697
18	0x3e8dbbf5	0.27682462
19	0xbec2cfa4	-0.38049042
20	0xbe9f3e6a	-0.31102306
21	0x3eb5a241	0.35475352
22	0xbea4895a	-0.3213604
23	0x3e999942	0.2999974
24	0xbdc71842	-0.09721424
25	0x3edb4f6a	0.42834026
26	0xbcfdfdc6	-0.031004798
27	0xbd8e2b50	-0.06941855
28	0x3e811691	0.2521253
29	0xbd9fd7ad	-0.07804809
30	0x3e2f7eeb	0.17138259
31	0x3e4bb6ab	0.19893901
32	0x3e8b9c2b	0.27267584
33	0x3dd00e01	0.10158921
34	0x3e8bc621	0.27299598
35	0x3dbe03f5	0.092780985
36	0x3e9acc16	0.3023383
37	0xbe1697ce	-0.14706346
38	0xbe99e961	-0.30060866
39	0x3de964c0	0.1139617
40	0x3e273ffd	0.16333003
41	0xbe4626db	-0.1935076
42	0xbd213c1c	-0.039363965
43	0xbe31dd7a	-0.17369643
44	0x3e983fa5	0.29736057
45	0x3dacb2fd	0.08432577
46	0xbe184adf	-0.14872311
47	0x3df032a3	0.11728408
48	0xbd6c5e26	-0.057706974
49	0x3e144e53	0.14483003
50	0xbd1f6a65	-0.038919825
51	0x3e02725e	0.1273894
52	0xbe3254fe	-0.17415234
53	0x3e3a7399	0.1820816
54	0x3e440148	0.19141114
55	0xbe1e9090	-0.15484834
56	0x3eda370c	0.42620122
57	0xbd8eb1da	-0.06967516
58	0xbeaa2c76	-0.33237046
59	0x3d2d48f8	0.042305917
60	0xbc007b77	-0.007841936
61	0x3d3787e3	0.044807326
62	0x3dc429de	0.09578298
63	0x3ec13d1a	0.3774193
64	0xbe2e3a85	-0.17014511
65	0x3e738ee2	0.23784974
66	0xbcedc8de	-0.029026445
67	0x3eea04c4	0.4570676
68	0x3eb64656	0.35600537
69	0xbd6e39da	-0.05816064
70	0x3e82d1a8	0.2555058
71	0x3d2cd50a	0.042195357
72	0xbe3c2f7f	-0.18377493
73	0x3ec95389	0.39321545
74	0xbe5af58d	-0.21382733
75	0xbe39e7ec	-0.18154877
76	0xbdcb7748	-0.099348605
77	0xbe48ea59	-0.19620647
78	0x3e9f845a	0.31155664
79	0x3e62334a	0.22089878
80	0x3e8b61f4	0.2722317
81	0x3e19bd4b	0.15013616
82	0x3e41474e	0.18874857
83	0x3de1c890	0.110245824
84	0x3dbeb5e7	0.09312039
85	0x3e3d86d5	0.18508466
86	0x3e456a05	0.19278724
87	0x3d8ffd82	0.07030775
88	0x3cb0334c	0.021508835
89	0xbe1960ce	-0.14978334
90	0xbc4b9ea2	-0.012427958
91	0xbcbf8247	-0.02337755
92	0xbe052e55	-0.13005956
93	0xbe39df44	-0.18151575
94	0xbdfa5bab	-0.122245155
95	0x3e5fb8cf	0.21847843
96	0xbdc6761b	-0.096904956
97	0xbd91cd12	-0.07119192
98	0x3ef09930	0.46991873
99	0x3e3b84be	0.18312356
100	0x3e8f0b71	0.27938417
101	0x3e863410	0.26211596
102	0xbe1ea150	-0.15491223
103	0x3e4c60e9	0.19958843
104	0x3e7a21c3	0.24426942
105	0x3dd73fcf	0.105102174
106	0xbed56028	-0.41674924
107	0x3edc92ed	0.43080845
108	0xbe29a4e3	-0.16566806
109	0x3dff2d0f	0.12459766
110	0x3d837d4b	0.06420382
111	0x3e61fccf	0.22069095
112	0x3e54e253	0.20789461
113	0x3ddd89e4	0.10817316
114	0xbe21cdfc	-0.15801233
115	0xbe0e0c40	-0.1387186
116	0x3ea1d588	0.31608224
117	0x3e4e00d9	0.20117511
118	0x3e8676db	0.26262555
119	0x3e4d2df0	0.20037055
120	0xbdedbdb6	-0.1160845
121	0xbec77098	-0.3895309
122	0x3d8e6bd7	0.069541626
123	0x3d18fb64	0.03734912
124	0x3ee44b6c	0.44588792
125	0xbe175a08	-0.14780438
126	0xbd764b03	-0.06013013
127	0x3d1015b5	0.03517695

feature.2.weight f4 [128, 128]
0	0xbd1e4510	-0.038640082
1	0xbdbc7cd6	-0.09203498
2	0x3e01dc20	0.12681627
3	0xbd9906c2	-0.07471992
4	0xbe95b4df	-0.29239556
5	0xbcaf6958	-0.021412537
6	0x3e3ea287	0.18616687
7	0x3e5427d5	0.2071832
8	0x3d9815c0	0.074260235
9	0xbd7911a5	-0.060807843
10	0xbddde3f7	-0.108344965
11	0x3d97afeb	0.074066006
12	0xbd7b7387	-0.061389472
13	0x3d9ed7cb	0.07756003
14	0xbeadc4fb	-0.33939347
15	0xbd94797d	-0.072497346
16	0x3ec3bb25	0.38228717
17	0x3c02471d	0.007951525
18	0xbb32d869	-0.0027289635
19	0x3ef4504b	0.4771751
20	0x3e52454f	0.20534252
21	0xbd06fcea	-0.03295604
22	0x3d904862	0.07045056
23	0xbcc41148	-0.023934022
24	0x3e97e036	0.29663247
25	0x3d3ec91f	0.046578523
26	0x3cb7cbe7	0.022436095
27	0xbc7637c1	-0.015027941
28	0xbe858870	-0.26080656
29	0xbea57bb7	-0.3232095
30	0xbe0dd75d	-0.13851686
31	0xbdb34549	-0.087534495
32	0xbe067edd	-0.13134332
33	0x3dd3da84	0.10344413
34	0xbe306ec4	-0.17229754
35	0xbd579861	-0.052635554
36	0xbeb6e942	-0.35724837
37	0xbe84dedc	-0.25951278
38	0x3d9d6501	0.076852806
39	0x3dcf39d3	0.10118451
40	0x3db09fd7	0.08624237
41	0xbd227099	-0.039658163
42	0xbaf1a09e	-0.0018434708
43	0x3d94bee4	0.07262972
44	0xbc29e836	-0.010370305
45	0x3dc2184c	0.094772905
46	0x3e738667	0.23781739
47	0x3d5475cb	0.05187015
48	0x3e785c8b	0.24254052
49	0xbd15eca9	-0.03660265
50	0xbe870152	-0.26368195
51	0x3d7bd311	0.061480585
52	0x3db56f44	0.08859113
53	0x3cdcdd3c	0.026960962
54	0xbb322291	-0.0027181248
55	0x3e9914bd	0.29898635
56	0xbd89f788	-0.06736666
57	0xbed3442c	-0.4126295
58	0x3e610595	0.21974786
59	0xbe26c585	-0.16286285
60	0x3db13a12	0.08653654
61	0x3cb7338a	0.022363443
62	0x3e0a090c	0.13480014
63	0xbe5d4f76	-0.21612343
64	0x3dc13965	0.09434775
65	0x3cf16a12	0.029469524
66	0xbf09ff95	-0.5390561
67	0xbdd6b383	-0.10483458
68	0x3d8eb4b4	0.0696806
69	0xbca72b0d	-0.02040627
70	0xbdc6666c	-0.09687504
71	0xbe7d0d47	-0.24712096
72	0x3db34304	0.087530166
73	0x3dcb1e5c	0.099179
74	0xbdf5de68	-0.12005311
75	0xbd9af360	-0.07565951
76	0xbd0bfc16	-0.034175955
77	0xbe1d82d8	-0.15381944
78	0x3df04f01	0.11733819
79	0xbe2e19f6	-0.17002091
80	0x3d6fd3ad	0.05855148
81	0x3d2fb55b	0.042897563
82	0x3df1bbec	0.118034214
83	0x3d8c13d5	0.0683972
84	0xbdb0ef45	-0.08639387
85	0x3d8b6880	0.06807041
86	0x3db9a589	0.090647765
87	0x3d98944e	0.07450162
88	0x3ddaa958	0.10676831
89	0xbea55646	-0.32292384
90	0x3dcfac21	0.10140253
91	0xbd874b35	-0.066061415
92	0xbd88bf95	-0.066771664
93	0xbd2bca08	-0.04194072
94	0x3dc8b0f3	0.097993754
95	0xbd38c769	-0.045112047
96	0xbe963851	-0.2933984
97	0x3e0ed240	0.13947392
98	0xbe1e4bc7	-0.15458594
99	0x3da6845b	0.081307136
100	0xbd1d9f02	-0.03848172
101	0xbc907906	-0.017635833
102	0x3d9a3483	0.07529547
103	0x3d0d5274	0.03450246
104	0xbe67bc64	-0.22630459
105	0xbdc97500	-0.09836769
106	0xbccfdaa3	-0.025372809
107	0xbb50bbc9	-0.003185021
108	0x3dcd8368	0.100348294
109	0x3e0ceebb	0.13762943
110	0x3e275a88	0.16343129
111	0xbe1b0d7f	-0.15141867
112	0x3b9ae43c	0.0047269147
113	0x3e48a372	0.195936
114	0x3e17ce3c	0.14824766
115	0xbe365f47	-0.17809783
116	0xbd8f877c	-0.070082635
117	0x3de1f156	0.11032359
118	0x3c4c3bdb	0.0124654425
119	0xbe6271b3	-0.22113685
120	0xbe197871	-0.14987351
121	0xbd33c1ce	-0.043886
122	0xbd53869e	-0.051642053
123	0xbb498ea3	-0.0030755184
124	0x3c215212	0.009846227
125	0xbd5135da	-0.051076747
126	0x3e265820	0.16244555
127	0xbc96e8e8	-0.018421605
128	0xbdb0c7c1	-0.0863185
129	0xbdf117d2	-0.117721215
130	0x3e1b0caa	0.1514155
131	0xbe3a5342	-0.18195823
132	0xbee78a16	-0.4522254
133	0x3e24fc03	0.1611176
134	0x3d7f46ea	0.06232349
135	0x3d1a415f	0.03766
136	0x3dc3e773	0.0956563
137	0xbc9a4b43	-0.018834716
138	0xbdb515bd	-0.08842037
139	0x3b2b09d2	0.0026098383
140	0xbd9fdb93	-0.07805552
141	0x3da77c35	0.081779875
142	0xbe8a769c	-0.27043617
143	0xbdd0ff89	-0.102049895
144	0x3e83fed0	0.25780344
145	0xbd7f12a2	-0.06227363
146	0x3d22d3bc	0.039752707
147	0xbdc86174	-0.09784213
148	0xbdbe03f9	-0.092781015
149	0xbd61db5d	-0.05514084
150	0xbceab7e3	-0.028652137
151	0x3d642a2d	0.055704284
152	0x3e9eb8da	0.31000406
153	0x3ccdc79c	0.025119595
154	0xbe51024f	-0.20411037
155	0xbe6783c1	-0.22608854
156	0xbd8a0f7c	-0.06741235
157	0xbe9f9710	-0.3116994
158	0xbe7b1bf2	-0.24522379
159	0x3db9ac13	0.09066024
160	0x3d27c245	0.040956754
161	0x3d691395	0.05690344
162	0xbd900b18	-0.07033366
163	0xbd1f587b	-0.03890274
164	0xbda854e0	-0.082193136
165	0xbee2f6f3	-0.44329032
166	0x3d2d3424	0.042286053
167	0x3dd3795d	0.103258826
168	0x3d4d7bde	0.050166957
169	0x3d5ab791	0.05339772
170	0x3e04ecba	0.12980929
171	0x3e8c1dda	0.27366525
172	0xbcde8dae	-0.027167168
173	0x3d92c189	0.0716582
174	0x3d5a204b	0.053253453
175	0x3dc03c58	0.0938651
176	0x3dc31f37	0.09527438
177	0xbe8e88a5	-0.27838627
178	0xbea3829f	-0.31935593
179	0xbd15eb15	-0.036601145
180	0xbe932348	-0.28737855
181	0x3d8c4130	0.06848371
182	0xbdbe03ff	-0.09278106
183	0x3e1a37e6	0.15060386
184	0xbdddfaa6	-0.10838823
185	0xbf018308	-0.5059056
186	0x3ddd030d	0.107915975
187	0xbe9e6e5f	-0.3094358
188	0x3e60501c	0.2190556
189	0xbcc477cc	-0.023982905
190	0x3e571f1a	0.21007958
191	0xbe0a6149	-0.13513674
192	0x3e0d837b	0.13819687
193	0x3c2f8a33	0.010714102
194	0xbda4addb	-0.08040973
195	0xbdafbeff	-0.085813515
196	0xbdc134ef	-0.094339244
197	0x3d50d7bc	0.05098699
198	0x3d5480d9	0.05188069
199	0xbe245e5b	-0.16051619
200	0x3d34770d	0.04405885
201	0x3df77d43	0.12084439
202	0x3d98cf3f	0.07461404
203	0x3daa93d5	0.08328978
204	0xbddbe583	-0.10737135
205	0xbe02cd32	-0.12773588
206	0x3dc6be4d	0.09704266
207	0x3b9827ef	0.0046434323
208	0xbd07005c	-0.032959327
209	0x3d38e2eb	0.04513828
210	0xbccdc7da	-0.02511971
211	0xbd71774c	-0.05895166
212	0xbc45d38e	-0.012074364
213	0x3d645ce3	0.055752646
214	0x3d6c9153	0.05775578
215	0x3e30089b	0.17190783
216	0xbd712ccc	-0.058880612
217	0xbe57c7f4	-0.2107237
218	0x3d50ff7f	0.05102491
219	0xbe8cabbe	-0.2747478
220	0x3d285698	0.041098207
221	0x3e37ba42	0.17942145
222	0x3db47e4a	0.0881315
223	0x3dc4f2ab	0.09616598
224	0xbcf90891	-0.030399593
225	0x3e24422a	0.16040865
226	0x3dc53b01	0.09630395
227	0x3da7f9a8	0.08201915
228	0x3d3e3ab0	0.046442688
229	0x3dd43416	0.10361497
230	0xbdcff3e9	-0.10153944
231	0x3d637505	0.05553152
232	0xbc609b0e	-0.013708843
233	0xba002564	-0.0004888384
234	0x3e511f56	0.2042211
235	0xbd09b3a2	-0.033618577
236	0x3cd2d1d4	0.02573482
237	0x3bd0cae1	0.0063718413
238	0x3e322d8e	0.1740019
239	0x3d64b635	0.05583783
240	0x3d690e83	0.056898605
241	0xbde41a53	-0.111378334
242	0x3de28e31	0.11062277
243	0xbf0a1a0b	-0.5394599
244	0xbd7be16f	-0.061494287
245	0x3e1e614e	0.15466806
246	0x3cfe8cf6	0.031073075
247	0x3d8c16ec	0.068403095
248	0xbe34c547	-0.1765338
249	0x3e116e05	0.14202125
250	0xbd95a555	-0.07306925
251	0x3da17fe7	0.078857236
252	0xbe045ee9	-0.1292683
253	0x3d808611	0.06275571
254	0x3d394388	0.04523042
255	0xbd41bff2	-0.047302194

feature.2.bias f4 [128]
0	0xbd8c5059	-0.068512626
1	0xbd783dc0	-0.060605764
2	0x3e307eaa	0.17235819
3	0x3d82e160	0.06390643
4	0x3dd97b83	0.10619261
5	0xb9205c49	-0.00015293168
6	0x3de4a06e	0.11163412
7	0xbce4346c	-0.027857028
8	0xbdc32240	-0.09528017
9	0x3e6ff914	0.2343486
10	0xbda79427	-0.08182555
11	0x3cdb9c62	0.026807968
12	0xbd052318	-0.03250417
13	0xbc82b3e0	-0.015954912
14	0x3ce34292	0.027741704
15	0x3cf90d9e	0.030402001
16	0x3e1ab78e	0.15109083
17	0xbd8ebe8d	-0.069699384
18	0xbd5ba08b	-0.053619903
19	0x3ccb64a4	0.024828263
20	0x3d6f12cd	0.05836754
21	0xbcac9441	-0.021066787
22	0x3e02a365	0.12757643
23	0xbba7c21a	-0.0051195743
24	0x3dbf07b8	0.09327644
25	0x3e3aa48a	0.18226829
26	0x3d649d0c	0.055813834
27	0x3e142533	0.14467315
28	0x3d95e175	0.07318393
29	0x3d4860fd	0.04892062
30	0x3e50e6ad	0.20400496
31	0x3c626859	0.013818824
32	0x3e0757de	0.13217112
33	0xbc2c86aa	-0.010530153
34	0x3dd7093c	0.10499808
35	0x3dde2c0c	0.10848245
36	0x3dd36858	0.10322636
37	0xbdaab70b	-0.08335694
38	0xbd8562f6	-0.06513016
39	0xbd375b8f	-0.04476505
40	0x3a996df2	0.001170574
41	0x3e352af5	0.17692168
42	0x3d5eb766	0.05437412
43	0xbd2f6c2f	-0.04282778
44	0xba78fd3d	-0.00094981847
45	0xbd9cc430	-0.07654607
46	0x3e1d175e	0.15340945
47	0x3df2dad8	0.118581474
48	0x3d914082	0.07092382
49	0xbccab223	-0.024743145
50	0x3daeca5a	0.08534689
51	0xbd7ebaaa	-0.062189735
52	0x3bd11914	0.0063811634
53	0x3e346573	0.17616825
54	0x3d7ca8d4	0.061684445
55	0xbd2d5da7	-0.042325642
56	0x3dba043d	0.0908284
57	0x3d1ef831	0.038810913
58	0x3e3eae80	0.18621254
59	0x3e283a25	0.1642843
60	0x3e05a872	0.13052538
61	0x3d5e04d5	0.054203827
62	0x3dc089d2	0.09401287
63	0x3e2c72b4	0.16840631
64	0xbdc8f07e	-0.09811495
65	0x3e3c1c5a	0.1837019
66	0x3af268cc	0.0018494367
67	0x3b0ea69c	0.0021766787
68	0x3e296869	0.16543736
69	0xbdd20749	-0.10255296
70	0x3dd9110a	0.10598953
71	0x3e41604e	0.18884394
72	0xbd8c6b87	-0.06856447
73	0xbd8ea367	-0.0696476
74	0x3d4c883b	0.049934607
75	0xbb955e1b	-0.0045583374
76	0x3e13d773	0.14437656
77	0x3d113439	0.035450194
78	0x3d6a7d96	0.057248674
79	0xbd3cca38	-0.04609129
80	0x3e3cb001	0.18426515
81	0x3dcc991f	0.09990143
82	0x3db7fa88	0.08983332
83	0x3d13d319	0.03608999
84	0x3b9dfbfa	0.0048212977
85	0x3c17a18f	0.009254827
86	0xbc845af3	-0.01615665
87	0xbbfadc66	-0.007655668
88	0x3cd5fafc	0.026120655
89	0x3e44d953	0.19223528
90	0x3da91ace	0.08257066
91	0x3c944c6c	0.018102847
92	0x3e86c39c	0.26321113
93	0x3ccdcd30	0.025122255
94	0x3d131736	0.035910808
95	0x3e13ad0b	0.1442148
96	0x3dde049e	0.108407244
97	0x3d496e40	0.04917741
98	0x3de85a75	0.11345378
99	0x3d222f42	0.03959585
100	0x3e299410	0.16560388
101	0x3c365a65	0.01112995
102	0x3d27c384	0.040957943
103	0x3db950cd	0.09048615
104	0x3d8d5cc7	0.069024615
105	0x3ba4ded0	0.005031444
106	0x3e6019fa	0.2188491
107	0xbc25507f	-0.010089993
108	0x3da4af0e	0.080412015
109	0xbd94c053	-0.072632454
110	0xbd06e15c	-0.032929763
111	0x3d788f41	0.060683493
112	0x3cb38c81	0.021917583
113	0x3e98ed69	0.2986863
114	0x3e2c18c4	0.16806322
115	0xbc5cbbfe	-0.013472555
116	0x3de3e430	0.11127508
117	0x3e81a34f	0.25319907
118	0x3a8693bb	0.0010267416
119	0x3e32179e	0.17391822
120	0x3e3ea2bb	0.18616764
121	0xbd231db7	-0.03982326
122	0xbcf45d03	-0.029829508
123	0x3dfb0234	0.122562796
124	0x3d4795f9	0.04872701
125	0xbdc0fd48	-0.094233096
126	0xbd5627eb	-0.052284162
127	0xbdaa2ca1	-0.083092935

value_stream.0.weight f4 [64, 128]
0	0x3e657199	0.22406615
1	0x3e31e83b	0.17373745
2	0xbe51f849	-0.2050487
3	0x3e621066	0.22076568
4	0x3df4f928	0.11961585
5	0x3e3914dd	0.18074365
6	0xbe30cba9	-0.1726519
7	0x3e130338	0.14356697
8	0x3e4ab70b	0.19796388
9	0x3aa0bf3e	0.0012264026
10	0x3e3ffca0	0.18748713
11	0x3e8cd5c0	0.27506828
12	0x3e20692b	0.15665118
13	0x3e96e847	0.2947409
14	0x3e9f9400	0.31167603
15	0x3e97dff8	0.29663062
16	0x3d06133b	0.032733183
17	0x3e396972	0.1810663
18	0x3e582adb	0.21110098
19	0x3d4c9ab3	0.04995222
20	0x3e1768a8	0.14786017
21	0x3e74d3fe	0.23908994
22	0x3e04a8e3	0.1295505
23	0x3e5770ca	0.2103912
24	0x3dfa603b	0.12225386
25	0x3e19a253	0.15003328
26	0xbd389d8a	-0.045072116
27	0x3dfe3ead	0.12414298
28	0x3e6ac81e	0.22927901
29	0xbe79e811	-0.24404933
30	0x3ddd3566	0.108012006
31	0x3e7e1070	0.24810958
32	0x3e199c6e	0.1500108
33	0x3e52f488	0.20601094
34	0x3dc070ab	0.0939649
35	0x3e007b09	0.12546934
36	0x3dbf9646	0.09354834
37	0x3e050fa1	0.12994243
38	0x3dd89a01	0.10576249
39	0x3e862d2d	0.2620634
40	0x3e4ce7e8	0.2001034
41	0x3cf66a2b	0.030079922
42	0x3e5602ec	0.20899552
43	0x3eec2850	0.46124506
44	0x3dd8a6e0	0.10578704
45	0x3ecbd77a	0.39812833
46	0x3d881066	0.06643753
47	0x3ce78166	0.028259944
48	0xbdbb9efc	-0.09161183
49	0x3dbf4cf2	0.09340848
50	0x3e4db99b	0.20090334
51	0x3db58bf7	0.08864587
52	0x3e506084	0.20349318
53	0x3e0c68fc	0.13711923
54	0x3e929d10	0.28635454
55	0xbb186e55	-0.0023259122
56	0x3e55704f	0.20843624
57	0x3e0b354a	0.13594547
58	0x3e6a46cd	0.22878571
59	0xbe126b97	-0.14298855
60	0xbd9a14e9	-0.075235195
61	0x3e68ee7d	0.22747226
62	0x3dcb2171	0.09918488
63	0xbe3eadf3	-0.18621044
64	0x3e636093	0.22204809
65	0xbd213937	-0.039361205
66	0x3e0131c0	0.12616634
67	0x3e70239f	0.23451088
68	0xbe281b11	-0.16416575
69	0x3e0541fe	0.13013455
70	0x3cf27b90	0.029599935
71	0xbc2affdf	-0.010436981
72	0x3d06ec87	0.032940414
73	0x3e9665c6	0.29374522
74	0x3e4f1ae1	0.20225097
75	0x3e875883	0.26434717
76	0x3d8ad521	0.06778932
77	0x3e23f78a	0.16012397
78	0x3e0634e2	0.1310611
79	0x3e9d6bcf	0.30746314
80	0x3da400f0	0.08007991
81	0x3d933765	0.071883
82	0x3e9d4b83	0.30721673
83	0x3ea27305	0.31728378
84	0x3dd4670c	0.10371217
85	0x3e92c8f0	0.28668928
86	0x3ddfab95	0.109213986
87	0x3ea2a109	0.31763485
88	0x3e843752	0.25823456
89	0x3e672716	0.22573504
90	0x3eb036e0	0.34416866
91	0x3d8e3126	0.06942968
92	0x3dbc0a62	0.09181668
93	0x3ed1cad6	0.40975064
94	0x3e5347e1	0.20632888
95	0xbd82a5a2	-0.06379248
96	0x3ebcc0b5	0.36865774
97	0x3e94a423	0.29031476
98	0x3e16d40d	0.14729328
99	0x3ee3d2be	0.4449672
100	0x3e7d6736	0.24746403
101	0x3e32921c	0.17438549
102	0xbe08907e	-0.1333637
103	0x3e88d1d5	0.2672259
104	0x3e99f5dc	0.30070388
105	0x3eab054a	0.33402473
106	0x3d8776fc	0.06614491
107	0x3ea15b5b	0.3151501
108	0x3dc28717	0.094984226
109	0x3e47e4c7	0.19520865
110	0x3e52fa46	0.20603284
111	0x3e1f59c1	0.15561582
112	0x3eb3b18c	0.35096395
113	0x3deba2b5	0.11505643
114	0x3e2c53ce	0.16828844
115	0x3e110880	0.14163399
116	0xbddcec6f	-0.10787284
117	0x3e32c8db	0.17459433
118	0x3e10097a	0.14066115
119	0x3e170c57	0.14750801
120	0xbe41fca9	-0.18944038
121	0x3dbba7f6	0.091628954
122	0x3dfc468b	0.123181425
123	0xbdfbcdb1	-0.12295092
124	0x3efde7ae	0.4959082
125	0x3e9cdbea	0.3063653
126	0x3e5b3062	0.21405175
127	0x3eaac003	0.33349618
128	0xbec8eb98	-0.39242244
129	0xbe37d0c4	-0.17950732
130	0x3efdc7e5	0.4956657
131	0xbe461db7	-0.19347273
132	0xbdac7f93	-0.0842277
133	0xbe002f39	-0.12518014
134	0x3ec1b6c5	0.37834755
135	0xbf433521	-0.76252943
136	0xbd5dbed0	-0.05413705
137	0x3e20f440	0.15718174
138	0xbdaad7c7	-0.083419375
139	0xbec09a7d	-0.37617865
140	0xbe2227c1	-0.15835477
141	0xbec98890	-0.39362
142	0xbeaa0e36	-0.33213967
143	0xbeafc19c	-0.343274
144	0x3d5fb821	0.05461896
145	0xbd738d68	-0.059461027
146	0xbe912c01	-0.28353885
147	0xbf1eef0a	-0.62083495
148	0xbf07f085	-0.5310138
149	0xbde0b786	-0.10972504
150	0x3e3734e9	0.17891277
151	0xbcb73b4f	-0.022367148
152	0xbeb37d02	-0.3505631
153	0x3da9a0fd	0.08282659
154	0x3ea8e945	0.3299047
155	0xbed18818	-0.40924144
156	0xbebeea9f	-0.37288377
157	0x3ee275f6	0.44230622
158	0xbf426483	-0.7593462
159	0xbdfade07	-0.122493796
160	0x3c8c1761	0.017100992
161	0xbd9823a2	-0.074286714
162	0x3e633b7c	0.2219066
163	0x3c9cd229	0.01914318
164	0x3d2d0b8d	0.042247344
165	0xbe2421d5	-0.16028531
166	0xbdcb221f	-0.099186175
167	0xbe7b3be3	-0.24534564
168	0xbe4f4df5	-0.20244582
169	0x3ebacbd7	0.36483642
170	0x3c013b27	0.007887638
171	0xbf082221	-0.53177077
172	0xbde3e7e0	-0.11128211
173	0xbeea4cd3	-0.45761737
174	0xbdf4fb18	-0.11961955
175	0x3dd82e28	0.105556786
176	0x3ec7dcd6	0.39035672
177	0xbebac15c	-0.36475646
178	0xbd657499	-0.0560194
179	0xbe45bf68	-0.19311297
180	0xbe3319f3	-0.17490368
181	0x3de9058d	0.11378012
182	0xbea7481f	-0.32672212
183	0xbd49b856	-0.049248062
184	0xbc891f78	-0.016738638
185	0xbdf75935	-0.12077562
186	0xbecba19b	-0.39771733
187	0x3ed032c5	0.40663734
188	0x3eafd42e	0.34341568
189	0xbe7c760a	-0.24654403
190	0xbe11cce2	-0.14238313
191	0x3ebe3948	0.37153077
192	0xbea5b2a3	-0.32362852
193	0x3ecba10c	0.39771307
194	0xbe3400de	-0.17578456
195	0xbe927c68	-0.2861054
196	0x3eb4ba81	0.3529854
197	0xbe3ee760	-0.1864295
198	0xbf1ee0f1	-0.62061983
199	0x3ea0772e	0.31340927
200	0xbd5e546d	-0.054279733
201	0xbe871815	-0.2638556
202	0xbd32afa9	-0.043624554
203	0xbebe886d	-0.3721346
204	0x3e34b9e6	0.1764904
205	0xbe82ad43	-0.25522813
206	0x3e3505f1	0.17678048
207	0xbea865bb	-0.32890114
208	0x3da983f5	0.08277122
209	0xbc15fae1	-0.0091540525
210	0xbebf71fe	-0.37391657
211	0xbe6f6141	-0.23376943
212	0xbe8d012f	-0.27539966
213	0xbe98287e	-0.29718393
214	0xbdd2c2fb	-0.10291096
215	0xbe8af257	-0.27138016
216	0xbeb29dda	-0.34886056
217	0x3e3f7878	0.18698299
218	0xbef84429	-0.48489502
219	0xbac582b2	-0.0015068857
220	0x3d349848	0.04409054
221	0xbeb1ea45	-0.34749046
222	0xbdfbed93	-0.12301173
223	0x3ead995d	0.3390607
224	0xbe9e55dd	-0.30924883
225	0xbf0337c1	-0.5125695
226	0x3d39f8f3	0.045403432
227	0xbeea2ec3	-0.457388
228	0xbd5f85bb	-0.054570895
229	0xbe75a896	-0.23990092
230	0x3e99d70d	0.30046883
231	0xbe62a751	-0.22134139
232	0xbe72ae78	-0.23699367
233	0xbe6a82dd	-0.22901483
234	0x3e2b756c	0.16744012
235	0xbe46d2b6	-0.19416317
236	0xbea0b0fe	-0.31385034
237	0xbe3d54a9	-0.18489327
238	0xbe8e528f	-0.27797362
239	0x3c0117d7	0.007879219
240	0xbeb2d179	-0.3492544
241	0x3e43a920	0.19107485
242	0x3cc3f7fe	0.023921963
243	0xbeaf01ef	-0.34181163
244	0x3e986a86	0.2976877
245	0x3d1fba1b	0.038995843
246	0xbf1456bc	-0.57944846
247	0x3d379588	0.04482034
248	0x3ee91d4d	0.45530167
249	0xbe2fc2b7	-0.17164122
250	0xbe7962ba	-0.24354067
251	0x3ebde1f6	0.37086457
252	0xbf0b1613	-0.5433056
253	0xbe60cf86	-0.21954164
254	0xbe8268f7	-0.25470707
255	0xbec18ab7	-0.37801144

value_stream.0.bias f4 [64]
0	0x3e25dfbe	0.16198632
1	0x3e605ef1	0.21911217
2	0xbd958558	-0.07300824
3	0x3e23c931	0.15994717
4	0xbce166ff	-0.027514933
5	0x3e0d0a70	0.13773513
6	0xbdb809d8	-0.089862525
7	0xbd2482e4	-0.04016389
8	0x3d8b5ac1	0.06804419
9	0x3db4d560	0.088297606
10	0x3d5d25ab	0.053991
11	0xbd6bd64b	-0.057577413
12	0x3d1b415a	0.03790412
13	0x3dea88ba	0.1145186
14	0x3e993d88	0.29929757
15	0x3d9158f2	0.07097043
16	0x3d6250d7	0.055252876
17	0x3dc60976	0.09669773
18	0x3e373e1c	0.17894787
19	0xbc9474a7	-0.01812203
20	0xbc896b3f	-0.016774772
21	0xbba43df2	-0.0050122673
22	0x3de53ccd	0.111932375
23	0xbdbca311	-0.0921079
24	0xbdc2861d	-0.09498236
25	0x3daddf78	0.08489889
26	0x3dde3252	0.108494416
27	0x3e2ce1a1	0.16882946
28	0x3e8f6925	0.28009906
29	0x3e82f974	0.25580943
30	0x3ded6698	0.11591834
31	0x3dfe2282	0.124089256
32	0x3e104ee6	0.14092597
33	0x3d940a1c	0.07228491
34	0xbd9325be	-0.07184933
35	0xbde05d0b	-0.109552465
36	0x3cd4137e	0.0258882
37	0xbd82c058	-0.06384343
38	0x3d4a47fe	0.049385063
39	0x3d8f1608	0.06986624
40	0x3d5e620a	0.054292716
41	0x3cabc0e4	0.020966
42	0x3e2fbb7a	0.1716136
43	0x3e926fbb	0.2860087
44	0x3df1a8eb	0.11799797
45	0x3d11cbca	0.03559474
46	0x3e8cb1ea	0.27479488
47	0x3dff32cf	0.12460863
48	0xbda609c7	-0.08107334
49	0x3c2a0fdb	0.010379757
50	0x3e553fd0	0.20825124
51	0x3e3903e2	0.18067887
52	0x3e1f4cc1	0.15556623
53	0x3e8e4317	0.2778556
54	0x3af1b644	0.001844116
55	0xbd01b1df	-0.03166377
56	0x3e80d984	0.2516595
57	0x3e2b2e9b	0.16716997
58	0x3d19d04b	0.03755216
59	0xbd0e5d29	-0.034756813
60	0x3e83232e	0.25612777
61	0x3cd2ee9c	0.025748543
62	0x3d75cc06	0.060009025
63	0x3d1ff193	0.039048743

value_stream.2.weight f4 [1, 64]
0	0xbea29232	-0.31752163
1	0x3f260f3b	0.6486699
2	0x3dd6753f	0.10471582
3	0xbe6e675c	-0.23281616
4	0x3e8ab278	0.27089286
5	0xbea61fdf	-0.3244619
6	0xbda96f96	-0.082732365
7	0x3d8acd16	0.06777398
8	0xbe7cf620	-0.24703264
9	0xbe7284e8	-0.23683512
10	0xbe9874a8	-0.29776502
11	0x3c39f336	0.01134949
12	0xbe9a41ca	-0.30128318
13	0x3f2cf27d	0.6755751
14	0x3f4c6eca	0.7985655
15	0x3d9cf7b1	0.07664431
16	0xbea235a0	-0.31681538
17	0xbe97fe9e	-0.29686445
18	0x3f24f406	0.6443485
19	0x3d530d00	0.05152607
20	0x3f15fed2	0.5859195
21	0x3dbf4455	0.09339205
22	0xbe6348d3	-0.22195749
23	0xbdd29c7c	-0.10283753
24	0xbe2a300a	-0.16619888
25	0xbe5b4f2b	-0.21416919
26	0xbe9c8aab	-0.30574545
27	0x3f2c7d97	0.67379135
28	0x3f44d66d	0.7688969
29	0x3f3d249a	0.73883975
30	0xbe75842b	-0.239762
31	0xbea508ff	-0.32233426
32	0xbe769cd6	-0.24083266
33	0x3d5914ee	0.052998476
34	0x3e855452	0.26040894
35	0x3ec36353	0.38161716
36	0x3e169ed8	0.14709032
37	0x3b4b6b35	0.0031039242
38	0xbe884c40	-0.26620674
39	0xbea0b168	-0.3138535
40	0xbe96c656	-0.29448193
41	0xbe82e3b4	-0.2556435
42	0xbe543f95	-0.2072738
43	0x3f3485e5	0.70516807
44	0x3f63f45b	0.8904473
45	0xbe9e5ba0	-0.3092928
46	0x3f822866	1.0168579
47	0xbe9f6ab9	-0.3113611
48	0x3d0ba361	0.034091357
49	0xbde94240	-0.11389589
50	0x3f208367	0.62700504
51	0xbe9b174c	-0.30291212
52	0xbe62a561	-0.221334
53	0x3f10a7b1	0.56505877
54	0xbe811ba9	-0.25216416
55	0xbde94cad	-0.11391578
56	0x3f21ebfb	0.632507
57	0xbe8b845d	-0.27249423
58	0xbea48439	-0.32132128
59	0x3c905424	0.017618246
60	0x3f3c2e04	0.73507714
61	0xbe56c951	-0.20975234
62	0xbe9bc666	-0.30424803
63	0xbe5d5244	-0.21613413

advantage_stream.0.weight f4 [64, 128]
0	0x3de1b1d1	0.11020244
1	0xbb26ca44	-0.002545015
2	0x3db3ce0d	0.087795354
3	0x3c9fc4d1	0.019503029
4	0x3cca30de	0.024681505
5	0x3e2a58b2	0.16635397
6	0xbdb451a3	-0.088046335
7	0xbc4d1830	-0.012517974
8	0x3d91bfc5	0.07116655
9	0x3d9a34c9	0.07529599
10	0x3e6481a0	0.22315073
11	0x3e8f446e	0.27981895
12	0xbd70bb30	-0.058772266
13	0x3d8609b4	0.065448195
14	0x3e7ab6f0	0.24483848
15	0xbe85380c	-0.26019323
16	0xbd7169bb	-0.058938723
17	0xbdd6f9c4	-0.10496858
18	0x3cdca383	0.026933437
19	0xbe22d183	-0.15900235
20	0xbe2af25a	-0.16694012
21	0x3dd68bf4	0.10475913
22	0xbe129fd5	-0.14318784
23	0x3cb778b4	0.022396423
24	0x3ddb1add	0.10698483
25	0x3d783a20	0.060602307
26	0xbe16366c	-0.14669198
27	0x3e349507	0.17634974
28	0xbca69d2b	-0.020338615
29	0xbc4660e5	-0.012108062
30	0xbef96182	-0.48707205
31	0x3d20cfd2	0.039260693
32	0x3d9b93b9	0.07596535
33	0x3da1f2ba	0.079076245
34	0xbde571c1	-0.112033375
35	0x3ca1c6b8	0.019748077
36	0xbc759f40	-0.014991581
37	0x3d379bf9	0.04482648
38	0xbe84bf67	-0.25927278
39	0x3dcd9123	0.10037448
40	0x3e16a6f3	0.14712124
41	0x3c4f164b	0.012639592
42	0x3e03bf55	0.12865956
43	0xbe97e6aa	-0.2966817
44	0x3d43d8ab	0.047814053
45	0xbe8fc244	-0.280779
46	0xbde8cf12	-0.113676205
47	0x3d137f75	0.036010224
48	0x3e00efc7	0.12591468
49	0x3d3b3208	0.04570201
50	0x3da8c5ac	0.08240828
51	0xbd13232f	-0.035922226
52	0x3dd8a141	0.10577632
53	0xbc81ad37	-0.015829666
54	0x3e2c5f15	0.16833146
55	0x3ccd7a58	0.025082752
56	0x3d09ba0e	0.0336247
57	0xbdd6acad	-0.10482154
58	0xbed78a86	-0.42097872
59	0x3dde14d8	0.108438194
60	0xbd2b61db	-0.04184137
61	0x3dd22e33	0.10262718
62	0x3d65e893	0.056130003
63	0x3e63cf7a	0.22247115
64	0xbeac1982	-0.3361321
65	0x3d7dc272	0.061953016
66	0xbd7b0f20	-0.06129372
67	0xbc987c59	-0.018613981
68	0x3d1060a3	0.03524841
69	0x3dd0b86c	0.10191426
70	0xbeb5dbdd	-0.35519305
71	0xbe19a1ee	-0.15003178
72	0x3d24782f	0.04015368
73	0xbefc2ca7	-0.49252817
74	0xbd09d56f	-0.03365081
75	0xbdaf86e9	-0.08570654
76	0x3c6d3fd4	0.01448055
77	0xbdb6cf79	-0.08926291
78	0x3d9ca7bf	0.076491825
79	0xbebfa61a	-0.37431413
80	0xbcb86096	-0.022506993
81	0x3e65e304	0.22449881
82	0xbeea7f91	-0.4580045
83	0x3e32b73a	0.17452708
84	0xbe2c60c5	-0.1683379
85	0x3db85d54	0.09002176
86	0x3e3cb8f1	0.18429925
87	0xbe637bb4	-0.22215158
88	0x3d3082be	0.043093435
89	0xbd864db8	-0.065577924
90	0xbce1c0a5	-0.02755768
91	0x3c8e6918	0.017384097
92	0x3d96d910	0.0736562
93	0x3e120202	0.14258578
94	0xbda68ce5	-0.08132342
95	0xbcf8d89c	-0.030376725
96	0xbeefba84	-0.46821988
97	0xbf62a8f1	-0.88539034
98	0xbd5a8ab8	-0.05335495
99	0xbf22a882	-0.6353837
100	0xbd518008	-0.05114749
101	0xbd3cc974	-0.04609056
102	0x3da6a29a	0.081364825
103	0xbe6b8cb1	-0.23002888
104	0x3d7075aa	0.058705963
105	0xbf3b97e2	-0.7327863
106	0x3e1063f2	0.14100626
107	0x3e1d4c8b	0.1536123
108	0xbdc0915d	-0.09402726
109	0x3e09d1e9	0.1345898
110	0xbd8299e3	-0.06377008
111	0x3d0916a4	0.033468857
112	0x3d860a6d	0.06544957
113	0xbd4dc452	-0.050236054
114	0x3d00193c	0.031274065
115	0xbe33a890	-0.1754477
116	0xbbdca8d6	-0.006733994
117	0xbb2986c7	-0.0025867687
118	0x3deb3e5e	0.11486505
119	0xbda50fd5	-0.0805966
120	0xbcdb4697	-0.026767058
121	0x3dffec38	0.12496227
122	0x3de330c0	0.11093283
123	0x3c45f7e4	0.0120830275
124	0xbf001403	-0.50030535
125	0x3db21b9a	0.08696671
126	0x3e40b5ce	0.18819353
127	0xbe5b09b0	-0.21390414
128	0x3d06f466	0.03294792
129	0x3d65042e	0.05591219
130	0x3d9d67b2	0.07685794
131	0xbca99f55	-0.020705858
132	0xbd9e1534	-0.07718888
133	0x3d6336bc	0.05547212
134	0xbda92199	-0.08258361
135	0x3c66d0c5	0.0140878605
136	0x3d68a9ad	0.05680244
137	0x3d7a2bdb	0.06107698
138	0xbd82a987	-0.06379991
139	0x3c90adc0	0.017660975
140	0x3c4d6011	0.012535111
141	0xbd22b0a3	-0.039719235
142	0x3d4884f9	0.048954938
143	0x3d85f194	0.06540218
144	0x3cbcbe5d	0.023039991
145	0xbac98681	-0.0015375168
146	0xbd9e442d	-0.07727847
147	0xbd704179	-0.05865619
148	0x3da97b8f	0.0827552
149	0xbd8e294e	-0.06941472
150	0x3ccb564e	0.024821427
151	0xbd3c8a66	-0.046030425
152	0xbda3956e	-0.07987486
153	0xbda665db	-0.08124896
154	0xbd8efd72	-0.069819346
155	0xbd9fa422	-0.07794978
156	0xbdb90515	-0.090341724
157	0xbce14e22	-0.027503077
158	0xbd59a5db	-0.053136688
159	0x3b6003be	0.0034181918
160	0xbd37ddeb	-0.04488937
161	0xbd70f6e1	-0.058829192
162	0x3d94653d	0.07245872
163	0xbd803dd0	-0.0626179
164	0xbd8b03ff	-0.067878716
165	0xbdb427dd	-0.08796666
166	0x3cffa61c	0.031207137
167	0xbdb5a2e3	-0.08868959
168	0xbdae9cb0	-0.085259795
169	0xbd8eb811	-0.06968702
170	0xbda6c111	-0.08142293
171	0x3d253885	0.040337104
172	0x3d8e8fc4	0.06961015
173	0x3c8be6c2	0.017077807
174	0xbdb39594	-0.08768764
175	0x3cc36e67	0.023856355
176	0x3d6fa005	0.058502216
177	0xbd6650d2	-0.05622942
178	0xbca25d30	-0.019819826
179	0xbd9e0410	-0.077156186
180	0x3d456ea7	0.04820123
181	0xbd6dc7dd	-0.058051933
182	0x3d828085	0.063721694
183	0xbd92dcd8	-0.07171029
184	0xbd9b8a32	-0.07594718
185	0x3d1d9be9	0.038478766
186	0x3da5883a	0.08082624
187	0xbdb8eb19	-0.09029216
188	0xbc8c1648	-0.017100468
189	0x3d9e1364	0.07718542
190	0x3d673fc7	0.056457307
191	0x3af5aad3	0.0018742926
192	0x3beb5ead	0.007182917
193	0x3d19e1e4	0.03756894
194	0x3d0a974a	0.033835687
195	0xbc9c5117	-0.019081635
196	0xbdaf8ddf	-0.08571982
197	0x3c485932	0.012228297
198	0x3d6dac71	0.05802578
199	0x3d43896c	0.047738478
200	0xbb92e150	-0.0044824257
201	0xbda8d40b	-0.08243569
202	0x3d993699	0.07481117
203	0xbd8968fa	-0.06709476
204	0xbd95104a	-0.072784975
205	0x3da13423	0.078712724
206	0xbd54edda	-0.051984645
207	0x3cf68468	0.030092433
208	0x3cdf3d66	0.027250957
209	0xbd6d6cd1	-0.057965104
210	0xbd1ba805	-0.038002033
211	0xbcc9a175	-0.024613122
212	0xbcc4a7a9	-0.024005728
213	0x3cd04189	0.025421875
214	0xbd57d9d4	-0.05269797
215	0xbd08207b	-0.0332341
216	0x3d9ea003	0.077453636
217	0x3d8b25e8	0.067943394
218	0xbd715baa	-0.05892531
219	0xbbb7367a	-0.005591211
220	0xbd173296	-0.036913477
221	0xbd070299	-0.03296146
222	0xbdaea514	-0.0852758
223	0x3d9403fe	0.07227324
224	0xbd88f609	-0.066875525
225	0x3d91343a	0.070900396
226	0xbdc255ba	-0.09489007
227	0xbd64d941	-0.055871252
228	0xbd22cbca	-0.03974513
229	0xbd10edd6	-0.035383068
230	0x3d29bc43	0.041439306
231	0x3d889fc5	0.066710986
232	0x3d7d0274	0.061769918
233	0x3d797791	0.060905043
234	0x3cba5679	0.022746312
235	0x3cb1219a	0.021622468
236	0xbd61faaf	-0.05517071
237	0xbd7c41fd	-0.06158637
238	0xbd962cfc	-0.07332799
239	0xbcccd0f0	-0.025001973
240	0x3d06518f	0.032792624
241	0x3d8e2ae9	0.06941778
242	0xbd9e106f	-0.07717978
243	0x3bfebf15	0.0077742436
244	0xbbdf7920	-0.006819859
245	0xbd3c5455	-0.045978863
246	0xbdc411f9	-0.095737405
247	0x3d5e16fe	0.054221146
248	0x3d96fcfd	0.073724724
249	0xbd53f5e6	-0.05174818
250	0x3d8ea8c1	0.06965781
251	0xbdb30b41	-0.08742381
252	0x3cf1b908	0.029507175
253	0xbd13461c	-0.035955533
254	0x3d8f9be5	0.070121564
255	0x3c88a918	0.016682193

advantage_stream.0.bias f4 [64]
0	0xbb8fece9	-0.0043922556
1	0x3d5063fb	0.0508766
2	0xbd8186a0	-0.06324506
3	0x3e481768	0.19540179
4	0x3babd6b5	0.005244101
5	0xbdc69b0d	-0.09697542
6	0x3dd11e7a	0.10210891
7	0x3c368f4e	0.011142565
8	0xbc271fc4	-0.010200445
9	0x3ac40639	0.0014955468
10	0xbd86ad8d	-0.06576071
11	0xbc72a9f4	-0.014811028
12	0xbbb38b18	-0.0054792278
13	0xbd8adf69	-0.06780893
14	0xbda7d328	-0.08194572
15	0x3e313787	0.17306338
16	0x3aa97f52	0.0012931621
17	0x3d85d789	0.06535251
18	0x3e44f03b	0.19232266
19	0x3de3ec27	0.11129027
20	0x3cdf9941	0.027294757
21	0x3dd3f77c	0.10349938
22	0x3d346153	0.044038128
23	0x3cd0f5c0	0.025507808
24	0xbdb41bbf	-0.08794355
25	0x3e0c0baf	0.13676332
26	0xbdb1e447	-0.086861186
27	0xbcdc0f65	-0.02686281
28	0x3df7c392	0.12097849
29	0x3de78922	0.11305453
30	0x3cf4302c	0.029808126
31	0x3bbdfef0	0.005798213
32	0x3d4867f0	0.048927248
33	0x3d21f065	0.0395359
34	0xbd976d9d	-0.07393954
35	0xbcf22168	-0.029556945
36	0x3c1f9f6d	0.0097426
37	0x3db9e50c	0.0907689
38	0xbdb7d89d	-0.089768626
39	0x3d50cb49	0.050975118
40	0xbc6650be	-0.014057336
41	0x3d1db2b5	0.038500506
42	0xbce9aa2e	-0.02852353
43	0xbd777511	-0.060414378
44	0xbd611b4d	-0.054957677
45	0x3e271c46	0.16319379
46	0x3d8462d0	0.064641595
47	0x3cce8368	0.025209144
48	0x3d4c14dd	0.049824584
49	0xbe0cea2b	-0.13761203
50	0xbd1084c9	-0.035282884
51	0x3d42f73f	0.047599073
52	0x3e24dd74	0.16100103
53	0x3e73c79e	0.23806617
54	0x3d18b728	0.037284046
55	0x3bff2414	0.0077862833
56	0x3dfb01e0	0.12256217
57	0xbda7d317	-0.08194559
58	0x3d118ae6	0.035532854
59	0x3c7b425f	0.015335648
60	0x3e320e98	0.1738838
61	0xbdbd02a0	-0.09229016
62	0x3d51588a	0.051109828
63	0x3e11bfdd	0.14233346

advantage_stream.2.weight f4 [4, 64]
0	0x3d4ff718	0.050772756
1	0xbd6d8e1e	-0.05799686
2	0x3db1b005	0.08676151
3	0xbdeefbf0	-0.11669147
4	0x3d178bf3	0.0369987
5	0x3dd38ce9	0.10329611
6	0x3de96a36	0.11397211
7	0x3e87922d	0.2647871
8	0xbd0b9364	-0.03407611
9	0xbe0a57a3	-0.13509993
10	0x3ddccf5d	0.10781739
11	0x3dd058f0	0.101732135
12	0x3e44411d	0.19165464
13	0x3d5d234f	0.05398875
14	0x3dc92854	0.09822145
15	0xbee47b5b	-0.44625363
16	0x3e9b912f	0.30384204
17	0xbe267c9c	-0.16258472
18	0xbe68059a	-0.22658387
19	0x3dd12a27	0.10213118
20	0x3dd4d063	0.10391309
21	0x3df2b6de	0.118512854
22	0xbd3c1313	-0.045916628
23	0xbd920aef	-0.07130992
24	0xbd7790ed	-0.060440946
25	0x3dc51cb7	0.096246175
26	0x3d5d8543	0.054082166
27	0x3eabc990	0.33552217
28	0xbdbb22be	-0.09137486
29	0xbe967fbf	-0.29394338
30	0x3d531b59	0.051539753
31	0xbd8474f8	-0.064676225
32	0x3e7c1507	0.24617396
33	0x3c628a9a	0.0138269905
34	0x3d984373	0.0743474
35	0x3d21ffe7	0.039550688
36	0x3e955873	0.29169044
37	0xbe165497	-0.14680706
38	0x3d2e16c5	0.042502183
39	0x3de0da22	0.109791055
40	0xbd8cd565	-0.06876639
41	0xbd3d39e2	-0.04619778
42	0xbd297fc8	-0.041381627
43	0x3e942c84	0.28940213
44	0xbd3416f2	-0.043967195
45	0xbef82143	-0.48462877
46	0xbe30fa5a	-0.17283002
47	0x3c187154	0.009304363
48	0xbd736b35	-0.059428412
49	0x3d1db9a2	0.03850711
50	0x3af3cbcd	0.0018600166
51	0x3e87f2d5	0.26552454
52	0xbeec4a29	-0.4615033
53	0xbf297a0d	-0.6620186
54	0xbe08cc38	-0.13359153
55	0x3ed877dd	0.42278948
56	0xbe4289e4	-0.18997914
57	0x3db9c129	0.090700455
58	0x3e8ce7fe	0.27520746
59	0xbdec5aff	-0.11540794
60	0xbba8a2fd	-0.005146383
61	0x3a84bc61	0.0010126942
62	0xba7d9c78	-0.00096745
63	0xbf0539f9	-0.52041584
64	0xbeb611a6	-0.3556034
65	0xbcfb1239	-0.030648338
66	0xbe7e1ac6	-0.24814901
67	0xbe7f4fb2	-0.24932745
68	0xbea8270a	-0.32842284
69	0xbe1cec29	-0.15324463
70	0xbee5d24d	-0.4488701
71	0x3e6b0678	0.22951686
72	0xbe57800a	-0.21044937
73	0x3f1f78f6	0.62293947
74	0xbe0834fe	-0.13301465
75	0x3ed7ef8d	0.4217495
76	0x3e2c8178	0.16846263
77	0xbe022e81	-0.12713052
78	0xbd922e37	-0.07137721
79	0xbefcfdb3	-0.49412307
80	0xbdbcba7a	-0.09215255
81	0xbf0dc841	-0.5538369
82	0xbed66376	-0.41872758
83	0x3ea0c1bc	0.31397808
84	0x3dec8b7b	0.11550041
85	0xbe63f15e	-0.22260043
86	0x3d5a31ef	0.053270277
87	0xbe7a5318	-0.2444576
88	0xbdbf40b0	-0.0933851
89	0x3e8c2693	0.2737318
90	0x3dbe05ee	0.09278475
91	0xbe5f6844	-0.21817118
92	0x3f126cfb	0.5719754
93	0xbf0d84d4	-0.55280805
94	0x3cf23d2f	0.02957019
95	0x3da6d1b9	0.0814547
96	0x3ec4a740	0.38408852
97	0xbdc18e6e	-0.094509944
98	0xbe3c0ddf	-0.18364666
99	0x3ebcd84f	0.3688378
100	0x3f5bac05	0.85809356
101	0x3db7a46a	0.08966906
102	0x3c4f4c92	0.012652533
103	0x3d5872be	0.0528438
104	0x3dad093c	0.08449027
105	0xbded999d	-0.11601565
106	0x3d5fd6d8	0.05464825
107	0x3d0520fd	0.032502163
108	0xbe15da55	-0.14634068
109	0xbe58f16d	-0.21185847
110	0x3daad0df	0.0834062
111	0xbd878391	-0.06616891
112	0x3f193ab2	0.59855187
113	0x3e8da557	0.27665207
114	0x3d791e3e	0.060819857
115	0x3f13223e	0.57474124
116	0x3eb92f10	0.36168718
117	0xbe013c1a	-0.12620583
118	0xbd47e612	-0.048803397
119	0x3f175e0e	0.5912789
120	0x3f43080f	0.7618417
121	0xbe383cf6	-0.17992005
122	0xbd8d7a3b	-0.06908079
123	0xbee03d0a	-0.4379657
124	0xbe69c950	-0.22830701
125	0xbe0871e8	-0.13324702
126	0xbdae97fe	-0.08525084
127	0xbf7807aa	-0.96886694
128	0x3e9f90a2	0.31165034
129	0xbdeeff2c	-0.11669764
130	0xbe197e22	-0.14989522
131	0x3f2d1ae0	0.67619133
132	0x3d0fbc54	0.035091713
133	0x3e0741f2	0.1320875
134	0xbe95578b	-0.29168352
135	0xbee4d7b5	-0.4469582
136	0x3e59dc0f	0.21275352
137	0xbee2e1c3	-0.44312868
138	0x3c719c82	0.014746787
139	0xbe25d6c2	-0.16195205
140	0x3d9faaef	0.07796275
141	0x3e87da6a	0.26533824
142	0xbdbd2bda	-0.0923688
143	0x3f558e21	0.83419997
144	0xbea2438e	-0.31692165
145	0x3ecc96f7	0.39958927
146	0x3f66c0bc	0.9013784
147	0xbe361b2a	-0.177838
148	0x3da6d8df	0.08146834
149	0xbe3880ee	-0.18017933
150	0xbd95b761	-0.073103674
151	0x3e74d1da	0.23908177
152	0x3ce6306a	0.028099257
153	0x3e20d864	0.15707546
154	0x3dfd86e8	0.12379247
155	0xbe3d72b7	-0.18500791
156	0x3e72794b	0.23679082
157	0x3f12bb26	0.57316816
158	0xbd1f6f0c	-0.038924262
159	0xbd2b8131	-0.041871253
160	0xbf141af1	-0.5785361
161	0xbe96f2a6	-0.29482
162	0xbf302e71	-0.68820864
163	0xbeda596f	-0.42646357
164	0xbf49cb71	-0.7882605
165	0x3ee8112d	0.45325604
166	0xbd80f678	-0.0629701
167	0xbdfefe30	-0.12450826
168	0xbdead7f9	-0.11466975
169	0x3dd8cc47	0.10585838
170	0x3dca067e	0.098645195
171	0xbf0398c5	-0.5140498
172	0x3e31b931	0.17355801
173	0x3f3856b9	0.7200733
174	0x3dfdc031	0.12390173
175	0x3e84d0d9	0.25940588
176	0xbc730ed3	-0.014835077
177	0xbec53240	-0.385149
178	0x3c198608	0.009370334
179	0xbe3c58e0	-0.18393278
180	0x3f33ee93	0.7028591
181	0x3f4ab64f	0.7918443
182	0xbe8aadb1	-0.2708564
183	0xbf48f516	-0.7849897
184	0x3e337a52	0.1752713
185	0x3e47b5e1	0.19502975
186	0xbeebead9	-0.46077612
187	0x3ee3a319	0.4446037
188	0xbe770be4	-0.2412563
189	0x3e9a045a	0.30081445
190	0xbd1f69d6	-0.038919292
191	0x3eecc3d2	0.4624315
192	0xbe23f43e	-0.1601114
193	0xbcbda026	-0.023147654
194	0x3e506732	0.20351866
195	0xbedcdff5	-0.43139616
196	0x3ef974bc	0.48721874
197	0xbe141bbd	-0.14463706
198	0x3f1e045a	0.6172539
199	0x3e7fe4b3	0.24989586
200	0x3d3a1a69	0.045435343
201	0xbe3ccb1a	-0.18436852
202	0xbd134294	-0.035952166
203	0xbe96a19d	-0.29420176
204	0xbeca2813	-0.394837
205	0xbe050d1b	-0.1299328
206	0x3dceb50b	0.10093125
207	0xbe51b310	-0.20478463
208	0x3e9388c7	0.2881529
209	0x3db21108	0.08694655
210	0xbec484f7	-0.38382694
211	0x3dcb368e	0.09922515
212	0x3da49fed	0.08038316
213	0x3ee53a11	0.44770864
214	0x3c6ff54e	0.014645888
215	0xbd333e32	-0.043760486
216	0x3d5ce5a1	0.05392993
217	0xbf0c359d	-0.5476931
218	0xbe4e2212	-0.20130184
219	0x3ed4ecb7	0.4158685
220	0xbf4d7504	-0.80256677
221	0xbc40efad	-0.011775893
222	0x3ca8b44d	0.020593787
223	0x3de4565d	0.11149285
224	0x3e2b806b	0.16748206
225	0x3ef46d9d	0.47739878
226	0x3eb2d6dd	0.34929553
227	0xbcd170e3	-0.025566524
228	0xbeb1f9f9	-0.34761027
229	0xbed8d308	-0.42348504
230	0x3ca73381	0.020410301
231	0x3c7b51fa	0.015339369
232	0x3d5a5890	0.053307116
233	0x3e8afaeb	0.2714456
234	0x3c8bc670	0.017062396
235	0x3ec33459	0.38125876
236	0xbdf6be4d	-0.12048016
237	0xbdc5097f	-0.09620952
238	0xba719959	-0.0009216271
239	0x3d0849c5	0.033273477
240	0xbf0f263f	-0.55917734
241	0x3c7cda04	0.015432838
242	0xbe6a28de	-0.22867152
243	0xbe84d976	-0.2594716
244	0xbf81b88f	-1.0134448
245	0xbebad91e	-0.36493772
246	0x3eddf02a	0.43347293
247	0x3e47fc7b	0.19529907
248	0xbf494839	-0.7862583
249	0xbdc7cdb5	-0.097560324
250	0x3e9b01e0	0.30274868
251	0xbdd687b1	-0.104751
252	0x3edd44c4	0.43216527
253	0xbe648cc4	-0.22319323
254	0xbd0f0313	-0.03491504
255	0x3f4802f7	0.78129524

advantage_stream.2.bias f4 [4]
0	0x3d2016f4	0.03908439
1	0x3dadaaa9	0.084798165
2	0x3caecc7a	0.021337736
3	0x3d4894db	0.048970085
