Lunar Lander/rainbow_lunar_lander_v3.pth (torch, 142898 bytes, 11 tensors)

feature.0.weight f4 [128, 8]
0	0xbd8d2bc1	-0.06893111
1	0xbf1a1044	-0.6018107
2	0x3f07f3d5	0.53106433
3	0xbe7b37ee	-0.24533054
4	0xbd94ed16	-0.07271783
5	0xbe479b90	-0.19492936
6	0x3e849654	0.2589594
7	0xbe900427	-0.28128168
8	0xbe497fde	-0.19677684
9	0x3e961864	0.29315484
10	0x3e27d3f9	0.16389455
11	0xbe0b651f	-0.13612793
12	0x3e3ff52d	0.18745871
13	0xbe9eb36a	-0.30996257
14	0x3e1e9541	0.15486623
15	0x3ec9b18d	0.39393273
16	0x3f3bc380	0.73345184
17	0xbe8093d8	-0.25112796
18	0x3f1ca1e4	0.61184525
19	0xbe9d18ff	-0.30683133
20	0x3da3d2b7	0.07999175
21	0x3e8ca223	0.2746745
22	0xbdf9e4d6	-0.1220185
23	0x3d788e52	0.060682602
24	0x3e76cfb3	0.24102668
25	0xbbd1e854	-0.0064058695
26	0x3d4c89a8	0.049935967
27	0xbeeecda4	-0.46641266
28	0x3e72dbf9	0.23716725
29	0xbd1775ff	-0.036977764
30	0x3e2dfbfc	0.16990656
31	0xbe9c8765	-0.30572048
32	0xbe792d62	-0.24333718
33	0xbe3dd0f3	-0.18536739
34	0x3981d893	0.00024766158
35	0xbeae8e57	-0.34092972
36	0x3e022eba	0.12713137
37	0x3e5d05b5	0.21584208
38	0xbd491878	-0.0490956
39	0xbedc9fa7	-0.43090555
40	0x3e71c154	0.23608905
41	0xbe55137b	-0.20808212
42	0xbe396150	-0.18103528
43	0xbd44c5be	-0.048040144
44	0xbeb1f65d	-0.34758273
45	0xbeaaa22f	-0.3332686
46	0xbe5cbb49	-0.21555819
47	0xbdd6325d	-0.10458825
48	0xbccc1978	-0.024914488
49	0xbd66e4a2	-0.056370385
50	0xbe917d79	-0.2841604
51	0x3e8e096e	0.2774157
52	0xbf16f0e4	-0.5896132
53	0x3ef17952	0.47162873
54	0x3bce5268	0.0062964447
55	0xbb2e8a9d	-0.0026632913
56	0x3cbb1f75	0.022842148
57	0xbbe1190b	-0.0068694404
58	0xbd951b54	-0.07280603
59	0x3f0a913f	0.5412788
60	0x3e8bfe1c	0.27342308
61	0xbe9bc099	-0.30420378
62	0x3ee5c63c	0.44877803
63	0xbcd55e9b	-0.026046088
64	0x3e741e72	0.23839739
65	0x3ebb2ddc	0.36558425
66	0xbdc72ce6	-0.097253606
67	0x3e1c9e80	0.15294838
68	0x3e7aea8e	0.24503538
69	0x3f156d52	0.58369935
70	0xbe0391f2	-0.12848642
71	0x3e603840	0.21896458
72	0x3e891411	0.26773122
73	0x3d522fc0	0.05131507
74	0xbe03c464	-0.12867886
75	0xbe1c0383	-0.15235715
76	0xbecee951	-0.4041238
77	0xbdf1a164	-0.11798361
78	0x3d58cb67	0.052928355
79	0xbe6242d2	-0.22095802
80	0xbe49c6e4	-0.19704777
81	0xbf178307	-0.59184307
82	0xbea19dc1	-0.3156567
83	0xbed0f1c3	-0.4080945
84	0xbe00a103	-0.12561421
85	0xbc280628	-0.010255374
86	0x3dcfab67	0.10140114
87	0xbdcd40ce	-0.10022126
88	0xbeedc934	-0.46442568
89	0x3d1cf408	0.038318664
90	0xbe1f5b89	-0.15562262
91	0xbe1cb314	-0.15302688
92	0xbdcd241c	-0.10016653
93	0xbdc50c1a	-0.09621449
94	0x3ec0c95c	0.37653625
95	0x3e3d85a9	0.18508019
96	0x3e96e098	0.29468226
97	0xbdb8925d	-0.090122916
98	0xbdb57bcd	-0.08861504
99	0x3d3e0a4c	0.04639654
100	0xbdf2ecd1	-0.118615754
101	0xbe51fe57	-0.20507179
102	0x3e59b5cb	0.21260755
103	0x3e808d77	0.2510793
104	0x3ee0fa31	0.4394088
105	0xbeb99999	-0.36249998
106	0x3e97691d	0.29572383
107	0xbef8091c	-0.4844445
108	0xbed79944	-0.4210912
109	0xbd486347	-0.048922803
110	0x3d5fdb84	0.054652706
111	0xbda3fdf5	-0.08007423
112	0xbe8e046b	-0.27737746
113	0x3e6c8b2b	0.23099963
114	0xbe2a60df	-0.16638516
115	0x3ebcb2d4	0.36855185
116	0x3dfc35df	0.123149626
117	0xbe2d4a4d	-0.16922875
118	0x3ee1cf8d	0.4410366
119	0xbe3e851d	-0.18605466
120	0xbd1e0d5a	-0.03858695
121	0xbdbf9213	-0.09354033
122	0xbf00fba0	-0.5038395
123	0x3e2cf4e5	0.16890295
124	0x3df8b95b	0.12144729
125	0xbebc7965	-0.36811367
126	0x3e740438	0.23829734
127	0x3dabe020	0.08392358
128	0xbe41b6ea	-0.18917432
129	0xbe83fba9	-0.2577794
130	0xbc4de5dc	-0.01256701
131	0xbcfcbbe0	-0.030851305
132	0x3e747638	0.23873222
133	0x3ed0fef6	0.4081952
134	0x3e0c9117	0.13727222
135	0xbd0a5290	-0.033770144
136	0x3f1add83	0.6049425
137	0xbe93f796	-0.2889983
138	0x3dd09ce9	0.10186178
139	0x3f4a6dd8	0.7907386
140	0xbed25be9	-0.41085747
141	0xbde2beaf	-0.11071526
142	0x3e48d8c2	0.19613937
143	0xbd1169a3	-0.035501134
144	0xbd600b7e	-0.05469846
145	0x3e79c9f1	0.24393441
146	0x3e2543bb	0.16139118
147	0x3d7fb8f9	0.062432263
148	0xbf0a76c3	-0.54087466
149	0xbf0ed07b	-0.55786866
150	0xbda63488	-0.08115488
151	0x3e442258	0.19153726
152	0x3e188c53	0.1489728
153	0x3dac3342	0.08408214
154	0xbe746ffe	-0.23870847
155	0xbe1ef2e6	-0.15522346
156	0x3f02a13b	0.5102727
157	0xbe8af176	-0.27137345
158	0x3ebd3a0b	0.36958346
159	0x3e0b2548	0.1358844
160	0xbe1c93f3	-0.15290813
161	0xbe147eb6	-0.14501461
162	0xbea9708b	-0.33093676
163	0xbe8f6373	-0.2800556
164	0x3edbe31a	0.42946702
165	0x3e243410	0.16035485
166	0x3e88d498	0.26724696
167	0xbd9c8f49	-0.07644517
168	0xbe5940c2	-0.2121611
169	0x3ea63215	0.32460085
170	0x3d8eac32	0.069664374
171	0x3ddd0684	0.107922584
172	0xbe85ea00	-0.2615509
173	0xbed04614	-0.40678465
174	0xbe762c7f	-0.24040411
175	0x3eb2185e	0.34784216
176	0x3e812daa	0.2523015
177	0x3e93e06f	0.28882167
178	0x3d723357	0.059130993
179	0x3ec840b2	0.3911186
180	0x3d7a0f75	0.061049897
181	0xbeaad6bd	-0.33366957
182	0x3d5b1408	0.0534859
183	0x3ec56a41	0.38557628
184	0xbe99f7f0	-0.30071974
185	0x3e970294	0.29494154
186	0xbdab69aa	-0.08369763
187	0x3d9c8e28	0.07644302
188	0xbe8bcc2b	-0.27304205
189	0xbf42054b	-0.75789326
190	0xbea3809b	-0.31934056
191	0x3c34172f	0.0109918555
192	0xbe017e37	-0.12645803
193	0xbeb40cfb	-0.35166153
194	0x3ebb569e	0.3658952
195	0xbdab29fd	-0.08357618
196	0x3e7b5de7	0.2454754
197	0x3e624a0f	0.22098564
198	0xbeb53647	-0.35392973
199	0xbe87d308	-0.26528192
200	0x3d6b080f	0.057380732
201	0xbea7cd08	-0.32773614
202	0xbee73ad7	-0.4516208
203	0x3fbde74e	1.4836214
204	0x3e9af8cf	0.3026795
205	0x3e8fd389	0.28091076
206	0x3c636fea	0.013881663
207	0x3ede679c	0.43438423
208	0x3e0d5697	0.13802563
209	0x3e1dc231	0.1540611
210	0x3d11df4c	0.035613343
211	0xbd8684a3	-0.06568267
212	0xbe86202a	-0.26196414
213	0xbf02d1d6	-0.51101434
214	0x3e7eb55a	0.24873868
215	0x3e07b508	0.13252652
216	0xbe8c8196	-0.27442616
217	0x3e2accee	0.16679737
218	0x3f58cb54	0.84685254
219	0x3ed32262	0.4123717
220	0xbef6576b	-0.4811357
221	0x3dcd8f18	0.100370586
222	0x3e65e941	0.2245226
223	0xbe64b635	-0.22335131
224	0xbce9223f	-0.028458713
225	0x3d9c3032	0.0762638
226	0xbe2d1f89	-0.16906561
227	0x3e883a9c	0.26607215
228	0x3d525f10	0.05136019
229	0x3f111062	0.56665623
230	0x3eace4bb	0.33768257
231	0xbe27dfd0	-0.16393971
232	0x3e089f0e	0.13341925
233	0xbe7212f8	-0.23640049
234	0xbd9a1203	-0.07522967
235	0xbf0726f5	-0.5279382
236	0x3e73a5bd	0.23793693
237	0x3e745b52	0.23862961
238	0x3d5ff417	0.05467614
239	0x3ec11dc7	0.3771803
240	0xbe27d0b3	-0.16388206
241	0x3e173f85	0.14770325
242	0xbe885b4f	-0.26632163
243	0x3e8dc78b	0.27691302
244	0x3f033ec4	0.5126765
245	0x3e88aabe	0.26692766
246	0xbd7d8d0b	-0.061902087
247	0xbe7cbfcf	-0.24682544
248	0x3cd0ba13	0.025479352
249	0xbd829a8b	-0.06377133
250	0x3e839ff2	0.25707966
251	0x3f70f2d2	0.94120514
252	0xbe162958	-0.14664209
253	0xbe66468c	-0.22487849
254	0x3ea28aba	0.31746465
255	0x3e8dde6c	0.27708757

feature.0.bias f4 [128]
0	0x3e62acc5	0.22136219
1	0x3dd75513	0.105142735
2	0xbd459d71	-0.04824585
3	0x3e8c42c5	0.2739469
4	0xbe200944	-0.15628535
5	0x3e92009a	0.28516084
6	0x3d82cf13	0.063871525
7	0xbd57013b	-0.052491408
8	0x3e7d9db8	0.24767196
9	0x3e109fbf	0.14123438
10	0x3e88e175	0.2673451
11	0xbc45253a	-0.012032801
12	0x3e115ed3	0.14196329
13	0xbe2bcbc9	-0.16776957
14	0x3ea96983	0.33088312
15	0x3ebf77a7	0.37395975
16	0x3ea5165d	0.32243624
17	0xbdf9b4df	-0.121927015
18	0xbcc83132	-0.02443752
19	0x3d9a449c	0.075326174
20	0xbe28196a	-0.16415945
21	0x3edec110	0.4350667
22	0x3e24406e	0.16040203
23	0x3d96ca92	0.07362856
24	0xbe8a95b8	-0.2706735
25	0xbe925b92	-0.28585488
26	0xbe5b7ebe	-0.21435067
27	0xbce0c1ec	-0.02743622
28	0x3e672657	0.22573219
29	0xbe542b5e	-0.20719668
30	0x3db879e4	0.09007624
31	0xbe8d4e17	-0.2759864
32	0xbe9f8b14	-0.31160796
33	0x3e243f0f	0.1603968
34	0x3ef2cbe5	0.47421184
35	0x3ed11aaa	0.40840656
36	0x3d1aaa54	0.037760094
37	0x3d765575	0.060140092
38	0x3d043dc2	0.03228546
39	0x3e92db21	0.28682807
40	0x3e009c17	0.12559544
41	0x3eec6fb7	0.46178982
42	0x3e2e631c	0.17029995
43	0xbe995851	-0.29950193
44	0x3ef85be3	0.48507604
45	0xbe21b3fe	-0.15791318
46	0x3c71e1bc	0.014763292
47	0xbc7183a4	-0.014740858
48	0xbdbf0ed1	-0.09328998
49	0xbe95e09b	-0.29272923
50	0x3e606533	0.21913604
51	0x3ebd78ae	0.37006134
52	0xbe579b99	-0.2105545
53	0x3e7861fc	0.24256128
54	0x3e5145e9	0.20436825
55	0xbe9daaf6	-0.30794495
56	0x3ead390d	0.3383259
57	0x3daef819	0.085434146
58	0xbc531fa4	-0.012885962
59	0x3ecf75e2	0.40519625
60	0xbd909ba8	-0.07060939
61	0xbd533514	-0.05156429
62	0x3ec11d3b	0.37717614
63	0x3eab217b	0.3342398
64	0xbe3c7858	-0.18405282
65	0x3e05ee29	0.13079132
66	0x3b9d660b	0.0048034242
67	0xbe891ebc	-0.2678126
68	0x3e4aff9a	0.19824067
69	0x3edf0ffa	0.43566877
70	0x3d4c9bea	0.04995338
71	0x3d2f8c62	0.04285849
72	0x3e60fb5e	0.21970889
73	0x3f054640	0.5206032
74	0x3e23f5b1	0.16011693
75	0x3ea596c1	0.3234158
76	0x3e0e86ef	0.1391866
77	0x3d3f7953	0.046746563
78	0x3d102d22	0.035199292
79	0x3ea25faa	0.3171361
80	0xbceb1cfa	-0.02870034
81	0x3e64e24c	0.2235195
82	0x3ed72448	0.42019868
83	0xbe3d164e	-0.1846554
84	0x3eef831b	0.46779713
85	0x3ed94ff3	0.4244381
86	0x3ecd2522	0.40067393
87	0xbe814660	-0.25249004
88	0x3d447f2f	0.047972854
89	0xbe0cd74a	-0.13754001
90	0x3eb44eb6	0.35216302
91	0x3cb9f8d5	0.02270166
92	0x3bfd5aae	0.007731757
93	0x3dd3b46f	0.10337149
94	0xbe27e7a4	-0.16396958
95	0x3dec5197	0.115389995
96	0x3d9897b0	0.07450807
97	0x3e83d0dd	0.25745288
98	0xbe9f7ffd	-0.31152335
99	0x3f04f959	0.51942974
100	0x3efbeffe	0.49206537
101	0xbd8968c3	-0.06709435
102	0xbe0b41a7	-0.13599263
103	0xbe8588fc	-0.26081073
104	0xbdc5470d	-0.096326925
105	0x3d94c992	0.07265009
106	0x3d854811	0.06507886
107	0x3ec72fba	0.389036
108	0x3e9995bb	0.29997048
109	0xbe3d9a70	-0.18515944
110	0xbe398837	-0.18118368
111	0xbe10b733	-0.14132385
112	0xbd8797e3	-0.06620767
113	0x3e211b62	0.15733102
114	0x3e4dc7a8	0.20095694
115	0xbe1c3fb9	-0.15258683
116	0x3cd0fc62	0.02551097
117	0x3ebe501d	0.37170497
118	0xbc5315c3	-0.012883606
119	0x3eb9fe53	0.36326846
120	0x3e75b0a8	0.2399317
121	0x3ead7470	0.33877897
122	0x3dede52e	0.11615978
123	0x3e75e35b	0.2401251
124	0xbd749713	-0.059714388
125	0x3db8a471	0.0901574
126	0x3e25aad4	0.16178447
127	0xbea6ae26	-0.3255474

feature.2.weight f4 [128, 128]
0	0x3c86be17	0.016448064
1	0x3dc770e7	0.09738331
2	0x3e5c4bb5	0.21513255
3	0xbd8bce7f	-0.068264954
4	0xbdcb4cdc	-0.09926769
5	0x3e0c3c00	0.13694763
6	0xbe8f58ba	-0.2799738
7	0xbe8e0923	-0.27741346
8	0xbe696f3e	-0.22796342
9	0x3e17b403	0.14814763
10	0xbe1f36b6	-0.15548214
11	0x3cf34e2b	0.02970036
12	0xbbe01dba	-0.006839481
13	0x3e746768	0.23867571
14	0x3dab1c81	0.08355046
15	0x3d0b2021	0.033966187
16	0xbe83b961	-0.2572737
17	0x3ea24917	0.31696388
18	0x3db37da0	0.087641954
19	0xbd3c4787	-0.04596665
20	0xbe9c4930	-0.30524588
21	0x3dfbbe80	0.12292194
22	0x3e1cb2d0	0.15302587
23	0x3c863324	0.016381808
24	0x3dcbbd1c	0.09948179
25	0x3e31c432	0.17359999
26	0x3de59c81	0.112114914
27	0xbda35abd	-0.07976291
28	0xbd60d8ba	-0.054894187
29	0xbde35fc3	-0.111022495
30	0xbd021ad7	-0.031763878
31	0x3e3b1994	0.18271476
32	0x3c419ae7	0.011816717
33	0x3c14fc94	0.009093422
34	0xbdf15037	-0.11782878
35	0x3ccdc997	0.02512054
36	0xbd47ba34	-0.04876156
37	0x3dfa039c	0.1220772
38	0x3eb7eebd	0.3592433
39	0xbf30e683	-0.6910173
40	0x3e18766e	0.14888927
41	0x3db2f925	0.08738927
42	0xbe8cb5c3	-0.27482423
43	0xbd971fed	-0.07379136
44	0xbe4d05a3	-0.20021681
45	0xbdeec83a	-0.11659284
46	0x3d64c93d	0.05585598
47	0xbe13234a	-0.1436893
48	0xbed44208	-0.41456628
49	0xbf2a0f23	-0.66429347
50	0xbc3cc7be	-0.011522232
51	0x3db2b6ce	0.087262735
52	0x3df49fba	0.11944528
53	0xbd8e1e1c	-0.06939337
54	0x3d9e613e	0.07733391
55	0x3e72a358	0.23695123
56	0x3de314cf	0.11087953
57	0xbea23f79	-0.3168905
58	0x3e17ef47	0.14837371
59	0x3df88679	0.121350236
60	0xbd460619	-0.04834566
61	0x3af71541	0.0018850939
62	0x3ddf3c1d	0.109001376
63	0x3d27a8b6	0.04093238
64	0xbcc8e2e6	-0.024522256
65	0xbe9e7abe	-0.3095302
66	0xbceb73b5	-0.028741697
67	0x3e4e475a	0.20144406
68	0xbb183df7	-0.0023230293
69	0xbc05f2ec	-0.008175593
70	0xbe54bb17	-0.20774494
71	0x3ddb125e	0.10696863
72	0x3cdbf933	0.026852226
73	0xbe067b67	-0.13133012
74	0x3d9c673f	0.0763688
75	0x3dfd900b	0.1238099
76	0x3e11610b	0.14197175
77	0xbe26573c	-0.16244215
78	0xbdd9239b	-0.10602494
79	0x3d6a96cc	0.057272717
80	0x3e3c2466	0.1837326
81	0xbd23bdcb	-0.039975923
82	0x3df5ab5c	0.11995575
83	0x3efbbe0d	0.49168435
84	0xbe1eb483	-0.15498547
85	0xbe0773a9	-0.13227715
86	0x3e240e15	0.16020997
87	0xbe2f6871	-0.17129685
88	0x3dc7369e	0.09727214
89	0xb97ed2b6	-0.00024301824
90	0xbd82f1b6	-0.06393759
91	0xbd22a990	-0.03971249
92	0x3d14817b	0.036256295
93	0x3caa2370	0.020768851
94	0xbe11360c	-0.14180773
95	0x3b9cdac4	0.004786821
96	0xbc803f50	-0.01565519
97	0x3e98255c	0.29716003
98	0xbf37867e	-0.71689594
99	0xbd3e2768	-0.0464243
100	0xbdb6a2e1	-0.089177854
101	0xbd254d98	-0.040357202
102	0x3e9114c4	0.28336155
103	0xbe92cfb9	-0.28674105
104	0xbe95cf73	-0.29259834
105	0xbd671202	-0.056413658
106	0xbddd3404	-0.10800937
107	0x3def6c6f	0.11690604
108	0xbe19996b	-0.1499993
109	0x3d975343	0.07388928
110	0x3e7dd021	0.24786426
111	0x3f218c65	0.6310485
112	0xbe3b837b	-0.18311875
113	0x3d83acfa	0.06429477
114	0x3dbf112f	0.093294494
115	0xbe28cf0f	-0.16485237
116	0x3de13afc	0.109975785
117	0xbd00df82	-0.031463154
118	0xbc6fe691	-0.014642374
119	0x3c1b2149	0.009468385
120	0xbe0e390e	-0.13888952
121	0xbd9ce2cf	-0.07660448
122	0xbdec07c9	-0.115249224
123	0x3e247abf	0.16062449
124	0xbe2e1e2a	-0.17003694
125	0xbdbc0a86	-0.09181695
126	0x3e4c7980	0.19968224
127	0xbeb1e9df	-0.34748742
128	0xbc089745	-0.008336847
129	0x3c9e8a61	0.019353094
130	0x3d891617	0.066936664
131	0x3d81c4ec	0.06336388
132	0x3e0c6d9c	0.13713688
133	0xbcb8564a	-0.022502083
134	0xbe8f17de	-0.27947897
135	0xbe9ac7af	-0.30230471
136	0xbe20d5a3	-0.15706496
137	0x3d91ba2c	0.071155876
138	0xbdd043be	-0.10169171
139	0x3e3ca304	0.1842156
140	0x3ccdcdba	0.025122512
141	0x3ed7bf59	0.42138174
142	0x3dccf279	0.100071855
143	0xbb6aa5c0	-0.003580436
144	0x3d8a95d5	0.067668594
145	0x3e0ee988	0.13956273
146	0x3e2009a0	0.15628672
147	0x3d6f1dee	0.058378153
148	0x3daea371	0.08527268
149	0xbba656e6	-0.005076277
150	0x3dd0a5a1	0.10187841
151	0xbccef35d	-0.025262529
152	0xbe3cd80c	-0.1844179
153	0x3e48c572	0.1960657
154	0x3d919691	0.071087964
155	0x3e81e732	0.253717
156	0x3d96d815	0.07365433
157	0x3d3f3c31	0.046688262
158	0x3e52e44f	0.20594905
159	0x3e46bd66	0.19408187
160	0x3d1d0adc	0.038340434
161	0x3e0087e9	0.12551846
162	0x3d7011ea	0.058610834
163	0xbd81031d	-0.06299422
164	0x3d41def2	0.047331758
165	0x3e1e2022	0.15441945
166	0x3dbcc3f9	0.09217066
167	0xbf1271d6	-0.5720495
168	0xbdb56ab7	-0.08858245
169	0xbc6f6633	-0.014611769
170	0xbc1ea26a	-0.009682277
171	0xbe97652e	-0.2956938
172	0x3d0fbf1c	0.035094365
173	0x3e8d8d31	0.27646783
174	0x3db75217	0.08951204
175	0x3d84aadb	0.064779006
176	0xbe54fb79	-0.20799054
177	0xbe4bcca8	-0.19902289
178	0x3d005d13	0.031338762
179	0x3db1ba17	0.08678072
180	0x3e2406f5	0.16018279
181	0xbcfbdad8	-0.030744001
182	0x3d20d4ec	0.039265558
183	0x3e0916a3	0.13387541
184	0xb9714ae1	-0.00023011446
185	0xbe48f958	-0.19626367
186	0xbdb5e6e1	-0.08881927
187	0x3c68d1ce	0.014210178
188	0x3e422a83	0.1896153
189	0xbc12e537	-0.008965782
190	0x3cf3175f	0.02967423
191	0x3e11b9e8	0.14231074
192	0x3e6d77e5	0.23190267
193	0x3cc64e77	0.024207337
194	0x3e233066	0.15936431
195	0x3e35e032	0.17761305
196	0x3e029b3c	0.1275453
197	0xbd75990f	-0.05996042
198	0x3d194fcd	0.03742962
199	0x3e3199b4	0.1734379
200	0xbd29162c	-0.04128091
201	0x3d0030ae	0.031296425
202	0xbc36ad33	-0.011149692
203	0xbd2d844e	-0.042362504
204	0x3e612fef	0.21990941
205	0xbe012b1f	-0.12614106
206	0xbe2ad072	-0.16681078
207	0x3dd2cf8f	0.10293495
208	0x3dfd42ae	0.12366234
209	0xbcc2c07c	-0.023773424
210	0x3d5821f5	0.05276676
211	0x3e52ecaa	0.20598093
212	0xbd0e5104	-0.03474523
213	0x3d1445c1	0.036199335
214	0xbcd033f7	-0.025415404
215	0x3c561bfa	0.013068194
216	0x3e03e3ac	0.12879819
217	0x3da9999b	0.08281251
218	0xbdf6520c	-0.12027368
219	0x3e55dde4	0.20885426
220	0x3c8e36c0	0.017360091
221	0x3ac13abb	0.0014742234
222	0xbe16f5c3	-0.14742188
223	0x3e17f6bd	0.14840217
224	0x3de9b9fe	0.11412428
225	0x3e2b3a0a	0.16721359
226	0xbe7d38cb	-0.24728696
227	0xbd5411e6	-0.05177488
228	0xbd9969eb	-0.074909054
229	0x3e220797	0.15823208
230	0x3f0a5ee8	0.54051065
231	0xbd9c44bc	-0.076302975
232	0xbec8e94b	-0.39240488
233	0x3d578d5f	0.052625056
234	0x3dedc31b	0.11609479
235	0x3d6a7962	0.057244666
236	0x3d238752	0.039923973
237	0xbe89fc5d	-0.2695035
238	0x3da0f8c0	0.07859945
239	0x3eb22f0c	0.3480152
240	0xbc4d1572	-0.01251732
241	0x3cfd06be	0.030887004
242	0xbcc3d50c	-0.0239053
243	0xbe6fa138	-0.23401344
244	0x3ce6a8a9	0.028156595
245	0x3d0a8c56	0.03382524
246	0x3dfcab2c	0.12337336
247	0xbd36dab7	-0.044642176
248	0x3d08ae91	0.033369604
249	0xbe292307	-0.16517268
250	0x3d2309ba	0.039804198
251	0xbc82fa97	-0.015988631
252	0xbe073985	-0.13205536
253	0x3e03e524	0.12880379
254	0x3e5bdc47	0.21470748
255	0xbeaf192b	-0.3419889

feature.2.bias f4 [128]
0	0x3c96bda2	0.01840097
1	0xbd747e93	-0.059691023
2	0xbcfc4a98	-0.030797288
3	0x3c9b03c1	0.018922688
4	0x3e07641f	0.13221787
5	0x3e5d1237	0.2158898
6	0xbd39a4bb	-0.045323115
7	0x3d77fdd5	0.060544807
8	0x3bd66a03	0.0065433993
9	0x3d789e3d	0.060697783
10	0x3d11c667	0.0355896
11	0x3ba90ddf	0.0051591243
12	0x3d12c5a4	0.035833016
13	0x3d0f3c88	0.034969836
14	0x3d17d686	0.03706982
15	0x3c4bf425	0.012448345
16	0xbd76a645	-0.06021716
17	0x3e1572ed	0.14594622
18	0x3e0386cf	0.12844394
19	0x3d64cf3c	0.055861697
20	0x3cd1361a	0.025538493
21	0x3c7d85a8	0.015473761
22	0x3dcd076b	0.100111805
23	0x3cc17fba	0.023620475
24	0xbdb236b2	-0.087018386
25	0x3dc786aa	0.09742482
26	0x3db5e08b	0.08880719
27	0x3d4c84a6	0.04993119
28	0xbcdbff9b	-0.02685528
29	0x3d9fbbc1	0.07799483
30	0x3e335b5f	0.17515324
31	0xbd818149	-0.06323487
32	0x3dd6344e	0.10459195
33	0x3ced14fb	0.028940668
34	0x3e5b415f	0.21411656
35	0x3c483c52	0.012221413
36	0xbc14cb33	-0.00908165
37	0x3cdb237a	0.026750315
38	0xbd936ef1	-0.07198895
39	0x3dd3347f	0.10312747
40	0x3e01929c	0.12653583
41	0x3d341116	0.043961607
42	0x3e0773be	0.13227746
43	0x3e0e8da4	0.13921219
44	0x3ddc0ddd	0.10744832
45	0xbd4c222a	-0.04983727
46	0xbd41196d	-0.04714339
47	0x3dcd2253	0.100163125
48	0x3dfd65fe	0.12372969
49	0xbc90c22c	-0.017670713
50	0x3baddf25	0.005306142
51	0x3d8abbed	0.06774125
52	0xbb16849b	-0.0022967223
53	0x3da5cbd3	0.08095517
54	0x3d14b54a	0.036305703
55	0x3a86a77d	0.0010273304
56	0x3d8dd7ff	0.069259636
57	0x3d9539f2	0.07286443
58	0xbc1a4a30	-0.009417102
59	0xbc7d8e35	-0.015475799
60	0x3d427447	0.047474172
61	0xbc8b1106	-0.01697589
62	0x3db42586	0.087962195
63	0x3daa4de1	0.083156355
64	0xbc6ac871	-0.0143300155
65	0x3da27b64	0.07933691
66	0x3de184fe	0.11011694
67	0x3d9eb3d8	0.07749146
68	0x3dbb770f	0.09153568
69	0x3df10a35	0.11769525
70	0x39a65623	0.00031726164
71	0x3ccd8872	0.025089476
72	0x3dc0d04d	0.0941473
73	0x3e26aecc	0.16277617
74	0xbd85d388	-0.06534487
75	0x3d7a7119	0.061143015
76	0x3dbf9b9b	0.09355851
77	0x3d9e4463	0.077278875
78	0x3d228927	0.03968158
79	0x3d97ee21	0.07418466
80	0xbd55d549	-0.052205358
81	0x3df03c9b	0.117303096
82	0xbcfae0ec	-0.03062483
83	0x3d705325	0.058673043
84	0x3d1d9f4d	0.038482
85	0xbd08942f	-0.033344444
86	0x3c006f52	0.007839041
87	0x3d99b53d	0.075052716
88	0x3e883a87	0.26607153
89	0xbcdb6466	-0.026781272
90	0xbbce4130	-0.006294392
91	0xbd720d30	-0.059094608
92	0xbc469f2d	-0.012122911
93	0xbd7f82dd	-0.06238066
94	0xbc796e3e	-0.015224038
95	0xbcce3010	-0.025169402
96	0x3e6a3239	0.22870721
97	0xbca8d2f5	-0.020608405
98	0x3e109957	0.14120995
99	0x3d2b4e8f	0.041822966
100	0xbc0a2401	-0.008431436
101	0x3e4e2b92	0.20133808
102	0xbdbb3c26	-0.09142332
103	0x3d241fb1	0.040069286
104	0x3e2137f2	0.15743998
105	0x3d1a8045	0.037719984
106	0x3e401e5e	0.18761584
107	0x3dad708e	0.08468734
108	0x3d9d8adb	0.076925
109	0xbda57a9d	-0.08080027
110	0xbcfda8f5	-0.030964354
111	0x3e09a4f2	0.13441828
112	0x3c335d45	0.01094753
113	0x3d9779fa	0.07396312
114	0x3d800053	0.06250062
115	0xbd70ba7e	-0.058771603
116	0x3d9f1a56	0.07768695
117	0x3d169221	0.036760453
118	0x3cf723ac	0.030168377
119	0xbda85cf9	-0.08220858
120	0xbd5cc4c3	-0.053898584
121	0x3de11d1e	0.10991882
122	0x3d5c3e7b	0.053770524
123	0x3e6d5dcc	0.23180312
124	0x3d37e539	0.044896338
125	0x3e153fad	0.14575072
126	0xbd48289a	-0.048866846
127	0x3d0f9caa	0.035061516

value_stream.0.weight f4 [64, 128]
0	0x3e5d9fa1	0.21642925
1	0x3d91dfad	0.07122741
2	0x3e73cbcf	0.23808216
3	0x3ea7e74c	0.32793653
4	0xbd97ade1	-0.07406212
5	0xbe8c0698	-0.2734878
6	0x3e153c2b	0.14573734
7	0xbdbad73f	-0.09123086
8	0x3d647f81	0.05578566
9	0x3d68c739	0.05683062
10	0xbe5afb74	-0.21384984
11	0x3d9702fb	0.07373615
12	0x3dfc87ce	0.1233059
13	0x3dc90437	0.09815257
14	0x3e21ddf9	0.15807332
15	0x3e21fb4f	0.15818523
16	0x3e51b6f6	0.2047995
17	0x3d38d23f	0.04512238
18	0x3dd19d41	0.10235072
19	0x3e29cb8b	0.16581552
20	0xbed549af	-0.4165778
21	0x3da18e13	0.07888427
22	0x3d46dc20	0.04854977
23	0x3e2a1480	0.16609383
24	0xbd043224	-0.03227438
25	0x3ed536fd	0.41643515
26	0x3d821401	0.06351472
27	0x3d7e24ed	0.062046934
28	0x3deaa83f	0.11457872
29	0x3e168207	0.14698039
30	0xbeae824f	-0.34083793
31	0x3e414ac4	0.18876177
32	0x3e305b39	0.17222299
33	0x3e4a883c	0.19778532
34	0xbe57dd99	-0.21080627
35	0x3db4ccdf	0.088281386
36	0xbe2d23cd	-0.16908188
37	0x3e3caab5	0.18424495
38	0x3e24387d	0.16037174
39	0x3c950b40	0.018193841
40	0x3e06dadf	0.1316943
41	0x3dd7992b	0.10527261
42	0xbda7125a	-0.08157797
43	0xbef77d80	-0.48337936
44	0x3d169151	0.03675968
45	0x3dd4d8b5	0.10392896
46	0xbede0f84	-0.43371212
47	0x3e49eced	0.19719286
48	0xbeee74c9	-0.46573475
49	0xbec4b58e	-0.38419765
50	0x3e31ad4a	0.17351261
51	0x3d515ce7	0.05111399
52	0x3e08866f	0.13332532
53	0x3e922411	0.2854314
54	0x3efb1dc0	0.49046135
55	0x3e1958a8	0.14975226
56	0x3da71a96	0.08159368
57	0x3e5e51bf	0.21710871
58	0x3ebf4b4e	0.3736214
59	0xbed969aa	-0.42463428
60	0xbf041f3a	-0.5161015
61	0x3e289129	0.16461624
62	0x3de102c8	0.109868586
63	0x3e2567dd	0.16152902
64	0x3c499226	0.012302911
65	0x3e8d6a92	0.2762037
66	0x3d1c5c5f	0.03817403
67	0x3e0c34c6	0.13692006
68	0x3de781ff	0.11304092
69	0xbeac4767	-0.33648226
70	0x3df4b845	0.11949209
71	0x3e213a2a	0.15744844
72	0x3d9225b8	0.071361005
73	0x3e358f8d	0.17730542
74	0x3edad6a9	0.42741898
75	0xbd8c762f	-0.06858479
76	0x3e14cad7	0.14530502
77	0x3daad3c7	0.083411746
78	0x3d83ab8f	0.064292066
79	0x3e4f5caf	0.202502
80	0x3dd19b65	0.10234717
81	0x3e3bc19e	0.18335578
82	0x3e483d45	0.19554622
83	0x3e26e2b3	0.16297416
84	0x3e5611f3	0.20905285
85	0x3e06f9a2	0.13181165
86	0x3d844a00	0.06459427
87	0x3de2ea77	0.11079877
88	0xbd30800d	-0.04309087
89	0x3ec7f2cd	0.3905243
90	0x3e491684	0.19637495
91	0x3ddf962a	0.109173134
92	0xbd378486	-0.04480412
93	0x3e55a765	0.20864637
94	0xbe71ebed	-0.23625155
95	0xbc8e6b86	-0.017385256
96	0xbe76b5ec	-0.24092835
97	0x3e0ddd7b	0.1385402
98	0xbdbaac04	-0.091148406
99	0x3ead0f31	0.33800653
100	0x3e6af486	0.22944841
101	0x3b29aaf8	0.0025889259
102	0xbeae5b99	-0.34054258
103	0x3dc92db7	0.098231725
104	0xbd35577c	-0.044272885
105	0x3d0432b4	0.032274917
106	0x3d27d14d	0.04097109
107	0x3da82f61	0.08212162
108	0x3ce746e1	0.02823204
109	0x3e0c25ea	0.13686338
110	0xbe5a6e1e	-0.21331069
111	0x3e953664	0.2914306
112	0xbea225b0	-0.31669378
113	0xbe54adf8	-0.20769489
114	0x3e460ac7	0.19340049
115	0x3e3d0996	0.18460688
116	0x3e2ab319	0.16669883
117	0x3d7a1575	0.06105562
118	0x3de00134	0.109377295
119	0x3d86c4e8	0.06580526
120	0x3e58b541	0.21162893
121	0xbed3acc9	-0.41342762
122	0xbead19d5	-0.3380877
123	0xbe13da80	-0.1443882
124	0x3cc0e338	0.023545846
125	0xbe0e42fa	-0.13892737
126	0x3d775ef0	0.060393274
127	0x3dfa5a29	0.12224228
128	0x3d668817	0.05628213
129	0xbd0e768e	-0.03478103
130	0x3c0debee	0.008662207
131	0x3cfe3d54	0.031035103
132	0x3cc291da	0.023751188
133	0x3d852caa	0.065026596
134	0xbd7c4e5d	-0.06159817
135	0x3d7f24ba	0.062290885
136	0xbda6e60c	-0.08149347
137	0xbb9bc598	-0.0047537796
138	0x3d80cda9	0.062892266
139	0xbcfe5cec	-0.031050168
140	0x3cecc444	0.02890218
141	0xbd87f137	-0.06637805
142	0x3b589813	0.0033049628
143	0x3cebba8a	0.028775472
144	0xbd96e280	-0.0736742
145	0xbbbbd1ca	-0.005731796
146	0xbd655092	-0.05598504
147	0xbd8ee8ce	-0.06977998
148	0x3d03bc9f	0.032162305
149	0xbd1b8f7b	-0.03797863
150	0xbd52b230	-0.051439464
151	0xbdae963b	-0.08524748
152	0xbd340576	-0.04395052
153	0xbdc79f72	-0.09747209
154	0x3cafd56f	0.021464078
155	0xbd488f2d	-0.048964668
156	0x3d7ef33c	0.062243685
157	0x3cf05853	0.029338991
158	0x3d1d5f7c	0.03842114
159	0x3c805407	0.015665067
160	0xbdcad44b	-0.09903773
161	0x3d191eee	0.037383012
162	0xbc2190d5	-0.009861191
163	0xbd7b4846	-0.061348222
164	0x3c475d52	0.012168245
165	0xbcf053ed	-0.029336894
166	0x3bf6993c	0.007525591
167	0x3d8896e6	0.066694066
168	0xbdb11559	-0.0864665
169	0xbd22ca36	-0.039743625
170	0xbd8ec9a5	-0.069720544
171	0xbc561487	-0.013066418
172	0xbda4e990	-0.08052361
173	0xbd976568	-0.073923886
174	0x3cbd6381	0.023118736
175	0xbd894c4e	-0.06704007
176	0x3d068cec	0.032849237
177	0x3d5a4517	0.053288545
178	0xbd61afa0	-0.05509913
179	0xbca6cbbd	-0.020360822
180	0x3d9195b4	0.07108632
181	0xbcb2de1b	-0.021834424
182	0xbce7f070	-0.028312892
183	0x3d14757e	0.03624486
184	0xbdae06a2	-0.08497359
185	0xbd1b764a	-0.037954606
186	0xbd997bbf	-0.07494306
187	0xbcbbf803	-0.02294541
188	0xbdccaaaf	-0.09993493
189	0xbdc5fd4b	-0.096674524
190	0x3c699f48	0.014259167
191	0x3d310249	0.04321507
192	0xbbf88a82	-0.007584871
193	0x3d4ad7f5	0.04952236
194	0xbcbc6c5f	-0.023000894
195	0xbd1cfade	-0.038325183
196	0xbcd3803c	-0.025817983
197	0x3c60f83c	0.013731059
198	0x3d7a7421	0.061145905
199	0xbd386212	-0.045015402
200	0x3d019d5b	0.031644206
201	0x3cdd0a9a	0.026982594
202	0x3c60e0f8	0.013725512
203	0x3d3645e6	0.044500254
204	0xba731a7e	-0.0009273662
205	0x3ced29ac	0.028950535
206	0xbccc09dc	-0.024907045
207	0xbd8a1b46	-0.06743483
208	0xbd2ec405	-0.042667408
209	0x3af61b66	0.0018776476
210	0xbc8795e3	-0.016550964
211	0xbd8909e0	-0.06691337
212	0x3d0e24c2	0.034703024
213	0xbbd8a9a3	-0.006612019
214	0xbc2fbec5	-0.010726635
215	0x3d091318	0.033465475
216	0xbcd90146	-0.026489865
217	0xbd822635	-0.06354944
218	0x3d624f14	0.055251196
219	0xbdacfe11	-0.08446897
220	0xbd552374	-0.052035764
221	0x3c041e40	0.008063853
222	0xbdc1e081	-0.09466649
223	0x3da79ba1	0.08183981
224	0x3c88b998	0.01669006
225	0xbd56f301	-0.05247784
226	0x3d1674dd	0.036732543
227	0xbd6476b6	-0.055777274
228	0xbd103a0d	-0.03521161
229	0xbd942d4e	-0.07235204
230	0xbcfcca0e	-0.030858066
231	0xbc339f64	-0.010963295
232	0x3d4e9fc9	0.05044535
233	0xbd616a1c	-0.055032834
234	0xbd3d28cc	-0.046181485
235	0x3d9120b4	0.07086316
236	0xbd902af2	-0.07039441
237	0xbda371f6	-0.07980721
238	0xbd567d43	-0.052365553
239	0xbdb29727	-0.08720236
240	0xbd65a37c	-0.056064114
241	0x3d43daca	0.047816075
242	0x3d3934c5	0.04521634
243	0xbcb876a4	-0.02251751
244	0xbd87dc2b	-0.066337906
245	0x398a9fbc	0.00026440423
246	0xbda71db5	-0.08159963
247	0xbd606048	-0.05477932
248	0x3d41d9c9	0.047326837
249	0x3c6708af	0.014101191
250	0x3c206c3d	0.009791431
251	0xbd000c81	-0.031261925
252	0x3d4cf092	0.050034113
253	0xbd0bf447	-0.034168508
254	0x3d3292ee	0.043597154
255	0x3d997dc2	0.074946895

value_stream.0.bias f4 [64]
0	0x3d5e4ebf	0.054274317
1	0xba99e402	-0.0011740925
2	0x3e479906	0.19491968
3	0x3d2bc051	0.041931454
4	0x3cfc5de7	0.030806495
5	0x3dc8e4df	0.09809279
6	0x3c64df44	0.013969246
7	0x3dd7edc0	0.10543394
8	0x3d4ea928	0.05045429
9	0xbcd2b474	-0.025720812
10	0x3d8734eb	0.0660189
11	0xbc23fc97	-0.010008953
12	0xbd5d1d83	-0.053983223
13	0x3db4be4d	0.088253595
14	0x3e355670	0.17708755
15	0xbd9ee19c	-0.07757875
16	0x3e6b4bd3	0.22978143
17	0x3b9380ae	0.004501424
18	0x3ded3786	0.11582856
19	0x3d603e5e	0.054746978
20	0x3e0ee2c1	0.13953687
21	0x3c4509f5	0.0120263
22	0x3d91ea3e	0.07124756
23	0x3d0538bc	0.03252481
24	0xbc856a4c	-0.016286038
25	0x3b0e571e	0.0021719406
26	0x3d107792	0.03527028
27	0x3d5447ee	0.05182641
28	0x3dc4e24c	0.09613475
29	0x3de13c52	0.10997833
30	0x3b9e3971	0.004828625
31	0xbd21f83d	-0.03954338
32	0xbdbf65a3	-0.093455575
33	0x3dc28914	0.09498802
34	0x3e011dcf	0.12609027
35	0xbc47ad33	-0.01218729
36	0x3daa23db	0.0830762
37	0x3d13d746	0.036093973
38	0x3de99f62	0.11407353
39	0xbd77463e	-0.060369723
40	0x3e6c3408	0.23066723
41	0xbcb3d7e9	-0.02195354
42	0xbca11cd7	-0.019667072
43	0xbbb5ca01	-0.0055477624
44	0x3d867a37	0.065662794
45	0x3e627be2	0.2211757
46	0x3dbb4275	0.09143535
47	0x3e87fe88	0.2656138
48	0xbc4dc54e	-0.012559248
49	0xbd0dee03	-0.034650814
50	0xbcb9cb62	-0.022679988
51	0x3c85ea3c	0.016347043
52	0x3de20ec9	0.11037976
53	0x3e5d31b0	0.21600986
54	0xbdb7de42	-0.08977939
55	0x3daf18fa	0.08549686
56	0x3ddafa29	0.106922455
57	0x3e530585	0.20607574
58	0x3e339939	0.17538919
59	0x3d913734	0.07090607
60	0x3dfeb05a	0.1243598
61	0xbd28c3e1	-0.04120243
62	0x3c4b8de9	0.012423971
63	0xbd99da46	-0.075123355

value_stream.2.weight f4 [1, 64]
0	0xbe9d52a7	-0.3072712
1	0xbda23000	-0.079193115
2	0x3f354fc3	0.7082483
3	0x3c3ba3a7	0.011452592
4	0x3e362491	0.17787386
5	0xbe81e50f	-0.2537007
6	0x3e9de4c3	0.30838594
7	0xbe888650	-0.26664972
8	0xbe80dbea	-0.2516778
9	0x3d7581b9	0.059938166
10	0xbe65000f	-0.22363304
11	0xbe8534ab	-0.26016745
12	0xbd9a7f8a	-0.075438574
13	0xbe874a6e	-0.26423973
14	0x3f075724	0.5286734
15	0x3d022758	0.031775802
16	0x3f39d57d	0.7259138
17	0x3e00004a	0.1250011
18	0x3f286bfe	0.65789783
19	0xbe94e1bc	-0.29078472
20	0x3f35bf8b	0.70995396
21	0xbe757c2f	-0.23973154
22	0x3ba13a1c	0.0049202573
23	0x3d979b14	0.07402626
24	0x3d51b0d0	0.051194012
25	0xbe617cb8	-0.22020233
26	0x3f09fcea	0.5390154
27	0xbe5d8854	-0.21634036
28	0x3f1d2237	0.6138033
29	0x3f1b6c62	0.60712254
30	0xbea6e981	-0.32600024
31	0xbe668cb4	-0.22514611
32	0x3cf74330	0.030183405
33	0xbe6cbd0a	-0.23118988
34	0xbea4b702	-0.32170874
35	0xbe5d6b19	-0.21622886
36	0x3d98aa0a	0.074543074
37	0xbe647442	-0.22309974
38	0x3f330b5c	0.6993921
39	0x3d884798	0.066542804
40	0x3f3d6de1	0.73995787
41	0xbe950667	-0.29106447
42	0xbe56d1c3	-0.20978455
43	0xbe96edc2	-0.2947827
44	0x3f10d982	0.5658189
45	0x3f2e5b74	0.68108296
46	0xbe62aafa	-0.22135535
47	0x3f25b2c9	0.6472593
48	0x3e81cbde	0.2535085
49	0xbda6f6f9	-0.08152575
50	0xbde87964	-0.113512784
51	0xbded1cfe	-0.115777954
52	0xbeaca356	-0.33718365
53	0x3f3a241c	0.7271135
54	0xbedda92c	-0.4329313
55	0xbe911c07	-0.28341696
56	0xbe9d075c	-0.30669677
57	0x3f269653	0.65073127
58	0x3f244419	0.6416641
59	0xbe85e9a4	-0.26154816
60	0x3f37e479	0.71832997
61	0xbe89aeb4	-0.268911
62	0xbe998f6a	-0.2999223
63	0x3f455ce1	0.77094847

advantage_stream.0.weight f4 [64, 128]
0	0xbd14eaee	-0.03635686
1	0x3d76e449	0.060276303
2	0x3d5e5fc4	0.054290548
3	0x3d8a9de4	0.067683965
4	0xbd19ff30	-0.03759688
5	0xbd990ec6	-0.07473521
6	0x3cfaa57b	0.030596485
7	0x3d9acd4f	0.07558691
8	0x3d1b9907	0.037987735
9	0x3be8e6f9	0.007107612
10	0x3cb5c8a7	0.022190405
11	0xbd62ecb3	-0.055401515
12	0x3d848f0f	0.06472599
13	0xbdaa8ec2	-0.0832801
14	0xbd6e73d3	-0.058215927
15	0x3d981182	0.07425214
16	0xbd21c884	-0.039497867
17	0x3c845d7c	0.016157858
18	0x3d5db264	0.054125205
19	0xbdb45fcf	-0.088073365
20	0xbc39fbae	-0.011351509
21	0xbd853d09	-0.06505782
22	0x3da030f7	0.07821839
23	0x3d815be9	0.063163586
24	0xbcb9b128	-0.022667482
25	0x3d02a134	0.031892017
26	0x3d2929e8	0.04129973
27	0xbd2c8f1b	-0.042128664
28	0x3daa2853	0.083084725
29	0xbdaa9a96	-0.08330266
30	0xbd4c2fbc	-0.04985021
31	0xbd930486	-0.07178597
32	0xbd8a0b5a	-0.067404464
33	0x3d08bd17	0.033383455
34	0xbbd8b907	-0.006613854
35	0xbd1c93b7	-0.03822681
36	0x3c5f0458	0.0136118755
37	0x3cd37025	0.02581031
38	0xbc7de4ef	-0.015496477
39	0xbd9e1c0e	-0.07720195
40	0xbd34fe1f	-0.04418766
41	0x3d311dc1	0.043241266
42	0x3da56b95	0.0807716
43	0x3da1619f	0.07879948
44	0xbc0fe6af	-0.008783027
45	0xbd4280a1	-0.04748595
46	0x3b04382d	0.0020175085
47	0xbd98c0ef	-0.07458674
48	0xbc85f324	-0.01635129
49	0xbda6868a	-0.0813113
50	0x3d8e19e3	0.06938531
51	0x3c04e256	0.008110603
52	0x3d99130e	0.074743375
53	0x3c90ff7c	0.01769995
54	0x3d8a58a9	0.06755192
55	0xbcb651ea	-0.022255857
56	0xbab2f826	-0.0013654276
57	0xbd60b2de	-0.05485808
58	0xbd75860f	-0.0599423
59	0x3d97c28d	0.074101545
60	0x3d81e490	0.06342423
61	0x3c1d4e96	0.009601256
62	0xbc1aff68	-0.009460308
63	0xbd9a6355	-0.07538477
64	0xbd707063	-0.05870093
65	0x3d457c3d	0.048214186
66	0xbdaf1113	-0.085481785
67	0xbd98465d	-0.07435296
68	0xbdae0a18	-0.08498019
69	0x3d8e36ae	0.06944023
70	0xbc935392	-0.017984185
71	0xbd3d7551	-0.04625446
72	0xbcce9396	-0.025216859
73	0x3d6e2806	0.058143638
74	0x3d2da676	0.042395078
75	0xbd81aeec	-0.06332192
76	0xbc9ee48b	-0.019396087
77	0x3d0a7fd8	0.033813328
78	0xbd479f38	-0.048735827
79	0xbbccd437	-0.006250884
80	0x3d3c6fec	0.046005175
81	0xbcb7fe99	-0.022460269
82	0xbd755a0d	-0.059900332
83	0xbd37553d	-0.044759024
84	0xbd8fe0cf	-0.07025301
85	0xbd4b7a83	-0.049677383
86	0xbc89f450	-0.01684013
87	0xbd797651	-0.06090385
88	0x3da6bbb6	0.08141272
89	0x3b649e60	0.0034884438
90	0x3d80e984	0.062945396
91	0xbc38de00	-0.011283398
92	0xbd89dc31	-0.06731451
93	0xbcbcbb68	-0.023038581
94	0x3d962455	0.073311485
95	0x3d837f93	0.06420817
96	0xbdb0b888	-0.086289465
97	0xbd06d8ee	-0.032921724
98	0xbc50a352	-0.012734251
99	0xbcf6590a	-0.030071754
100	0x3da98447	0.08277183
101	0x3d897c0b	0.067131124
102	0xbd9528f5	-0.072832026
103	0x3d97138b	0.073767744
104	0xbc8cecc5	-0.017202744
105	0xbd665911	-0.056237284
106	0xbc22545c	-0.009907808
107	0xbd32c09b	-0.043640714
108	0xbd4b62e4	-0.049654856
109	0x3d9346b7	0.07191222
110	0xbcc806fa	-0.02441739
111	0xbc80ac7f	-0.015707253
112	0xbda8b823	-0.08238246
113	0xbd9db488	-0.07700449
114	0x3d786d12	0.060650893
115	0xbbb03990	-0.0053779557
116	0x3ce9ef12	0.02855638
117	0x3da86248	0.08221871
118	0x3d952a6a	0.072834805
119	0xbc81424e	-0.015778687
120	0x3d5aac26	0.05338683
121	0x3c366c8a	0.011134276
122	0xbcb69055	-0.02228562
123	0x3d6c503f	0.057693716
124	0x3bb180ca	0.005416964
125	0x3d6cb1ec	0.057786867
126	0x3d563b5b	0.0523027
127	0xbd18ba9f	-0.03728735
128	0xbd9dfb03	-0.07713892
129	0xbdaf0728	-0.08546287
130	0xbd29c5ef	-0.04144853
131	0x3b0e7540	0.0021737367
132	0xbd0a2bc6	-0.03373315
133	0xbd4b03d9	-0.049564216
134	0x3cf70999	0.030155944
135	0xbce9d3d6	-0.028543394
136	0xbcbec44b	-0.02328696
137	0x3c966803	0.018360144
138	0xbbd7fb92	-0.006591269
139	0xbd0ee4e0	-0.03488624
140	0x3d8b2e7a	0.06795974
141	0x3b94fbdb	0.004546625
142	0xbd9c2e46	-0.076260135
143	0xbcb11527	-0.021616532
144	0x3cf8913e	0.030342694
145	0x3c105c70	0.008811101
146	0x3c4735c8	0.012158819
147	0x3ceee2bf	0.029160855
148	0xbe0ba767	-0.13638078
149	0x3ce33214	0.02773384
150	0x3cdae5c1	0.026720883
151	0xbc2fac72	-0.0107222665
152	0xbc198688	-0.009370454
153	0x3cf43b22	0.029813353
154	0xbd9fcd42	-0.07802822
155	0xbad8826b	-0.001651836
156	0xbd1331e2	-0.035936244
157	0xbda72747	-0.081617884
158	0xbe118f25	-0.14214762
159	0x3d36a66a	0.0445923
160	0xbd72dd85	-0.05929329
161	0xbd570d93	-0.05250318
162	0xbddae222	-0.10687663
163	0x3d0471bb	0.032335024
164	0xbdd84514	-0.105600506
165	0xbcef285c	-0.02919405
166	0x3cd68425	0.026186058
167	0x3d1ed56b	0.03877775
168	0x3c90444a	0.017610688
169	0x3af5ae76	0.001874401
170	0xbd164899	-0.03669033
171	0xbe04080a	-0.12893692
172	0xbdca85ec	-0.09888825
173	0x3d4c2ba4	0.049846306
174	0xbdb6574a	-0.08903368
175	0x3c8b609f	0.017013846
176	0xbce8057f	-0.028322933
177	0x3babe861	0.0052462076
178	0x3d63dd5f	0.055631038
179	0x3d35fe25	0.044431824
180	0xbc98f215	-0.018670121
181	0x3d94980f	0.072555654
182	0xbdb2105f	-0.08694529
183	0x3d9713f0	0.0737685
184	0xbd83aec1	-0.06429816
185	0xbda15d9c	-0.07879183
186	0x3d88eee6	0.06686191
187	0xbdb69586	-0.08915238
188	0x3d20b538	0.039235324
189	0xbd668d00	-0.05628681
190	0xbccfc469	-0.02536221
191	0x3d0e926e	0.034807615
192	0xbc90ccdd	-0.017675811
193	0xbd58ec51	-0.052959744
194	0xbd584b83	-0.05280639
195	0x3d08e12d	0.03341787
196	0x3d9cd5f7	0.07657998
197	0xbdf2a7ed	-0.118484356
198	0x3cb9b50a	0.022669334
199	0xbce214a9	-0.027597742
200	0xbd591364	-0.052997008
201	0xbc143db3	-0.009047913
202	0xbad5dd10	-0.0016316492
203	0xbe2a13cf	-0.16609119
204	0xbd3da13f	-0.046296354
205	0x3ce1b4d5	0.027552048
206	0x3d24fa75	0.040277917
207	0x3ca152e2	0.019692842
208	0xbd994619	-0.07484073
209	0xbba3edfe	-0.005002736
210	0x3d2a99be	0.041650526
211	0x3d415b2d	0.047206093
212	0xbc69df0a	-0.014274368
213	0xbd0bdcec	-0.034146234
214	0x3dd9962d	0.10624347
215	0x3d0f7fae	0.035033874
216	0xbcc40296	-0.023927014
217	0x3c828eef	0.015937297
218	0x3ce75d12	0.028242622
219	0xbd654143	-0.05597044
220	0x3cc53a18	0.024075553
221	0xbd8e9922	-0.069628015
222	0xbdc1e25f	-0.09467005
223	0xbc0744b7	-0.008256129
224	0xbc5c976a	-0.013463834
225	0x3d176616	0.03696259
226	0xbdba396b	-0.09092983
227	0xbd85e12c	-0.06537089
228	0x3d844562	0.06458546
229	0x3d366e09	0.04453853
230	0xbd114d55	-0.03547414
231	0x3d65aeec	0.05607502
232	0xbd282845	-0.04105403
233	0xbda24698	-0.07923621
234	0x3c6b9347	0.014378375
235	0x3d21fd48	0.03954819
236	0xbd2d534e	-0.042315774
237	0xbd83255f	-0.06403612
238	0x3cc39dca	0.02387895
239	0x3d479c04	0.048732772
240	0xbe35484c	-0.1770336
241	0xbd562264	-0.05227889
242	0xbd3f33c3	-0.046680223
243	0x3d051550	0.03249103
244	0x3d1d49bf	0.038400408
245	0xbd7801b1	-0.060548488
246	0xbcd0b63b	-0.02547752
247	0x3ba03c0d	0.004889971
248	0x3d5ff7bb	0.054679614
249	0xbe2b49c2	-0.16727355
250	0xbe443e83	-0.19164471
251	0xbd817959	-0.06321973
252	0x3d2bc581	0.0419364
253	0xbe144208	-0.14478314
254	0x3cc108fb	0.023563853
255	0x3b2c1af8	0.0026261192

advantage_stream.0.bias f4 [64]
0	0xbd28aa90	-0.041178286
1	0x3d5232e8	0.05131808
2	0x3ddc01d2	0.10742535
3	0x3d638f73	0.055556726
4	0x3ceffd46	0.029295575
5	0x3d9e4f13	0.07729926
6	0xbcf00eac	-0.029303871
7	0x3dea17c4	0.11430314
8	0x3bc2572f	0.0059308033
9	0xbd8837cd	-0.06651268
10	0x3db029ed	0.08601747
11	0x3d8b8b9e	0.06813739
12	0x3c47d33f	0.012196361
13	0x3cb57099	0.022148417
14	0x3de94937	0.11390918
15	0x3cd19fa7	0.025588823
16	0xbc77906d	-0.015110117
17	0x3e161b89	0.14658941
18	0x3d03c435	0.03216954
19	0xbcbb5faf	-0.022872774
20	0xbc44f065	-0.012020205
21	0x3e1ee0a8	0.15515387
22	0xbc83259f	-0.01600915
23	0x3d0a7829	0.033806
24	0xbb6e8469	-0.003639484
25	0xbcada000	-0.021194458
26	0xbdb767c3	-0.08955338
27	0xbd5d1a00	-0.053979874
28	0x3b2e078f	0.0026554798
29	0xbc894cca	-0.016760249
30	0x3d2eee8b	0.04270796
31	0xbd95af4a	-0.07308824
32	0x3df6e4fe	0.120553955
33	0xbd9c7325	-0.076391496
34	0xbd678b27	-0.05652919
35	0xbb6d3fa6	-0.0036201268
36	0x3dd3f3d7	0.10349243
37	0x3db41857	0.08793705
38	0x3e15a125	0.14612253
39	0x3de0a4cf	0.10968935
40	0xbd8845ae	-0.06653915
41	0x3a1297a4	0.0005592054
42	0x3c124900	0.008928537
43	0x3e3cd127	0.1843916
44	0x3d1ba106	0.03799536
45	0x3d8c7ac5	0.06859354
46	0x3c9b31fa	0.01894473
47	0xbd7a167a	-0.06105659
48	0xbc188ef6	-0.009311428
49	0x3de078b0	0.10960519
50	0xbd8fdb81	-0.07024289
51	0x3dcb4ccd	0.09926758
52	0x3e07bcb7	0.13255583
53	0x3d5ee04e	0.054413132
54	0x3cf1e06a	0.029525954
55	0xbd6bf658	-0.05760798
56	0x3c13e351	0.009026364
57	0xbd7c4b69	-0.061595354
58	0xbdb6e983	-0.089312576
59	0x3d0d7f86	0.034545444
60	0xbdfdb141	-0.12387324
61	0x3c75cfe4	0.015003178
62	0xbd9341ec	-0.07190308
63	0xbd8d7133	-0.06906357

advantage_stream.2.weight f4 [4, 64]
0	0xbd89f57e	-0.06736277
1	0x3d942c11	0.072349675
2	0xbd8806a9	-0.06641895
3	0x3d4a6965	0.04941692
4	0x3d8559ad	0.06511245
5	0xbe6683c4	-0.22511202
6	0x3dca9068	0.098908246
7	0xbe3e54fb	-0.18587105
8	0x3d89d2c8	0.067296565
9	0xbdd57124	-0.104219705
10	0xbe82636c	-0.25466478
11	0x3cd29938	0.025707826
12	0x3d963634	0.07334557
13	0xbe46ceb6	-0.19414791
14	0xbd59300b	-0.053024333
15	0x3e315e36	0.17321095
16	0x3df28b76	0.11843006
17	0xbe5b03f4	-0.21388227
18	0x3e0a8db0	0.13530612
19	0x3ccbf2cf	0.024896054
20	0x3debaa4c	0.11507091
21	0xbe0220ef	-0.12707876
22	0x3c437c44	0.011931483
23	0xbd39f7d8	-0.045402378
24	0x3def0f31	0.116728194
25	0xbc7ced40	-0.015437424
26	0x3da69d45	0.081354655
27	0x3ea325c0	0.31864738
28	0x3d8200ca	0.06347807
29	0x3e0134e1	0.12617828
30	0xbe7ebc8f	-0.24876617
31	0x3e17d9cb	0.14829175
32	0x3e30e2f0	0.1727407
33	0xbd4cd78d	-0.050010253
34	0x3dc411f4	0.09573737
35	0xbf1bb86f	-0.608283
36	0x3d627053	0.055282902
37	0xbd4f4667	-0.05060425
38	0xbd4f1ebf	-0.05056643
39	0xbe11e559	-0.14247645
40	0xbddec8ee	-0.10878168
41	0xbd565317	-0.052325334
42	0xbafe5800	-0.0019404888
43	0xbef5cf11	-0.48009542
44	0xbe31ef2c	-0.17376393
45	0x3e7722b9	0.2413434
46	0xbddabc47	-0.10680442
47	0x3ddb7c10	0.107170224
48	0x3d96b3d5	0.07358519
49	0xbd35aef5	-0.044356305
50	0x3cceea5c	0.025258236
51	0xbed8d690	-0.42351198
52	0xbf17613e	-0.59132755
53	0x3e6da0a5	0.23205812
54	0x3e1e09b9	0.15433396
55	0xbdb68e0e	-0.089138135
56	0xbecb2732	-0.3967834
57	0x3db3f02b	0.08786043
58	0xbd4d272b	-0.05008618
59	0xbdb8a338	-0.090155065
60	0x3cc84fb8	0.024452075
61	0xbc95fb53	-0.018308317
62	0xbcbd2154	-0.023087181
63	0xbd5a904d	-0.053360272
64	0x3dd93d88	0.10607439
65	0xbd28a055	-0.04116853
66	0x3e0bc9f5	0.13651259
67	0xbee4ab0c	-0.44661748
68	0x3e2eab71	0.17057587
69	0xbe382f59	-0.17986812
70	0x3d468c25	0.048473496
71	0x3e0c2baa	0.13688532
72	0xbe2f709c	-0.17132801
73	0xbd95e297	-0.07318609
74	0xbeca8378	-0.39553428
75	0xbdd91f5c	-0.106016845
76	0xbdd17189	-0.10226733
77	0x3e25a3e3	0.16175799
78	0xbdf71313	-0.12064185
79	0x3d165065	0.036697764
80	0x3cb51b2d	0.022107685
81	0x3e31168c	0.17293757
82	0xbb5fcea1	-0.003415026
83	0xbde2a427	-0.11066466
84	0xbcd9d0f5	-0.026588896
85	0x3e796d67	0.2435814
86	0xbe8cd4da	-0.27506143
87	0x3d5619bb	0.052270632
88	0xbd8b9a2c	-0.06816515
89	0x3dea0008	0.11425787
90	0xbe395a2e	-0.18100807
91	0x3cde6cf5	0.027151564
92	0x3d54008e	0.05175834
93	0x3d84fc06	0.06493382
94	0xbe4facb4	-0.20280725
95	0x3e14a17a	0.14514723
96	0x3f0cc964	0.549948
97	0xbd0eb5dd	-0.034841407
98	0x3c98ba36	0.01864348
99	0xbf0a99c5	-0.54140884
100	0x3e137580	0.14400291
101	0x3dcc0dbc	0.09963557
102	0x3e978bae	0.29598755
103	0xbeaa9baf	-0.33321902
104	0x3c6f58ef	0.014608606
105	0xbf14a0e1	-0.5805798
106	0x3db20218	0.086918056
107	0xbdc98466	-0.09839706
108	0xbe9ff1d9	-0.31239203
109	0x3eb66e45	0.35631004
110	0xbdd2a1bc	-0.10284755
111	0x3d2e9160	0.04261911
112	0x3ed4f510	0.41593218
113	0x3e40481e	0.1877751
114	0x3db1b9f4	0.08678046
115	0x3e84c643	0.25932512
116	0xbeeda0fa	-0.46411878
117	0x3ee9b92c	0.45649087
118	0x3c7ccd9f	0.015429883
119	0xbb8ef537	-0.004362728
120	0x3e85bdc0	0.2612133
121	0x3dffdc51	0.12493194
122	0x3e0fdee2	0.14049867
123	0xbdc67692	-0.09690584
124	0x3e1b9932	0.15195158
125	0x3cceba89	0.025235431
126	0x3d4a0d4a	0.04932908
127	0xbd61adf7	-0.055097546
128	0xbd8ddb61	-0.06926609
129	0xbd854f04	-0.06509212
130	0x3ea3f2c8	0.32021165
131	0x3e4ec214	0.20191222
132	0xbdb2cf17	-0.087309055
133	0x3f240d58	0.6408286
134	0xbe25bb04	-0.16184622
135	0x3eea612d	0.45777264
136	0xbdf1a63a	-0.11799283
137	0x3e9eb197	0.30994865
138	0x3e67bd5a	0.22630826
139	0xbd697d3b	-0.057004195
140	0x3dbc08ea	0.09181388
141	0x3d4197c8	0.04726389
142	0x3e2626a2	0.16225675
143	0xbe5b83c4	-0.21436983
144	0xbdce4763	-0.1007221
145	0x3eccea57	0.40022537
146	0xbde09074	-0.10965052
147	0xbe9cb4ec	-0.30606782
148	0x3c9f9bec	0.019483529
149	0x3e308ce3	0.17241244
150	0xbeef7b67	-0.46773836
151	0x3eda5bad	0.42648068
152	0x3c6aed93	0.014338869
153	0xbd1215ac	-0.0356652
154	0xbd3a40df	-0.045472022
155	0xbe1925db	-0.14955847
156	0xbd43f9aa	-0.04784552
157	0xbe2008b4	-0.1562832
158	0x3eea1955	0.45722452
159	0xbe627541	-0.22115041
160	0x3bfe8b0b	0.00776804
161	0xbe8c97ff	-0.27459714
162	0x3e33504f	0.17511104
163	0x3e89d654	0.26921332
164	0xbef6a1ff	-0.48170468
165	0x3d89386d	0.067002155
166	0xbdd2a59d	-0.102854945
167	0x3e431fb3	0.19055061
168	0x3ce9031d	0.028443867
169	0xbd8623f4	-0.06549826
170	0xbdc1c8c0	-0.09462118
171	0x3f200f9d	0.62523824
172	0x3eee61c9	0.4655898
173	0xbf1b1a0c	-0.6058662
174	0xbd09354f	-0.033498105
175	0xbde6133e	-0.11234139
176	0xbd4a69cf	-0.049417313
177	0x3dfa5b86	0.12224488
178	0x3df9d6dd	0.12199185
179	0x3f2b8fac	0.670161
180	0x3f3086ed	0.6895588
181	0xbe026db1	-0.12737156
182	0xbdf669c7	-0.12031894
183	0xbc21de88	-0.009879716
184	0x3e8027ea	0.25030452
185	0xbd2627d5	-0.04056533
186	0xbe85b666	-0.2611572
187	0x3e56abbc	0.20963949
188	0xbe9bb627	-0.3041241
189	0xbdf47cd5	-0.11937872
190	0x3d73b9d2	0.059503384
191	0x3dbb2d1f	0.091394655
192	0xbdd62de5	-0.104579724
193	0xbd318b58	-0.04334578
194	0xbee0a4d3	-0.4387575
195	0x3e336410	0.1751864
196	0x3d80c3a5	0.06287316
197	0xbdb51306	-0.08841519
198	0x3c85b5b4	0.016321994
199	0xbecc9c4d	-0.39962998
200	0x3e54bd4b	0.20775335
201	0x3dd23a3d	0.10265014
202	0x3e3a55a7	0.18196736
203	0x3df14b69	0.117819615
204	0xbdd872b4	-0.10568753
205	0x3e3b3ab3	0.1828411
206	0xbe078f2d	-0.13238211
207	0x3d846997	0.06465452
208	0xbe02622a	-0.12732759
209	0xbf289f0e	-0.658677
210	0xbc56e498	-0.013116024
211	0x3d1a1054	0.037613228
212	0xbc21741d	-0.009854344
213	0xbe073de3	-0.13207202
214	0x3ee79489	0.4523051
215	0xbe6db8af	-0.23214982
216	0xbdfccd2e	-0.123438224
217	0xbc0d7b60	-0.008635372
218	0x3daddc33	0.08489265
219	0xbd1ff90d	-0.039055873
220	0x3daff652	0.08591904
221	0xbdbf4dbd	-0.09340999
222	0x3dad6658	0.08466786
223	0x3d8c3929	0.0684684
224	0xbf28dc7a	-0.6596142
225	0x3e2d61d8	0.16931856
226	0xbe674a01	-0.22586824
227	0x3e6d0377	0.23145853
228	0x3eb0435c	0.3442639
229	0xbe9ba7b5	-0.30401388
230	0xbe5822dc	-0.21107048
231	0x3e9d75ba	0.3075388
232	0xbce16d63	-0.02751798
233	0x3f2eb5d3	0.6824619
234	0xbdc280ac	-0.094971985
235	0xbe59519f	-0.21222542
236	0xbdb638a6	-0.088975236
237	0x3e45d5f9	0.19319905
238	0xbbb54196	-0.0055315
239	0x3b49c880	0.0030789673
240	0xbeb12426	-0.34597892
241	0xbe375db4	-0.17906839
242	0x3c1b54bd	0.009480652
243	0xbf28be5b	-0.6591546
244	0xbd9521a7	-0.07281809
245	0xbe09fe40	-0.13475895
246	0x3d439838	0.04775259
247	0x3c2f1839	0.0106869275
248	0x3db7f866	0.08982925
249	0xbdae2f6b	-0.08505138
250	0x3c9dd487	0.01926638
251	0xbe10a84c	-0.141267
252	0x3d145368	0.036212355
253	0x3e7dd150	0.24786878
254	0x3b236b0d	0.0024935633
255	0xbd2c8e4c	-0.042127892

advantage_stream.2.bias f4 [4]
0	0xbdf3c739	-0.11903233
1	0x3c81f8c5	0.015865693
2	0x3dcbcb2d	0.09950862
3	0xbd9f7af2	-0.07787122
