Acrobot/ddqn_acrobot_v1.pth (torch, 73816 bytes, 6 tensors)

fc1.weight f4 [128, 6]
0	0xbe354011	-0.1770022
1	0xba912c77	-0.0011075874
2	0x3f17210f	0.5903482
3	0x3e2454e9	0.16048016
4	0xbdedde2f	-0.11614644
5	0xbc488e93	-0.012241024
6	0xbdb5c5cd	-0.08875618
7	0xbeda2c1d	-0.4261178
8	0x3c09bc2d	0.008406681
9	0xbec05bf8	-0.37570167
10	0x3e35791e	0.17721984
11	0xbdab9a1d	-0.08379004
12	0x3d92dd38	0.071711004
13	0xbebbd6fd	-0.3668746
14	0x3c6ccc57	0.014453015
15	0xbdda3118	-0.10653895
16	0xbea5df25	-0.32396808
17	0xbe81b579	-0.25333765
18	0x3ecfb2ea	0.40566188
19	0x3ec12346	0.37722224
20	0x3ebda5e8	0.3704064
21	0xbe2791ed	-0.1636426
22	0xbdd26851	-0.10273803
23	0x3cbe5cb1	0.023237558
24	0x3e597861	0.21237327
25	0x3efb2634	0.49052584
26	0x3e39b819	0.18136634
27	0xbedaa808	-0.42706323
28	0x3b5c7275	0.0033637558
29	0xbbdb55d9	-0.0066935834
30	0xbede8b44	-0.43465626
31	0xbf0e8984	-0.5567858
32	0xbf10b6f4	-0.56529164
33	0x3f164922	0.5870534
34	0xbdb5d582	-0.08878614
35	0xbdfbba11	-0.12291349
36	0x3ec5da90	0.38643312
37	0xbefbe410	-0.49197435
38	0x3ef50322	0.47853953
39	0x3f19fc62	0.6015073
40	0xbe720168	-0.23633349
41	0xbe874f50	-0.26427698
42	0x3ea2f599	0.31828
43	0x3edebf8a	0.43505508
44	0x3e45b098	0.19305646
45	0xbee82247	-0.45338652
46	0x3e1e0184	0.15430266
47	0x3e8c78c1	0.27435878
48	0x3caf24aa	0.021379787
49	0xbf14c3bc	-0.58111167
50	0xbec6d3dd	-0.38833514
51	0x3f1658b4	0.587291
52	0xbe8ee9a7	-0.27912638
53	0xbe833a23	-0.25630292
54	0x3e96ebf8	0.29476905
55	0x3e5f7085	0.21820267
56	0x3eae965a	0.34099084
57	0xbf049f02	-0.51805127
58	0x3e9476d8	0.2899692
59	0x3e35eddd	0.17766519
60	0x3efcfe2e	0.49412674
61	0xbec8f60c	-0.3925022
62	0x3e13eae3	0.14445071
63	0x3ee3542c	0.44400156
64	0xbea192fa	-0.31557447
65	0x3ea502a6	0.32228583
66	0x38b21133	8.490905e-05
67	0xbdd4c8a4	-0.10389832
68	0x3d96ee75	0.07369701
69	0x3e420715	0.18948014
70	0xbee9844a	-0.4560874
71	0xbe82cc5c	-0.2554654
72	0x3e9fb285	0.31190887
73	0x3c985e32	0.018599603
74	0xbeb95639	-0.36198595
75	0xbeee669d	-0.46562663
76	0x3e61ba91	0.22043826
77	0xbc928855	-0.017887274
78	0xbe3903d3	-0.18067865
79	0xbdf0cb57	-0.11757534
80	0x3bdc42d1	0.0067218323
81	0x3c797782	0.015226247
82	0xbe8bf415	-0.27334657
83	0x3e97862f	0.2959456
84	0xbd8fafaa	-0.07015927
85	0x3e438dd6	0.19097075
86	0xbea7747a	-0.32706052
87	0x3e700fe7	0.23443566
88	0xbec9d223	-0.39418134
89	0x3ed103cf	0.40823218
90	0x3f0bc0b3	0.5459091
91	0x3e2ba47f	0.16761969
92	0x3f04155d	0.515951
93	0x3ea07804	0.31341565
94	0xbe1ce73d	-0.15322585
95	0xbd882c5f	-0.06649088
96	0x3ea9e6db	0.3318394
97	0xbe484ca5	-0.19560488
98	0xbeaf3d44	-0.3422643
99	0x3e7a27c2	0.24429229
100	0x3d240981	0.040048126
101	0xbe9952df	-0.29946038
102	0x3f1e827d	0.6191786
103	0xbe4a2ea0	-0.19744349
104	0xbd5391ea	-0.051652826
105	0x3ddf58db	0.1090562
106	0x3e4af181	0.19818689
107	0x3c398740	0.01132375
108	0x3ed0ee85	0.40806976
109	0xbe6d640d	-0.23182698
110	0x3e8de3c2	0.27712828
111	0xbec5e9fc	-0.38655078
112	0x3e8896d2	0.26677567
113	0xbd7320e5	-0.059357543
114	0x3e653213	0.22382383
115	0x3f090d6b	0.535361
116	0xbf1a1d4f	-0.6020097
117	0xbf1eae37	-0.6198458
118	0x3d5813a0	0.05275309
119	0x3e7ecb8c	0.24882334
120	0xbeb3bb84	-0.35104
121	0x3ea58a7b	0.32332215
122	0xbece12fe	-0.40248865
123	0xbd34a793	-0.044105124
124	0x3db6fafc	0.0893459
125	0xbed4db21	-0.41573432
126	0x3d0aef64	0.033919707
127	0x3e077c2a	0.13230959
128	0x3d8789be	0.06618069
129	0xbe09aa50	-0.13443875
130	0x3ee96d07	0.45590994
131	0xbeb847a0	-0.35992146
132	0x3b929af7	0.0044740397
133	0x3e8b2027	0.27172968
134	0xbe5177f4	-0.20455915
135	0xbebf25c3	-0.37333497
136	0x3d89346f	0.06699454
137	0x3ec21faa	0.37914783
138	0x3db4e501	0.088327415
139	0xbf1fdd35	-0.6244691
140	0xbe2b22a4	-0.16712433
141	0x3edfd1e7	0.4371483
142	0x3d8e957f	0.06962108
143	0x3db98e7e	0.09060381
144	0xbea2f1fb	-0.3182524
145	0xbee46767	-0.4461014
146	0x3ee571d1	0.44813398
147	0xbec2cdb5	-0.38047567
148	0xbe33fa8b	-0.17576043
149	0x3e9aaf1e	0.3021173
150	0x3f12771f	0.57213014
151	0xbe6aac1b	-0.22917216
152	0x3cc295d9	0.023753094
153	0x3e4fa2bb	0.2027692
154	0x3e999e7a	0.3000372
155	0x3e8d14c2	0.275549
156	0x3e47af31	0.19500424
157	0x3d41a0c8	0.047272474
158	0xbdd10e41	-0.10207797
159	0xbf02e9d4	-0.51138043
160	0x3e1af703	0.1513329
161	0xbe43575c	-0.19076294
162	0x3e38651d	0.18007322
163	0x3cde45c2	0.027132872
164	0xbe8823ad	-0.26589718
165	0xbe3d3712	-0.18478039
166	0x3c335450	0.010945395
167	0xbd23f3b1	-0.040027324
168	0xbe550c06	-0.20805368
169	0xbf25246e	-0.6450871
170	0xbeecb233	-0.46229705
171	0x3ef242cc	0.47316587
172	0x3ed8b6a5	0.42326847
173	0x3e72e930	0.23721766
174	0x3ef90a1d	0.48640528
175	0x3cdd3ff4	0.027008034
176	0x3ed13daf	0.40867373
177	0x3e87fba4	0.26559174
178	0xbd467603	-0.04845239
179	0x3d3652fb	0.04451273
180	0x3eaacbf2	0.33358723
181	0xbf01b85c	-0.50671935
182	0x3e245e24	0.16051537
183	0xbe8fec1b	-0.28109822
184	0xbd120790	-0.035651743
185	0x3d1a8b2a	0.037730373
186	0xbed6016c	-0.4179796
187	0x3ec3cc47	0.3824179
188	0xbedbab1d	-0.42903987
189	0xbe8d6040	-0.27612495
190	0xbd4c65aa	-0.049901642
191	0xbd21b491	-0.039478842
192	0xbe7194f9	-0.23591985
193	0x3e309c3b	0.17247097
194	0x3e965c9d	0.29367533
195	0x3c52963e	0.012853203
196	0x3ea5338a	0.32265884
197	0xbd93d229	-0.07217819
198	0x3ea6b244	0.3255788
199	0x3f3381ba	0.7011982
200	0xbe885d1d	-0.2663354
201	0x3e905986	0.281933
202	0xbe924ba6	-0.2857334
203	0xbdea4762	-0.114393964
204	0xbf05058e	-0.519616
205	0x3efec74e	0.49761432
206	0xbdc1b6d9	-0.094587035
207	0xbe9d7ffd	-0.3076171
208	0xbe49332c	-0.19648427
209	0xbe0a50be	-0.13507363
210	0xbdaf4fbc	-0.0856013
211	0xbe42aad9	-0.19010486
212	0x3e72cda1	0.23711254
213	0x3f2139bf	0.6297874
214	0x3e77da7c	0.24204439
215	0xbd90a0a6	-0.07061891
216	0x3e032f82	0.12811092
217	0xbe9708ba	-0.29498845
218	0xbcf7ec41	-0.030264022
219	0xbccd7bf9	-0.025083529
220	0x3ecfcfa8	0.40588117
221	0xbe372184	-0.17883879
222	0xbdb0853b	-0.08619162
223	0x3c09e690	0.008416787
224	0xbedec7f1	-0.43511918
225	0x3ee00fac	0.43761957
226	0x3e9522d1	0.29128125
227	0xbe82dc20	-0.25558567
228	0x3e462c9e	0.19352958
229	0xbe6fb3f9	-0.23408498
230	0x3f010a34	0.50406194
231	0xbec793aa	-0.38979846
232	0x3e195f63	0.14977793
233	0xbe5ed8c4	-0.21762377
234	0x3dee9cc1	0.11650992
235	0x3e0190a6	0.12652835
236	0x3e7e7cb5	0.2485226
237	0x3e411dd4	0.18859035
238	0x3e082b5b	0.13297789
239	0x3d5f6324	0.054537907
240	0x3eb64de3	0.35606298
241	0xbda1c3fc	-0.07898709
242	0x3ecd2486	0.40066928
243	0xbe72e120	-0.23718691
244	0xbde8a44c	-0.11359462
245	0xbe114b3e	-0.14188859
246	0x3f0aca46	0.54214895
247	0x3e9d39ff	0.3070831
248	0x3d78ee18	0.06077394
249	0xbe9806ee	-0.29692787
250	0x3e1997ad	0.14999266
251	0x3ddfb60b	0.10923394
252	0x3ec9e0df	0.39429376
253	0xbd080259	-0.033205364
254	0x3de32417	0.11090868
255	0x3e555e4d	0.20836754

fc1.bias f4 [128]
0	0x3ea675b7	0.32511684
1	0x3e23003a	0.15918055
2	0x3d3060f7	0.043061223
3	0x3ec36bf3	0.38168296
4	0x3e1dca97	0.15409313
5	0xbe09d43f	-0.13459872
6	0x3e340e79	0.17583646
7	0x3e1ffbbe	0.15623376
8	0x3db4ae5f	0.08822321
9	0x3e87ca33	0.26521453
10	0x3e8622f6	0.26198548
11	0xbd8ddb46	-0.06926589
12	0x3e839122	0.25696665
13	0xbe2fa6d6	-0.17153487
14	0xbdbfb273	-0.09360208
15	0x3d3d9ce8	0.046292216
16	0x3c7794f3	0.015111196
17	0x3edaca77	0.42732593
18	0x3c037101	0.008022548
19	0xbd52c818	-0.051460356
20	0xbdb66ffb	-0.08908077
21	0xbe7d1acb	-0.24717252
22	0xbea707fd	-0.32623282
23	0x3e5ff377	0.21870218
24	0x3eeafe68	0.45897222
25	0x3ea421a5	0.3205692
26	0x3e716d08	0.23576748
27	0x3e5aecaa	0.21379343
28	0xbe857263	-0.26063833
29	0x3f00db9d	0.50335103
30	0xbe76b653	-0.24092989
31	0xbe907ee5	-0.28221813
32	0x3f061f18	0.52391195
33	0xbe3703ae	-0.17872497
34	0xbdc103fb	-0.09424587
35	0xbe3b252b	-0.18275897
36	0xbeaf6980	-0.34260178
37	0xbec26109	-0.37964657
38	0xbd86d31d	-0.065832354
39	0x3f1e961f	0.61947817
40	0x3ef406fb	0.47661576
41	0x3c74a5a6	0.014932072
42	0xbec3ec89	-0.382664
43	0xbe936569	-0.28788307
44	0xbe2c1549	-0.16804995
45	0x3ed12958	0.40851855
46	0x3e9c0f28	0.30480313
47	0x3e22712b	0.15863483
48	0x3e89b984	0.2689935
49	0x3ef995b5	0.4874703
50	0x3ed5842d	0.41702405
51	0x3ec65740	0.3873844
52	0x3d09bb0e	0.033625655
53	0x3c2191ae	0.009861393
54	0x3f19911a	0.5998703
55	0xbe5c211b	-0.21497004
56	0x3f131c42	0.57464993
57	0x3e84a0ae	0.2590384
58	0x3d28e4cd	0.041233826
59	0xbe12a458	-0.14320505
60	0xbe2dc095	-0.16967995
61	0x3f149b61	0.5804959
62	0xbec33164	-0.3812362
63	0xbdbeb4bd	-0.09311817
64	0x3dd37e96	0.10326879
65	0xbe3490bc	-0.17633337
66	0x3ec6bfb6	0.3881814
67	0xbe6c33a2	-0.23066571
68	0x3f1c5056	0.6106008
69	0x3e610137	0.2197312
70	0x3e987a38	0.29780746
71	0x3c966706	0.018359672
72	0x3ee6b736	0.45061654
73	0xbe0da2f4	-0.13831693
74	0x3dad79df	0.08470511
75	0x3f0da0de	0.5532359
76	0xbed5440b	-0.41653475
77	0x3e532b28	0.20621932
78	0xbe3a67a8	-0.18203604
79	0xbe918156	-0.28418988
80	0xbd5405e0	-0.051763415
81	0x3eeb5c43	0.45968828
82	0x3ebca413	0.3684393
83	0xbe493dc5	-0.1965247
84	0x3e90392f	0.28168628
85	0x3edb34fe	0.42813867
86	0xbe77cce6	-0.24199256
87	0xbe0acfb2	-0.13555792
88	0x3f0233fe	0.50860584
89	0xbe46572b	-0.1936919
90	0x3db9c890	0.090714574
91	0x3f1e560b	0.6185004
92	0x3eacae45	0.33726707
93	0xbef2e615	-0.47441164
94	0x3f022ca0	0.5084934
95	0x3e8f3104	0.27967083
96	0x3ebf18b7	0.37323543
97	0xbedafc39	-0.42770556
98	0x3eceb4e5	0.40372387
99	0x3cc01618	0.023448035
100	0xbe5df1a3	-0.21674208
101	0x3e5052e1	0.20344116
102	0x3ea46da9	0.32114914
103	0xbe8ab1bb	-0.27088723
104	0xbe04a756	-0.12954459
105	0x3e9b7d9f	0.3036928
106	0xbebe408c	-0.3715862
107	0xbe8cb120	-0.27478886
108	0x3ef7fd97	0.4843566
109	0xbd67dc63	-0.05660666
110	0x3e858f5a	0.2608593
111	0x3f0ddb0e	0.55412376
112	0x3edb299f	0.42805192
113	0xbefc7891	-0.49310735
114	0x3dc55f94	0.09637371
115	0x3dd4df6b	0.10394176
116	0x3ebe4376	0.37160844
117	0xbe05128e	-0.1299536
118	0x3e3850a8	0.17999518
119	0x3f019532	0.5061828
120	0xbec8bd1f	-0.39206788
121	0x3f063429	0.5242334
122	0xbe098ad7	-0.1343187
123	0x3dc44431	0.09583319
124	0x3efd837a	0.4951437
125	0x3e595f00	0.21227646
126	0xbe6be2a1	-0.23035671
127	0x3eede1cf	0.4646134

fc2.weight f4 [128, 128]
0	0xbe32fe8f	-0.17479919
1	0x3d82184e	0.06352292
2	0x3d722431	0.059116546
3	0xbda93e04	-0.08263782
4	0xbd935844	-0.0719457
5	0xbe310fcf	-0.17291187
6	0x3dedd0b4	0.116120726
7	0xbd875e69	-0.06609804
8	0xbcc48f54	-0.023994125
9	0xbe1a6a2c	-0.15079564
10	0x3d60bf0e	0.054869704
11	0x3dc71e47	0.09722572
12	0x3de3ba4c	0.11119518
13	0xbd4ba519	-0.049717996
14	0x3dca6e7d	0.09884355
15	0x3d9f0786	0.07765107
16	0x3d1b4f7c	0.0379176
17	0xbc4e16d3	-0.012578684
18	0x3d51ae1e	0.05119144
19	0x3d927290	0.07150757
20	0x3e12d741	0.14339925
21	0x3ddc925f	0.107701056
22	0x3c56266c	0.013070684
23	0xbd050afd	-0.032481182
24	0xbe046251	-0.1292813
25	0xbd592188	-0.053010494
26	0x3d730215	0.059328157
27	0xbd8f4dac	-0.069972366
28	0x3d51c7c6	0.05121591
29	0xbd23d48e	-0.03999763
30	0x3b67d498	0.0035374518
31	0xbd9bd4bb	-0.076089345
32	0x3d8266f2	0.063672915
33	0x3db98097	0.0905773
34	0xbd0fc294	-0.035097674
35	0x3c1c79db	0.009550537
36	0x3dcd0315	0.100103535
37	0x3e15f093	0.14642553
38	0xbd866e39	-0.06563992
39	0xbe35387a	-0.17697325
40	0xbcd87da4	-0.026427098
41	0xbdbf99dc	-0.09355518
42	0x3d6e77df	0.058219787
43	0xbea7f56d	-0.32804433
44	0xbc8de334	-0.017320253
45	0xbdb8eb67	-0.090292744
46	0x3dfe6584	0.12421706
47	0xbd222c9a	-0.039593317
48	0x3bba945c	0.0056939553
49	0x3d448685	0.04797985
50	0xbdfb136e	-0.12259565
51	0xbc3ca08c	-0.011512887
52	0xbe3ec2b8	-0.18628967
53	0xbe2fdc78	-0.17173946
54	0xbd9aea3c	-0.07564208
55	0x3d7fb125	0.062424798
56	0xbc9f97cf	-0.019481568
57	0x3c878658	0.016543552
58	0x3e0e3147	0.13885985
59	0xbd744dec	-0.059644625
60	0xbd8da83d	-0.069168545
61	0x3d37b765	0.044852633
62	0x3d967f21	0.07348467
63	0x3dbd7032	0.09249915
64	0x3d1d5826	0.038414143
65	0x3de14c07	0.11000829
66	0xbd4bd284	-0.04976131
67	0x3dd39395	0.103308834
68	0xbd9b32f6	-0.075780794
69	0xbe44b2ba	-0.19208804
70	0x3bab2d2a	0.00522389
71	0xbcb07f96	-0.021545213
72	0xbd5ab2c7	-0.05339315
73	0xbdcb033d	-0.09912727
74	0x3e12cbc7	0.14335547
75	0xbc42b631	-0.011884258
76	0x3e1a805a	0.15088025
77	0x3e016312	0.12635449
78	0x3e3ec243	0.18628792
79	0x3e493f9e	0.19653174
80	0x3e0919c6	0.13388738
81	0xbe1e4397	-0.15455471
82	0xbeacc15b	-0.3374127
83	0x3e34464f	0.17604946
84	0x3d0ce16a	0.03439466
85	0x3c44cef5	0.012012233
86	0x3de5fd6f	0.11229979
87	0x3e3f8be0	0.18705702
88	0xbd6fee70	-0.058577
89	0x3e16d669	0.14730228
90	0x3dc01647	0.09379249
91	0x3ceb479a	0.028720666
92	0x3dd4f806	0.10398869
93	0x3df4a90a	0.11946304
94	0xbc5dc473	-0.013535607
95	0xbba45d57	-0.00501601
96	0xbc05991d	-0.008154181
97	0x3ccb0fd9	0.02478783
98	0x3c4257ab	0.011861722
99	0x3dc4c187	0.09607225
100	0xbc6ff446	-0.014645642
101	0xbdab4db9	-0.08364434
102	0x3b2e1a00	0.002656579
103	0x3e55b173	0.20868473
104	0x3d4af55d	0.049550403
105	0x3d8b4545	0.068003215
106	0x3e7c9ec5	0.24669941
107	0x3e10d208	0.1414262
108	0xbda13031	-0.0787052
109	0x3e0c762e	0.13716957
110	0xb9c7fe6a	-0.0003814579
111	0xbd125cd8	-0.035733074
112	0xbcff5eaa	-0.031173069
113	0x3e44b980	0.19211388
114	0xbc5f4a84	-0.013628606
115	0x3d90c0de	0.070680365
116	0x3cb9060e	0.022585895
117	0xbe2a2426	-0.16615352
118	0xbd5de847	-0.054176595
119	0xbe2d5aa4	-0.16929108
120	0x3d51aaa7	0.051188137
121	0x3d0967df	0.033546325
122	0xbd96df83	-0.0736685
123	0x3d8db146	0.06918578
124	0x3db946bb	0.09046694
125	0xbcd2df09	-0.025741117
126	0x3e47d934	0.1951645
127	0x3d8b822d	0.068119384
128	0x3e11168c	0.14168757
129	0xbbdbff2d	-0.006713769
130	0xbe316224	-0.17322594
131	0x3db40f2a	0.08791955
132	0x3df7be47	0.120968394
133	0x3ddd9b55	0.10820643
134	0x3d9d2ba6	0.07674341
135	0x3cf00769	0.029300408
136	0x3d9fbc4b	0.07799586
137	0x3ca3327a	0.01992153
138	0xbd7db369	-0.061938677
139	0xbe4314b8	-0.19050872
140	0x3d68d6d8	0.056845516
141	0xbdcac955	-0.09901682
142	0x3d3ce684	0.046118274
143	0x3d98abf3	0.07454672
144	0xbdda9683	-0.10673239
145	0x3e3567fc	0.17715448
146	0xbd22b67b	-0.03972481
147	0x39ca6dcb	0.00038610245
148	0xbb195ae1	-0.0023400115
149	0xbd57354e	-0.05254107
150	0xbde79afb	-0.11308857
151	0x3d9f2ad1	0.077718385
152	0xbd56e318	-0.052462667
153	0xbcd33b2e	-0.025785055
154	0x3c38c962	0.011278482
155	0x3dd07f92	0.10180582
156	0x3dcecb94	0.10097423
157	0x3e28da66	0.16489562
158	0xbc2f7285	-0.010708456
159	0x3ea1b609	0.31584194
160	0xbc9e225a	-0.01930349
161	0xbdc5a312	-0.09650244
162	0x3e4c4f1d	0.19952054
163	0xbcd09684	-0.025462396
164	0xbd14d4e9	-0.03633586
165	0xbc1c9b8a	-0.009558568
166	0x3d848119	0.06469936
167	0x3e274698	0.16335523
168	0x3df2232f	0.11823117
169	0x3bbbcf5c	0.0057315063
170	0x3d0d71c3	0.03453232
171	0x3e237506	0.1596261
172	0x3d7d2472	0.061802335
173	0xbd1f1c41	-0.038845304
174	0x3dafb62b	0.08579668
175	0xbd6fbd80	-0.05853033
176	0x3e18e1b5	0.1492985
177	0x3d2d8d0e	0.04237085
178	0x3ddc8c6a	0.10768969
179	0x3e27b2fe	0.16376874
180	0x3d484abd	0.0488994
181	0x3e661e7e	0.2247257
182	0x3dea68b9	0.114457555
183	0xbdd974cb	-0.106179796
184	0x3d22fb85	0.03979065
185	0x3e39b37f	0.18134879
186	0x3d4336cc	0.04765968
187	0x3c6c0c64	0.014407251
188	0x3e71bea8	0.23607886
189	0x3e10fdbc	0.14159292
190	0xbd9299f1	-0.07158268
191	0xbdeb786f	-0.1149758
192	0x3d222255	0.039583523
193	0xbb6da2a1	-0.0036260264
194	0x3e4e11f4	0.20124036
195	0xbd55dbe1	-0.052211646
196	0x3cc8e7be	0.024524566
197	0x3dff5947	0.124682
198	0xbc2d45e6	-0.010575747
199	0xbcb5b187	-0.022179378
200	0x3dd98bc6	0.10622363
201	0x3d312e6d	0.043257166
202	0xbd230e3f	-0.039808508
203	0x3e5c6f20	0.21526766
204	0xbb077d41	-0.0020674022
205	0x3d0ef5b1	0.03490228
206	0xbb01748d	-0.0019753308
207	0xbd6161b0	-0.055024803
208	0xbd985b61	-0.07439304
209	0x3cf4928b	0.029855033
210	0x3e20e4c9	0.15712275
211	0xbe10a11c	-0.14123958
212	0x3e0e37c5	0.13888462
213	0x3c1f2fc3	0.009715977
214	0xbe23b856	-0.15988287
215	0xbd77ac4f	-0.06046706
216	0x3e15fa11	0.14646174
217	0xbd790b67	-0.06080189
218	0xbd3d110b	-0.04615883
219	0x3e5eeb83	0.21769528
220	0x3d29e037	0.041473594
221	0xbe17a858	-0.14810312
222	0x3e0941b6	0.13403973
223	0x3dbcafbe	0.09213208
224	0x3e16b3df	0.14717053
225	0xbdcb6959	-0.09932203
226	0x3cf25422	0.029581133
227	0xbdb071f3	-0.08615484
228	0xbd9d08ff	-0.076677315
229	0x3e427b28	0.18992293
230	0x3d8fc10e	0.07019244
231	0xbd97dce0	-0.074151754
232	0xbe074d6c	-0.13213128
233	0x3c902df3	0.017600035
234	0xbe2ce4e9	-0.16884197
235	0xbdc251c2	-0.0948825
236	0x3cc59327	0.02411802
237	0x3d3f3f95	0.046691496
238	0x3e2b6dfb	0.16741173
239	0x3de90bf6	0.113792345
240	0xbcd23308	-0.0256591
241	0xbe2b782b	-0.16745059
242	0x3e5d56ca	0.21615139
243	0xbdc2ead4	-0.09517446
244	0xbd7e5383	-0.06209136
245	0x3e83d10d	0.2574543
246	0x3d99b54d	0.075052835
247	0x3e777a4c	0.24167746
248	0xbcadeeee	-0.021232095
249	0x3dc4c6c8	0.09608227
250	0x3e0de01a	0.13855019
251	0x3d411c6e	0.047146253
252	0x3d0d617d	0.0345168
253	0x3e3ed25d	0.18634935
254	0xbd618f05	-0.055068035
255	0x3dfd26ab	0.12360891

fc2.bias f4 [128]
0	0xbddd8bde	-0.10817693
1	0x3e6cb6cb	0.23116605
2	0xbdc56e64	-0.09640196
3	0x3e35e9e1	0.17764999
4	0xbd5aa69a	-0.05338154
5	0xbd906ea3	-0.07052352
6	0xbc373b40	-0.01118356
7	0x3e1346c6	0.14382467
8	0xbd52aa23	-0.051431786
9	0x3e3abd77	0.18236338
10	0x3e0ffc3e	0.14061067
11	0x3ca16bec	0.019704781
12	0x3d660685	0.05615856
13	0x3e3c28b7	0.18374906
14	0x3e5f726c	0.21820992
15	0x3d02f18d	0.031968642
16	0xbd0b4ab2	-0.034006782
17	0x3e43a0e1	0.19104339
18	0x3e31c90a	0.17361847
19	0xbd9dd594	-0.077067524
20	0x3dba3614	0.09092346
21	0x3db10d3f	0.086451046
22	0xbbc7ff38	-0.0061034225
23	0x3e59cf1d	0.21270414
24	0x3cf50f6e	0.029914584
25	0x3df77ce9	0.120843716
26	0xbcf1a38c	-0.02949693
27	0xbb82045a	-0.003967804
28	0x3e0b2faf	0.13592409
29	0x3e1ef168	0.15521777
30	0x3df5552d	0.119791366
31	0x3e42ece5	0.1903568
32	0x3df3ad05	0.11898235
33	0xb9e248f9	-0.00043160448
34	0x3ddde985	0.10835556
35	0x3e15755d	0.14595552
36	0x3db74dae	0.08950363
37	0x3e1b9d6d	0.15196772
38	0x3e506844	0.20352274
39	0x3df067f8	0.117385805
40	0x3e4181c7	0.18897162
41	0x3c452794	0.012033362
42	0x3d6da48c	0.058018252
43	0x3e63a12f	0.22229455
44	0xbdc6e697	-0.0971195
45	0x3cfb8d94	0.030707158
46	0x3daaf44f	0.083473794
47	0x3e0bee42	0.13665107
48	0xbc38f63f	-0.011289178
49	0x3de48024	0.111572534
50	0x3c1338c5	0.008985703
51	0xbd16bf2f	-0.03680342
52	0x3debf6d6	0.115216896
53	0x3e89274d	0.26787797
54	0x3e320450	0.17384458
55	0x3ceeaed8	0.029136106
56	0xbdde0852	-0.10841431
57	0x3e83c051	0.25732663
58	0x3e79d77b	0.24398606
59	0x3e404112	0.18774822
60	0xbd1567fb	-0.036476117
61	0x3d96f4ee	0.073709354
62	0x3e0841b3	0.13306312
63	0x3d8dd84b	0.0692602
64	0xbd737913	-0.059441637
65	0xbdefb9e5	-0.117053784
66	0x3e18efe5	0.14935263
67	0xbd317e4a	-0.04333333
68	0xbbc463cc	-0.005993342
69	0x3e19da36	0.15024647
70	0x3e28d200	0.16486359
71	0x3e514b09	0.2043878
72	0xbcf50560	-0.02990979
73	0xbda3b26b	-0.07993015
74	0x3e790113	0.24316816
75	0x3e81cbf1	0.25350907
76	0x3e74f639	0.23922051
77	0x3e1df84a	0.15426746
78	0x3cc32fe3	0.023826545
79	0xbd39ad5e	-0.04533135
80	0x3d78c85c	0.060737953
81	0x3e798ace	0.24369356
82	0x3e5011c1	0.20319273
83	0xbc9d1f97	-0.019180102
84	0x3dbf0947	0.093279414
85	0x3e786c24	0.24260002
86	0x3de6725a	0.112522796
87	0x3dd58b23	0.10426929
88	0xbc9a14b6	-0.018808704
89	0xbd948f6c	-0.07253918
90	0x3dedd9bc	0.11613795
91	0x3e331437	0.1748818
92	0x3e2efcd2	0.17088631
93	0x3e38b948	0.18039429
94	0xbd8d598a	-0.06901844
95	0xbccc95fc	-0.024973862
96	0x3d8d5503	0.0690098
97	0x3cf094cb	0.029367825
98	0x3dc36772	0.09541215
99	0x3d848fda	0.0647275
100	0x3de7cb67	0.11318093
101	0x3de7739b	0.11301347
102	0x3e11124a	0.14167133
103	0x3defe363	0.117132924
104	0x3e804556	0.250529
105	0xbd77f82e	-0.060539417
106	0x3e628a87	0.22123156
107	0x3e09e458	0.13466012
108	0x3e151e98	0.14562452
109	0x3e5e5b20	0.21714449
110	0x3ce611e6	0.028084707
111	0x3dd4f40e	0.10398112
112	0xbcd803ff	-0.026369093
113	0x3e5ca90c	0.21548861
114	0x3e282d2d	0.16423483
115	0x3e749f8f	0.23888992
116	0x3e4f562b	0.20247714
117	0x3e6f5d67	0.23375474
118	0x3e595127	0.21222363
119	0x3cc512c6	0.024056803
120	0xbc9f889b	-0.019474318
121	0x3ced7fc7	0.028991593
122	0x3e45b745	0.19308193
123	0x3e5acafb	0.21366493
124	0x3daf3fcf	0.085570924
125	0xbd945bba	-0.07244058
126	0x3e50ca62	0.20389703
127	0x3e3979fd	0.18112941

fc3.weight f4 [3, 128]
0	0x3dc1d369	0.094641514
1	0xbe81afde	-0.2532949
2	0x3e437985	0.19089325
3	0xbe8a576e	-0.2701983
4	0x3e97f34e	0.29677814
5	0x3cfc17f6	0.030773144
6	0x3e267675	0.16256125
7	0xbd9571c6	-0.07297091
8	0x3e88b236	0.26698464
9	0xbe6fb4de	-0.23408839
10	0xbe701084	-0.234438
11	0xbea91f90	-0.33031893
12	0xbcdde1d3	-0.02708522
13	0xbe153ff5	-0.14575179
14	0x3c1b7df9	0.009490483
15	0xbe1ed8c3	-0.15512376
16	0x3e687dd3	0.22704248
17	0xbdbd45f8	-0.09241861
18	0xbe61cf34	-0.22051698
19	0x3e861747	0.26189634
20	0xbeb3feb8	-0.35155272
21	0xbe011558	-0.12605798
22	0xbe7b8a4f	-0.2456448
23	0xbe60bfe5	-0.21948202
24	0x3e83eb29	0.2576535
25	0xbe2e2186	-0.17004976
26	0x3bd567f0	0.0065126345
27	0x3e494137	0.19653784
28	0xbe618f35	-0.22027285
29	0xbddd5586	-0.10807328
30	0xbe5e5a21	-0.21714069
31	0xbe57ecee	-0.21086475
32	0xbe051ebb	-0.13000004
33	0xbe4717df	-0.194427
34	0xbdc6c82c	-0.097061485
35	0xbe7fc7fb	-0.2497863
36	0xbe4432f9	-0.1916007
37	0xbe7327be	-0.23745629
38	0xbd98cc08	-0.07460791
39	0xbd4d8aad	-0.05018108
40	0xbe1c5eec	-0.15270585
41	0x3e803d66	0.25046843
42	0xbe8316bf	-0.2560329
43	0xbdf356b1	-0.118817694
44	0x3cffaf66	0.031211566
45	0xbeae1913	-0.34003505
46	0x3e23a4bf	0.15980814
47	0xbdf804d2	-0.121102944
48	0x3e000176	0.12500557
49	0xbd526af8	-0.051371545
50	0x3d161075	0.03663679
51	0xbe3b8985	-0.18314178
52	0xbe16c1c7	-0.14722358
53	0xbe5be591	-0.21474291
54	0xbe0a25ca	-0.13490978
55	0x3e440ee6	0.19146308
56	0x3e01a135	0.12659152
57	0xbde4dff2	-0.11175527
58	0xbc5b7553	-0.0133946715
59	0xbe8c788d	-0.27435723
60	0x3d6d4ca2	0.05793441
61	0xbd9bf545	-0.07615141
62	0xbe231289	-0.1592504
63	0xbecf6af2	-0.4051128
64	0x3e9812f1	0.2970195
65	0x3dc41717	0.095747165
66	0xbe33b810	-0.17550683
67	0xbd61d121	-0.05513108
68	0x3e4d8c80	0.20073128
69	0xbe64ca39	-0.22342767
70	0xbe0ae0ea	-0.1356236
71	0xbe6ae216	-0.22937807
72	0x3de450aa	0.11148198
73	0x3e3756c9	0.179042
74	0xbe221524	-0.15828377
75	0xbda8098c	-0.08204946
76	0xbdc90e5a	-0.098171905
77	0xbdebd29c	-0.1151478
78	0x3e824aae	0.254476
79	0x3b5aab60	0.0033366308
80	0xbe885c2e	-0.26632828
81	0xbe175ff6	-0.147827
82	0xbdea7aa4	-0.11449173
83	0x3e6174c2	0.22017196
84	0xbe583969	-0.2111565
85	0xbe625edd	-0.221065
86	0xbded4fbe	-0.11587475
87	0xbe608eae	-0.21929428
88	0xbcac0674	-0.02099917
89	0xbd6ab20d	-0.05729871
90	0xbe36b06d	-0.17840739
91	0xbe774f8c	-0.24151438
92	0xbddecbc5	-0.1087871
93	0xbe52f248	-0.20600235
94	0x3e546135	0.20740207
95	0x3e5d5de1	0.21617843
96	0x3da72838	0.08161968
97	0xbe34f065	-0.17669828
98	0xbe0560d4	-0.13025218
99	0x3d09365d	0.03349911
100	0xbd612fb9	-0.054977152
101	0xbdb9d5a1	-0.090739496
102	0xbdee0efd	-0.116239525
103	0xbe49d8b0	-0.19711566
104	0xbe4e5327	-0.20148908
105	0x3ea2e878	0.31817985
106	0xbddf4811	-0.109024175
107	0xbe4b5649	-0.19857134
108	0xbe2c1d3d	-0.16808029
109	0xbe38d878	-0.18051326
110	0xbe81b97a	-0.2533682
111	0xbdd4b3ac	-0.10385832
112	0x3e11b546	0.14229307
113	0xbe404b62	-0.18778756
114	0xbe5b4f7b	-0.21417038
115	0xbe3a023a	-0.18164912
116	0xbe057df4	-0.13036329
117	0xbd9aa792	-0.07551493
118	0xbe06ec34	-0.13176042
119	0xbeaba596	-0.3352477
120	0x3e56e5bf	0.20986079
121	0x3e7d4fec	0.24737519
122	0xbdb5ff34	-0.08886567
123	0xbdad4b07	-0.08461576
124	0xbd0c2833	-0.034218024
125	0x3eb45ab6	0.35225457
126	0xbe6cfd1c	-0.23143429
127	0xbe644009	-0.22290052
128	0x3e7d1502	0.24715045
129	0xbdc153ff	-0.09439849
130	0x3e8c7dc8	0.27439713
131	0xbe7eb1d9	-0.24872531
132	0x3e8c6aea	0.2742532
133	0xba358338	-0.0006924155
134	0xbe3cf486	-0.18452653
135	0xbe5e83c0	-0.21729946
136	0x3e84efca	0.25964195
137	0xbe5d4937	-0.2160996
138	0xbe8232a2	-0.25429255
139	0xbea0d015	-0.31408754
140	0x3d2d4f40	0.042311907
141	0xbde2786e	-0.110581264
142	0xbe3affb8	-0.18261611
143	0xbdddd5bb	-0.108317815
144	0x3e8f4aeb	0.27986845
145	0xbe0b079c	-0.13577121
146	0xbe206313	-0.15662794
147	0x3e14b7bd	0.14523216
148	0x3daae61d	0.08344672
149	0xbeaa4afc	-0.33260334
150	0x3db18759	0.08668394
151	0xbe08a279	-0.13343228
152	0x3e0091db	0.1255564
153	0xbe1c4511	-0.15260722
154	0x3dab28e1	0.083574064
155	0x3e7fc1f5	0.24976332
156	0xbdf009b5	-0.117206015
157	0xbdd8d6f8	-0.10587877
158	0x3c983d71	0.018583985
159	0xbe2b4423	-0.16725211
160	0xbeaa57b3	-0.33270034
161	0x3cbd32f5	0.023095587
162	0xbe5362ed	-0.20643206
163	0xbe1e2dd2	-0.15447167
164	0xbe136aa3	-0.14396147
165	0xbe5e1c38	-0.21690452
166	0xbe3be6fc	-0.18349832
167	0xbdb4739a	-0.08811112
168	0xbe1dbc50	-0.15403867
169	0x3e71b967	0.23605882
170	0xbe65d79a	-0.22445527
171	0xbe4dd957	-0.2010244
172	0xbd063b91	-0.03277165
173	0xbe0e5e51	-0.13903166
174	0x3df34eb3	0.11880245
175	0xbe00e098	-0.12585676
176	0x3c45fd51	0.012084321
177	0xbe3deb5b	-0.18546812
178	0x3e7d1e85	0.24718674
179	0x3c8d4764	0.017245956
180	0xbe1f065e	-0.15529773
181	0xbe854cda	-0.26035196
182	0xbe2ef507	-0.17085658
183	0x3df252da	0.11832209
184	0x3e41372f	0.18868707
185	0xbe1be934	-0.15225679
186	0xbe2aa917	-0.16666065
187	0xbda82c99	-0.08211631
188	0xbcbc1ce4	-0.022962995
189	0xbe07038f	-0.13184951
190	0xbe52b115	-0.20575364
191	0xbd808ace	-0.06276475
192	0x3e3d592e	0.1849105
193	0x3e891013	0.26770076
194	0xbe39ccff	-0.18144606
195	0xbceae220	-0.028672278
196	0x3e25c3e4	0.16188008
197	0xbe58680e	-0.21133444
198	0xbe48bcb6	-0.19603238
199	0xbe015d52	-0.12633255
200	0x3e7675ea	0.24068418
201	0x3e3adf09	0.18249144
202	0xbe1125c3	-0.14174561
203	0xbe3dc157	-0.18530785
204	0xbe49dbe9	-0.19712795
205	0xbe3df395	-0.1854995
206	0x3e1dabce	0.1539757
207	0xbd704b38	-0.058665484
208	0xbe8462ab	-0.25856528
209	0xbe025385	-0.12727173
210	0xbe0aca26	-0.13553676
211	0x3e7c488f	0.24637054
212	0xbd9d7d4e	-0.076899156
213	0xbe58ef09	-0.21184935
214	0xbe2ee93f	-0.17081164
215	0xbe36df3a	-0.17858592
216	0x3d1a53de	0.03767764
217	0xbdc39a59	-0.09550924
218	0xbe3b7fde	-0.18310496
219	0xbe6d4c9a	-0.23173752
220	0xbdf6389f	-0.12022518
221	0xbe714d5e	-0.2356467
222	0x3e72ff74	0.2373026
223	0x3e3e08a9	0.18557991
224	0xbde97be8	-0.11400586
225	0xbed1dd5e	-0.40989202
226	0xbe1132ab	-0.14179485
227	0x3e6d0c3e	0.23149201
228	0xbe4585c6	-0.19289312
229	0xbe30510c	-0.17218417
230	0xbe65e204	-0.224495
231	0xbe15e249	-0.14637102
232	0xbdf179b4	-0.11790791
233	0x3ea7bbd0	0.32760477
234	0xbd94224e	-0.072331056
235	0xbe432b56	-0.190595
236	0xbe461a70	-0.19346023
237	0xbe40e1fd	-0.18836208
238	0xbd9511bb	-0.072787724
239	0xbe6284a8	-0.22120917
240	0xbe59671b	-0.21230738
241	0xbe2ce43e	-0.16883942
242	0xbe445299	-0.19172134
243	0xbdf8ad28	-0.12142402
244	0xbe308a82	-0.17240337
245	0xbe321dc3	-0.17394166
246	0xbe483f6f	-0.19555448
247	0xbe356ce4	-0.1771732
248	0x3df2e738	0.11860508
249	0x3e9b2603	0.30302438
250	0xbe615f81	-0.22009088
251	0xbe1a01d9	-0.15039767
252	0xbdc8acbd	-0.09798572
253	0x3ddc70a6	0.107636735
254	0xbe172bae	-0.14762756
255	0xbe1c7e57	-0.1528257

fc3.bias f4 [3]
0	0x3be58e99	0.0070055244
1	0xbe0a7d5c	-0.13524383
2	0xbe6676e6	-0.22506294
