Acrobot/ddqn_acrobot_v1_checkpoint.pth (torch, 245858 bytes, 18 tensors)

fc1.weight f4 [128, 6]
0.1818451 -0.51913 0.39965054 0.13472067 -0.17321001 -0.17276785 -0.3405433 0.59994566
-0.45291418 -0.74981385 0.02279381 0.22819991 -0.2189109 0.5522672 -0.49668586 -0.1411385
0.0253801 0.023499113 -0.41147715 0.4436804 0.17002068 0.2157351 0.22818942 0.08717374
0.73091054 -0.033151712 -0.81319034 -0.7790025 -0.0070141125 0.2122235 -0.21767886 0.1906571
0.2988767 0.25230166 0.34279323 0.25899136 0.13720362 0.29562518 -0.06307568 -0.10635992
0.1865268 0.26757428 -0.58350885 0.15216687 -0.8935011 0.15264301 -0.094377376 -0.18038489
0.6114874 0.29959056 0.22061822 -0.15519212 0.20139435 0.15212004 -0.14129423 -0.21283565
0.829025 -0.31463578 0.008966897 -0.028960831 0.27787364 0.68380386 0.24831629 -0.088667564
-0.10923648 0.21956153 0.37126496 0.11167632 0.32251367 0.746385 0.30286622 -0.1536836
0.4018604 0.37132546 0.04851924 -0.39238402 0.22343029 0.09945116 0.34850717 0.44744644
-0.016236318 -0.6435639 -0.16118911 -0.1815661 0.40679377 -0.46205604 -0.39715278 -0.03781026
0.14833693 0.05044034 -0.83546317 -0.03485044 -0.73102814 -0.45460448 0.12661628 0.33742577
-0.31333584 -0.2822131 0.19947201 -0.2167505 -0.37101758 -0.30795574 0.028320633 -0.1334459
0.012846319 0.06491421 0.37502867 0.27040207 0.18734373 0.48207358 0.4985126 -0.11590241
0.1330998 0.18605061 0.64367104 0.18269017 -0.155351 0.39153612 -0.18699174 0.2229953
0.07942545 0.2990849 -0.19423608 -0.019590998 -0.028624378 0.3377003 0.35967827 0.565605
-0.3282285 -0.5514827 -0.17589283 0.2328739 0.041979082 0.51493263 -0.5614235 -0.09148503
-0.039210156 0.1604032 0.2582301 -0.74917156 -0.6155434 0.7197252 0.13006537 -0.26441425
-0.23227961 -0.56065685 0.22763684 0.16920137 0.34637696 0.03318867 0.53224343 0.06369923
0.4573916 0.0032932872 -0.13191551 -0.13366519 0.3814333 -0.7048148 0.3387928 0.7252381
-0.18544337 -0.2308457 -0.11518743 -0.05176644 -0.5489295 0.11487801 -0.36146057 0.2764577
-0.5511353 0.44469595 0.40162393 0.058103666 0.4076337 -0.098039255 0.061751373 0.0037533094
-0.25589117 0.013644966 -0.09613795 0.03625839 0.59990734 0.68708354 0.71612906 -0.92124254
-0.19286112 0.26619026 -0.093417 0.8174563 -0.5059552 -0.71448565 -0.037627243 0.29792973
-0.38783875 -0.05963546 0.07916792 0.04494012 0.46060327 0.33765772 0.7256343 0.25573257
0.15388982 0.22538856 -0.2650012 -0.08616895 0.64239484 0.3581919 0.466683 0.46514872
0.12088549 -0.5871554 0.44919905 -0.15396938 1.0481137 0.25079417 0.060730245 0.388242
-0.17539832 0.57081735 -0.42370093 0.4808755 0.3300031 0.19716296 0.28194588 -0.5617158
-0.35866955 -0.5084278 0.18851435 -0.15559965 -0.37736335 0.0076817567 -0.25977463 -0.38103005
-0.1778545 0.18763243 -0.14687921 0.2657823 0.4303271 0.64719045 -0.38253886 -0.07735627
0.3539441 0.22358704 -0.48097092 0.09071121 -0.28261396 0.16248423 0.3683618 -0.14075842
-0.44050288 0.4903375 0.17880242 0.24109589 -0.32128924 -0.07193688 -0.6831713 -0.33979237
00000000: 9a35 3a3e b4e5 04bf ff9e cc3e 37f4 093e
00000010: f75d 31be 0eea 30be b15b aebe 0a96 193f
00000020: 5ee4 e7be cdf3 3fbf 16ba ba3c 3dad 693e
00000030: 2e2a 60be 6261 0d3f 9c4d febe 9c86 10be
00000040: ede9 cf3c 3681 c03c 22ad d2be 142a e33e
00000050: e719 2e3e a9e9 5c3e 7daa 693e 2588 b23d
00000060: f41c 3b3f 17ca 07bd 3e2d 50bf b56c 47bf
00000070: a4d6 e5bb 1e51 593e 35e7 5ebe 9d3b 433e
00000080: 5e06 993e af2d 813e 9882 af3e 849a 843e
00000090: 1b7f 0c3e 2f5c 973e d22d 81bd 3bd3 d9bd
000000a0: e200 3f3e 7fff 883e d660 15bf a2d1 1b3e
000000b0: 7dbc 64bf 734e 1c3e ed48 c1bd d1b6 38be
000000c0: 708a 1c3f ef63 993e bee9 613e afea 1ebe
000000d0: 523a 4e3e 5bc5 1b3e 6faf 10be 97f1 59be
000000e0: fb3a 543f f117 a1be e4e9 123c 443f edbc
000000f0: 7445 8e3e c50d 2f3f a046 7e3e 5797 b5bd
00000100: 60b7 dfbd bdd4 603e 7116 be3e 8eb6 e43d
00000110: 8320 a53e 1613 3f3f 4811 9b3e 3c5f 1dbe
00000120: a5c0 cd3e 5f1e be3e 1cbc 463d 8fe6 c8be
00000130: e9ca 643e 0dad cb3d 886f b23e b317 e53e
00000140: 0702 85bc 9bc0 24bf c20e 25be 77ec 39be
00000150: 4647 d03e 9c92 ecbe 9c57 cbbe eede 1abd
00000160: a3e5 173e 889a 4e3d eae0 55bf 56bf 0ebd
00000170: a924 3bbf ebc1 e8be b3a7 013e 12c3 ac3e
00000180: 8e6d a0be 3c7e 90be 6442 4c3e d8f3 5dbe
00000190: 04f6 bdbe 60ac 9dbe ac00 e83c 0ba6 08be
000001a0: 5e79 523c bef1 843d c203 c03e 2472 8a3e
000001b0: 09d7 3f3e 59d2 f63e 0b3d ff3e 3e5e edbd
000001c0: 504b 083e 0d84 3e3e a0c7 243f 2213 3b3e
000001d0: 5514 1fbe 6c77 c83e c37a 3fbe e158 643e
000001e0: cfa9 a23d a821 993e d3e5 46be 4d7d a0bc
000001f0: ac7d eabc 0ee7 ac3e c027 b83e 7dcb 103f
00000200: 910d a8be f82d 0dbf 401d 34be 7f76 6e3e
00000210: 42f2 2b3d a0d2 033f 73b9 0fbf 815c bbbd
00000220: d49a 20bd bd40 243e bc36 843e b5c9 3fbf
00000230: 4194 1dbf e93f 383f db2f 053e 4e61 87be
00000240: b5da 6dbe 3587 0fbf a219 693e 2043 2d3e
00000250: 5258 b13e d8f0 073d 1b41 083f be74 823d
00000260: 3b2f ea3e 31d4 573b dc14 07be 87df 08be
00000270: 3a4b c33e be6e 34bf 4076 ad3e 34a9 393f
00000280: dee4 3dbe d162 6cbe 63e7 ebbd 0c09 54bd
00000290: a586 0cbf 2945 eb3d 5c11 b9be dd8b 8d3e
000002a0: 3417 0dbf 30af e33e a7a1 cd3e 1cfe 6d3d
000002b0: 5db5 d03e cec8 c8bd 02ef 7c3d 15fa 753b
000002c0: 2b04 83be 238f 5f3c f9e3 c4bd ad83 143d
000002d0: 8793 193f b5e4 2f3f 3c54 373f 8dd6 6bbf
000002e0: 637d 45be 174a 883e 6951 bfbd d144 513f
000002f0: 4886 01bf 88e8 36bf 061f 1abd 3f8a 983e
00000300: cd92 c6be 5044 74bd ca22 a23d 2213 383d
00000310: 31d4 eb3e 79e1 ac3e 2bc3 393f 61ef 823e
00000320: 4b95 1d3e 42cc 663e 3dae 87be 5979 b0bd
00000330: fd73 243f ee64 b73e 13f1 ee3e f927 ee3e
00000340: d092 f73d d14f 16bf 6bfd e53e 26aa 1dbe
00000350: 9728 863f 1868 803e 47c0 783d a8c7 c63e
00000360: 9e9b 33be 1621 123f 54ef d8be 5035 f63e
00000370: 2bf6 a83e 16e5 493e 365b 903e 9bcc 0fbf
00000380: 89a3 b7be 5328 02bf e809 413e 8455 1fbe
00000390: c535 c1be 3fb7 fb3b 2e01 85be 5f16 c3be
000003a0: 7d1f 36be b722 403e 8167 16be 9e14 883e
000003b0: d553 dc3e 46ae 253f 22dc c3be f76c 9ebd
000003c0: 2938 b53e 00f4 643e d241 f6be cdc6 b93d
000003d0: c7b2 90be 4462 263e eb99 bc3e fa22 10be
000003e0: 9889 e1be 840d fb3e fb17 373e d7e1 763e
000003f0: 0680 a4be a553 93bd 50e4 2ebf 44f9 adbe

fc1.bias f4 [128]
0.4049389 0.33079743 0.3450284 0.21742073 -0.31717739 -0.40871882 -0.43059358 -0.08011532
0.108401395 0.37449294 -0.28287205 0.36926213 0.33532164 0.17049028 0.58543956 0.5070297
-0.31816036 -0.045698743 0.5425807 -0.084540404 -0.05194845 0.5213273 -0.24796571 0.39490968
-0.22944096 -0.0008184531 -0.035670843 -0.47093195 0.061447613 -0.47168452 0.27763498 0.27413395
0.095830694 0.1629288 0.009132257 -0.03608088 0.52244043 -0.43996686 -0.13149926 -0.29032642
-0.38287535 0.4862856 0.033546846 0.20637397 0.1023333 -0.1311952 -0.28741494 -0.01574146
-0.02388473 0.755118 -0.36382863 0.40230316 0.4117691 0.45278877 0.47393253 0.30442753
0.09925276 0.04735455 0.17355089 0.48578316 0.28371772 0.2349408 0.40113518 -0.21689914
-0.36034048 0.13427913 -0.41796717 0.5034412 -0.2679234 -0.34503996 0.44291794 -0.25951886
0.43338206 0.34248817 0.0135259675 0.43267602 0.48005718 0.50050104 -0.37104604 0.13060296
0.45318308 -0.26929924 -0.35216886 -0.31015489 -0.15656728 0.026880678 -0.5884151 -0.27526918
-0.42999545 0.19861537 -0.4875195 0.16348663 -0.25015447 0.36802104 0.3285889 0.42164516
0.18349066 0.3493188 -0.56286687 -0.4764718 0.576363 0.12896335 -0.020360226 0.20406042
0.4988043 0.48251322 0.2802095 0.26418087 0.13046966 -0.34478858 0.4882032 -0.55762506
0.2795519 0.07053489 0.069901176 0.23430584 0.18687405 -0.21609671 -0.595292 -0.41728395
-0.049423877 -0.11886012 -0.23850115 0.14112225 0.36670652 0.32558012 -0.07345384 -0.35753098
00000000: 2754 cf3e 485e a93e 90a7 b03e 8aa3 5e3e
00000010: 1365 a2be 9843 d1be c376 dcbe 8013 a4bd
00000020: 8d01 de3d 8abd bf3e 9bd4 90be ed0f bd3e
00000030: 47af ab3e 0195 2e3e 5edf 153f b3cc 013f
00000040: eae5 a2be 9b2e 3bbd 92e6 0a3f 8523 adbd
00000050: e6c7 54bd b575 053f b9ea 7dbe 9a31 ca3e
00000060: 92f2 6abe 758d 56ba 971b 12bd fe1d f1be
00000070: 7eb0 7b3d a280 f1be 2c26 8e3e 495b 8c3e
00000080: e242 c43d cfd6 263e 769f 153c 8bc9 13bd
00000090: a8be 053f 5643 e1be bea7 06be aaa5 94be
000000a0: 3d08 c4be 6dfa f83e 6b68 093d b353 533e
000000b0: 1f94 d13d 0958 06be 0d28 93be 3cf4 80bc
000000c0: e9a9 c3bc 6a4f 413f bf47 babe aefa cd3e
000000d0: 66d3 d23e eed3 e73e 49a7 f23e eddd 9b3e
000000e0: 0845 cb3d d8f6 413d 53b7 313e 92b8 f83e
000000f0: 7343 913e 5294 703e 9761 cd3e cf1a 5ebe
00000100: 8c7e b8be 7880 093e cbff d5be 86e1 003f
00000110: 422d 89be 14a9 b0be 24c6 e23e a8df 84be
00000120: 41e4 dd3e 9c5a af3e 059c 5d3c b687 dd3e
00000130: 0eca f53e d620 003f bff9 bdbe c8bc 053e
00000140: 9d07 e83e 97e1 89be 7a4f b4be 9fcc 9ebe
00000150: 2c53 20be de34 dc3c 5fa2 16bf 15f0 8cbe
00000160: 5d28 dcbe d461 4b3e 289c f9be 0a69 273e
00000170: 3f14 80be 416d bc3e ce3c a83e e0e1 d73e
00000180: fae4 3b3e ead9 b23e 0b18 10bf 1df4 f3be
00000190: 878c 133f f80e 043e 7dca a6bc 37f5 503e
000001a0: 4763 ff3e f90b f73e 9f77 8f3e b742 873e
000001b0: d799 053e 2188 b0be c5f5 f93e 84c0 0ebf
000001c0: 6d21 8f3e 9974 903d 5928 8f3d dfed 6f3e
000001d0: e95b 3f3e 7548 5dbe 0e65 18bf 3ea6 d5be
000001e0: b170 4abd ef6c f3bd a539 74be 5a82 103e
000001f0: f5c0 bb3e 70b2 a63e f86e 96bd 4d0e b7be

fc2.weight f4 [128, 128]
0.1354292 0.010701871 0.16428338 0.07824846 0.14426686 0.05611013 -0.18708587 0.29124
0.12171166 0.26708338 -0.3914354 -0.11301274 -0.0030382876 0.17848015 0.11730123 0.08764708
0.035096582 0.009468096 0.15295936 -0.16948058 -0.02705201 -0.027964294 0.30565777 -0.11129538
0.3567739 -0.12837441 -0.4393827 0.06728157 0.07277783 0.11875302 -0.06414885 -0.022014076
0.22592765 -0.023479186 -0.14270873 0.040406596 -0.012561059 -0.23473299 -0.058343142 -0.31081638
-0.13018002 -0.036942903 0.13275854 0.11015399 -0.4373153 0.0017181437 0.20101888 0.15841722
0.13243663 0.1215893 0.16548298 0.15990768 0.16424884 -0.028063381 -0.09606123 -0.014543811
-0.2837135 -0.08133127 0.04973987 0.09351618 0.004226396 -0.016049404 -0.06894295 0.04569566
-0.28319737 0.089423366 0.01636921 0.11744647 -0.28690088 -0.19071838 -0.040648934 -0.28403485
-0.10965785 -0.023384016 0.17464668 0.12982474 0.0336642 0.12517036 0.29328024 0.29632214
-0.23209791 0.06497818 0.040499836 0.009700428 0.13118087 0.041654885 -0.09056315 0.22301212
0.065721326 -0.032807212 -0.035507265 0.12255069 -0.2541616 0.11732836 -0.039732948 -0.1319675
0.12997276 -0.205482 0.25157028 -0.3120497 -0.04573821 0.0223455 0.4416271 0.30551562
-0.29843992 0.05191119 0.06361007 0.24843569 0.23044981 0.22878678 0.06829462 -0.062369086
-0.07713653 0.037612993 -0.38315564 0.06997858 0.118623815 0.1095204 -0.14261809 -0.17842264
-0.34030697 0.22030215 0.08675422 0.010943272 -0.031032171 0.02506156 -0.029262327 -0.19753319
0.14194395 0.19235355 0.02002509 -0.08065493 0.08152706 -0.3382143 -0.16216646 0.04059461
0.14163132 -0.045658857 -0.021267721 0.029098382 0.12455458 0.10097434 0.2633041 0.037572652
-0.43002146 -0.11787835 0.080304496 -0.014086404 -0.09519292 0.041169062 0.3584346 -0.09196646
-0.06478355 0.19442932 0.24093446 -0.019529264 -0.23387858 -0.44045 0.047473975 0.0914063
-0.08543408 0.033087917 0.082696855 -0.018120814 -0.08366696 -0.061854497 -0.11822025 -0.13129424
-0.06927567 0.105564445 0.049309544 0.07314382 -0.061870586 -0.30177614 0.1063196 -0.1663145
0.1594158 0.031180251 -0.3562068 0.093268014 -0.019584667 0.06761978 -0.07542737 0.10768259
0.20003575 0.10966737 -0.15299167 0.22324897 -0.018504964 0.0142240655 0.076901585 -0.16133308
-0.1131988 0.19537999 -0.0796373 0.18716888 -0.08055586 -0.34901646 -0.053896524 -0.088600926
0.24702537 0.07192494 0.09405035 0.016042672 0.2119706 0.016379872 0.18730234 0.09115639
0.03180278 -0.16037501 -0.00737836 -0.24626717 -0.19337489 -0.18865731 -0.11700466 -0.0068443166
-0.26100314 0.030805727 -0.14401183 -0.06848862 -0.021936933 0.061277892 -0.03239741 0.18155703
-0.016708035 -0.010260774 -0.11281429 -0.48466668 0.18412533 0.024189398 0.32081354 0.15289459
0.23898223 0.107009746 -0.042682398 -0.112380736 0.10539199 -0.014980067 0.15029813 -0.28294924
0.028601263 0.0027681517 0.06575453 -0.07910975 0.29724544 -0.0040461086 -0.24034184 -0.23784815
0.17694125 0.06892892 -0.019067368 0.21918407 0.30440506 -0.095798366 -0.03811634 -0.105300255
00000000: f4ad 0a3e e656 2f3c e739 283e bb40 a03d
00000010: b1ba 133e bcd3 653d 7093 3fbe 691d 953e
00000020: f643 f93d 27bf 883e 396a c8be 3973 e7bd
00000030: 021e 47bb 80c3 363e a13b f03d 5080 b33d
00000040: 6fc1 0f3d 1320 1b3c 61a1 1c3e 518c 2dbe
00000050: 2d9c ddbc 6015 e5bc 2d7f 9c3e d5ee e3bd
00000060: 12ab b63e 9574 03be c5f6 e0be ebca 893d
00000070: 8b0c 953d c934 f33d 7960 83bd dd56 b4bc
00000080: 9459 673e 6c57 c0bc 3d22 12be 6381 253d
00000090: e6cc 4dbc d85d 70be 38f9 6ebd 5323 9fbe
000000a0: e94d 05be 7151 17bd dbf1 073e 6a98 e13d
000000b0: cae7 dfbe 5633 e13a e5d7 4d3e 2038 223e
000000c0: 789d 073e d003 f93d 5f74 293e d7be 233e
000000d0: d930 283e 2de5 e5bc c0bb c4bd 2a49 6ebc
000000e0: e542 91be 0291 a6bd 09bc 4b3d 6985 bf3d
000000f0: 947d 8a3b 0a7a 83bc f631 8dbd 5f2b 3b3d
00000100: 3fff 90be 9923 b73d b918 863c c687 f03d
00000110: ace4 92be ae4b 43be 7f7f 26bd 046d 91be
00000120: 4b94 e0bd d68f bfbc 94d6 323e c7f0 043e
00000130: 79e3 093d a92c 003e d428 963e 89b7 973e
00000140: 13ab 6dbe 4813 853d 28e3 253d 8bee 1e3c
00000150: 4754 063e 509e 2a3d 2c79 b9bd 4a5d 643e
00000160: e798 863d db60 06bd 1170 11bd dbfb fa3d
00000170: 7821 82be da49 f03d 04bf 22bd 7d22 07be
00000180: 9417 053e e069 52be d2cd 803e fac4 9fbe
00000190: fd57 3bbd e90d b73c f21c e23e 8b6c 9c3e
000001a0: 1ecd 98be d4a0 543d ff45 823d ed65 7e3e
000001b0: 09fb 6b3e 1547 6a3e 0dde 8b3d ba76 7fbd
000001c0: c2f9 9dbd 1510 1a3d fa2c c4be ee50 8f3d
000001d0: 0bf1 f23d 3b4c e03d 7a0a 12be 6db4 36be
000001e0: b73c aebe e396 613e 32ac b13d 694b 333c
000001f0: 2e37 febc e74d cd3c 8cb7 efbc 2446 4abe
00000200: c159 113e 54f8 443e a80b a43c 692e a5bd
00000210: a9f7 a63d 6d2a adbe f70e 26be 8946 263d
00000220: cd07 113e c804 3bbd a539 aebc bb5f ee3c
00000230: 7916 ff3d a3cb ce3d cccf 863e c8e5 193d
00000240: c62b dcbe 346a f1bd af76 a43d a9ca 66bc
00000250: 81f4 c2bd e4a0 283d bd84 b73e e958 bcbd
00000260: 3dad 84bd 7b18 473e 86b7 763e d6fb 9fbc
00000270: de7d 6fbe aa82 e1be 1274 423d 3a33 bb3d
00000280: 10f8 aebd 3287 073d f85c a93d 1a72 94bc
00000290: 9559 abbd 245b 7dbd 751d f2bd ff71 06be
000002a0: 67e0 8dbd 2c32 d83d cef8 493d 6dcc 953d
000002b0: 036c 7dbd 6782 9abe 17be d93d 594e 2abe
000002c0: e53d 233e ba6d ff3c bd60 b6be 4d03 bf3d
000002d0: 0670 a0bc 3d7c 8a3d aa79 9abd b188 dc3d
000002e0: 2cd6 4c3e 4999 e03d d9a9 1cbe 619b 643e
000002f0: b997 97bc 0e0c 693c 947e 9d3d 8034 25be
00000300: c6d4 e7bd b111 483e e118 a3bd 33a9 3f3e
00000310: 79fa a4bd 49b2 b2be 9ac2 5cbd 6774 b5bd
00000320: 38f4 7c3e 624d 933d 789d c03d ec6b 833c
00000330: d20e 593e 152f 863c 2fcc 3f3e 34b0 ba3d
00000340: a243 023d 5939 24be 2bc6 f1bb 762d 7cbe
00000350: 1104 46be 622f 41be 24a0 efbd 4a46 e0bb
00000360: 34a2 85be 4b5c fc3c d677 13be c343 8cbd
00000370: 15b5 b3bc 87fe 7a3d 26b3 04bd 16ea 393e
00000380: 4adf 88bc ce1c 28bc 2e0b e7bd 3b26 f8be
00000390: 5a8b 3c3e d828 c63c ac41 a43e 6690 1c3e
000003a0: c2b7 743e ed27 db3d bdd3 2ebd df27 e6bd
000003b0: c1d7 d73d f46e 75bc c1e7 193e b9de 90be
000003c0: 324d ea3c e169 353b 50aa 863d 4b04 a2bd
000003d0: 8e30 983e 3895 84bb 2c1c 76be 778e 73be
000003e0: 1630 353e 9b2a 8d3d 2b33 9cbc ca71 603e
000003f0: fbda 9b3e ef31 c4bd e11f 1cbd a9a7 d7bd

fc2.bias f4 [128]
0.06903351 0.14172173 0.14903483 0.17855957 0.06081727 0.17158017 0.022841617 0.02630638
-0.17346321 0.13100038 -0.0063399947 -0.09849177 0.07173431 -0.027978744 -0.007929939 -0.020442165
0.064600006 0.031728588 -0.14796913 0.11531446 0.1290419 0.22183543 0.054242264 -0.0753491
0.109393716 -0.018860854 0.20433769 0.14002001 0.06669742 0.08414268 0.1001677 -0.006460654
-0.033307545 -0.13457865 0.16090363 0.09407041 -0.030263586 0.121275 0.024528263 0.07047562
-0.061012134 0.18173362 0.123293966 0.14004156 0.1869738 -0.001571257 -0.05049173 -0.008028796
-0.011112469 -0.0034495043 0.100682475 0.08851708 0.18672752 0.147548 0.07602451 -0.02048968
0.09220148 -0.00229683 0.10986186 -0.010108652 -0.008448609 0.06604816 -0.016107269 0.07108132
0.08220277 0.13524343 0.1997846 0.116356626 0.008680318 0.10738008 -0.006949221 0.103245296
0.043424457 -0.072097346 0.10822671 0.05040031 0.1647039 -0.024443334 0.12393645 0.15383826
-0.036223046 0.064555764 0.11387797 0.04815143 0.09440585 0.0476682 -0.040227983 0.17050777
-0.026315847 -0.02409937 0.14120923 0.1477555 0.0702331 0.039734136 0.12107666 0.023603445
-0.015820106 0.105147585 0.17217544 0.08659727 0.13594037 0.08333953 0.078942396 0.17276707
0.07979093 -0.032042895 0.031490337 -0.017739154 -0.09357362 -0.020426879 -0.06865821 -0.030260244
0.17953263 0.08776219 -0.0070169847 0.11145997 0.109879605 0.103570074 0.17574628 0.024476275
0.030158054 0.13785848 0.08190822 0.15286684 0.10574427 0.028092723 0.003873191 0.0104054
00000000: 7161 8d3d 801f 113e 969c 183e 52d8 363e
00000010: 881b 793d b6b2 2f3e 581e bb3c 7a80 d73c
00000020: 57a0 31be f724 063e bbbf cfbb 0eb6 c9bd
00000030: 70e9 923d ae33 e5bc 93ec 01bc 5476 a7bc
00000040: 024d 843d d6f5 013d 3885 17be fd29 ec3d
00000050: 8f23 043e d428 633e 232d 5e3d a150 9abd
00000060: d009 e03d 1482 9abc e63d 513e 6861 0f3e
00000070: a898 883d ff52 ac3d b924 cd3d e5b3 d3bb
00000080: 7e6d 08bd fcce 09be ecc3 243e fda7 c03d
00000090: 57eb f7bc 075f f83d 7fef c83c 8655 903d
000000a0: dce7 79bd 6118 3a3e 8c81 fc3d 0e67 0f3e
000000b0: 0f76 3f3e a3f2 cdba 6bd0 4ebd 368b 03bc
000000c0: 1311 36bc 1411 62bb 9d32 ce3d 7148 b53d
000000d0: 8035 3f3e d316 173e bdb2 9b3d f9d9 a7bc
000000e0: 21d4 bc3d 6a86 16bb 41ff e03d c29e 25bc
000000f0: 096c 0abc 4244 873d 64f3 83bc 1593 913d
00000100: ed59 a83d 417d 0a3e 5694 4c3e 624c ee3d
00000110: e437 0e3c 16ea db3d 4ab6 e3bb 4572 d33d
00000120: d8dd 313d c6a7 93bd f7a5 dd3d 8e70 4e3d
00000130: 24a8 283e 633d c8bc 65d2 fd3d c787 1d3e
00000140: 9e5e 14bd d035 843d da38 e93d 6f3a 453d
00000150: db57 c13d bb3f 433d 19c6 24bd 9799 2e3e
00000160: 5594 d7bc 0b6c c5bc 2799 103e 384d 173e
00000170: 5fd6 8f3d 43c0 223d 0af7 f73d 035c c13c
00000180: 2b99 81bc 9e57 d73d c24e 303e e959 b13d
00000190: f433 0b3e eaad aa3d 8dac a13d dae9 303e
000001a0: 6d69 a33d 693f 03bd 03fc 003d b451 91bc
000001b0: 87a3 bfbd 4556 a7bc ad9c 8cbd 55e4 f7bc
000001c0: 67d7 373e aabc b33d bcee e5bb 2045 e43d
000001d0: 8f08 e13d 8c1c d43d d5f6 333e 7882 c83c
000001e0: 060e f73c c62a 0d3e 7fbf a73d 2089 1c3e
000001f0: 7490 d83d b622 e63c 5dd5 7d3b 697b 2a3c

fc3.weight f4 [3, 128]
-0.63485396 -0.1810633 -0.26395172 0.5858278 -0.052336615 -0.19633354 0.5152771 -0.24119331
-0.7982067 0.42905724 -0.16468914 0.4502933 -0.27002487 -0.21541929 -0.1265283 0.46828073
-0.20159957 -0.06265208 0.6351727 0.4947326 0.54812217 -0.3508119 -0.21069454 -0.34165433
-0.2535823 -0.048978377 -0.30785096 0.53362256 0.5557559 -0.13107832 -0.27084595 0.07322954
-0.5962125 -0.46001974 -0.3863543 -0.22735056 -0.1958401 -0.3513433 0.59915054 -0.21479936
0.49700442 -0.34100735 -0.17804512 -0.1386982 0.83186084 -0.09009588 0.49681962 -0.04292406
-0.18330756 -0.18662609 -0.11440009 -0.30773667 0.5308137 0.18450432 -0.13014458 0.042825993
0.49143848 -0.18299206 -0.17432919 0.94444066 0.8891186 -0.2547635 -0.4013065 -0.17887512
-0.17533314 -0.24314262 -0.28605548 0.6950483 -0.1916662 0.56032205 -0.21999934 -0.15126094
-0.11016727 -0.38360608 0.46862787 -0.11144613 -0.23565952 -0.16820417 -0.22658262 -0.1925361
0.46662575 0.0019369797 0.3929162 -0.26146245 -0.13022986 0.77086323 -0.37425014 -0.074122526
0.026230726 0.5190421 -0.2101009 0.51724565 -0.15236126 -0.27557433 -0.23581725 -0.08937148
0.36555898 -0.052381676 -0.277266 0.68758166 -0.31341484 -0.1416973 -0.27169067 -0.022861721
-0.12439925 0.540842 -0.17297845 0.68908215 0.6993924 0.52231425 0.64823556 0.7283768
0.602911 -0.17831294 -0.2165136 -0.34831172 -0.24105062 -0.010988167 -0.36180562 -0.13665207
0.4114388 -0.14482187 -0.20315018 0.00011776623 -0.36224318 0.60875565 0.4795545 -0.32181728
-0.41208908 -0.29153904 -0.20996965 0.46062875 -0.11672598 -0.2905737 0.5143395 -0.14009143
-0.6745545 0.30685315 -0.11997157 0.5444412 -0.22070584 -0.090339705 -0.21729219 0.38395756
-0.21744652 -0.2024957 0.53195757 0.5611908 0.46420208 -0.34670335 -0.18614154 -0.1597299
-0.22671272 -0.05277035 -0.4409322 0.62515444 0.3913852 -0.18500252 -0.12761174 0.03487957
-0.63432914 -0.4740738 -0.34117413 -0.2242398 -0.1624027 -0.48198026 0.60935134 -0.1839864
0.56819904 -0.22386754 -0.18907394 -0.30578306 0.922489 -0.11530977 0.7732224 -0.19244418
-0.13065273 -0.21989486 -0.11246775 -0.20283274 0.49964964 0.39619452 -0.1571033 0.060646284
0.32650888 -0.2259371 -0.122568615 0.7670084 0.998659 -0.29662558 -0.48827305 -0.27414173
-0.07619936 -0.2948888 -0.15610498 0.6695822 -0.24026631 0.5486715 -0.08561667 -0.083363056
-0.16783956 -0.5781648 0.43875393 -0.111135766 -0.39577794 -0.18860365 -0.18038239 -0.16149746
0.33337766 0.29126748 0.38929883 -0.11457465 -0.18078524 1.0100709 -0.46503386 -0.28910857
0.041102976 0.43579128 -0.16773932 0.3566349 -0.19138533 -0.23952505 -0.06544703 -0.17276141
0.4007202 0.26269928 -0.28262505 0.77663875 -0.2877485 -0.1348832 -0.15543218 -0.21716589
-0.18533605 0.4515162 -0.15907197 0.6642123 0.51492673 0.7437692 0.6935719 0.6413778
0.52604556 -0.1370315 -0.15176871 -0.4324727 -0.28139204 -0.17132694 -0.14507863 -0.20556924
0.5169074 -0.12954843 -0.0599215 -0.3561282 -0.4434369 0.60096973 0.36365548 -0.28005302
00000000: ca85 22bf a868 39be ae24 87be d0f8 153f
00000010: eb5e 56bd a90b 49be 33e9 033f 61fb 76be
00000020: 4657 4cbf 64ad db3e 45a4 28be d88c e63e
00000030: b340 8abe e096 5cbe a290 01be 7ec2 ef3e
00000040: 1e70 4ebe bc4f 80bd ae9a 223f 974d fd3e
00000050: bc51 0c3f 9e9d b3be 4fc0 57be 51ed aebe
00000060: 8ad5 81be 8d9d 48bd a49e 9dbe 7d9b 083f
00000070: 0546 0e3f 6539 06be 52ac 8abe 5ef9 953d
00000080: 62a1 18bf b587 ebbe 3bd0 c5be 96ce 68be
00000090: 4f8a 48be 45e3 b3be ee61 193f 5df4 5bbe
000000a0: 5d77 fe3e 8498 aebe 7651 36be e706 0ebe
000000b0: d5f4 543f 3084 b8bd 245f fe3e 24d1 2fbd
000000c0: fab4 3bbe e91a 3fbe 984a eabd a98f 9dbe
000000d0: 68e3 073f b3ee 3c3e 9f44 05be 4f6a 2f3d
000000e0: d39d fb3e 4562 3bbe 5a83 32be ddc6 713f
000000f0: 479d 633f 5d70 82be 0c78 cdbe 0a2b 37be
00000100: 888a 33be 61fa 78be dd75 92be afee 313f
00000110: 2544 44be 4471 0f3f 8247 61be 26e4 1abe
00000120: 619f e1bd 0468 c4be feef ef3e de3d e4bd
00000130: bb50 71be b73d 2cbe 4605 68be 2f28 45be
00000140: 92e9 ee3e 41e2 fd3a 502c c93e 68de 85be
00000150: fa5a 05be 4b57 453f b79d bfbe 8dcd 97bd
00000160: d2e1 d63c f1df 043f b124 57be 366a 043f
00000170: 9704 1cbe 1418 8dbe 147a 71be 6508 b7bd
00000180: 8c2a bb3e 2b8e 56bd cff5 8dbe 5a05 303f
00000190: e977 a0be 1919 11be 0a1b 8bbe 8148 bbbc
000001a0: 09c5 febd 9f74 0a3f 4321 31be b067 303f
000001b0: 610b 333f 63b6 053f c4f2 253f e776 3a3f
000001c0: 6058 1a3f ab97 36be beb5 5dbe ea55 b2be
000001d0: f9d5 76be b607 34bc 963e b9be 85ee 0bbe
000001e0: 1ba8 d23e 2f4c 14be 9a06 50be 43f9 f638
000001f0: f077 b9be 69d7 1b3f 2b88 f53e 3cc5 a4be
00000200: 57fd d2be 9b44 95be 4902 57be 88d7 eb3e
00000210: 080e efbd 13c6 94be c1ab 033f 2174 0fbe
00000220: 9baf 2cbf db1b 9d3e a8b3 f5bd 8060 0b3f
00000230: b600 62be 0604 b9bd d881 5ebe 1696 c43e
00000240: 4daa 5ebe 085b 4fbe 5f2e 083f 33aa 0f3f
00000250: e5ab ed3e 1a83 b1be e39b 3ebe 3c90 23be
00000260: 6127 68be b925 58bd dec1 e1be 1f0a 203f
00000270: a463 c83e 4d71 3dbe a7ac 02be e1dd 0e3d
00000280: 6563 22bf cdb9 f2be 60ae aebe 1e9f 65be
00000290: e54c 26be 1ec6 f6be 73fe 1b3f ee66 3cbe
000002a0: 7e75 113f 883d 65be 999c 41be 998f 9cbe
000002b0: 3d28 6c3f 8727 ecbd e7f1 453f 1610 45be
000002c0: d4c9 05be 1e2c 61be 7e55 e6bd 63b3 4fbe
000002d0: 14d2 ff3e 02da ca3e b0df 20be 3d68 783d
000002e0: 2c2c a73e 0e5c 67be 4105 fbbd aa5a 443f
000002f0: 1ea8 7f3f 4fdf 97be edfe f9be 4e5c 8cbe
00000300: 690e 9cbd aafb 96be fcd9 1fbe bd69 2b3f
00000310: 5f08 76be bc75 0c3f cb57 afbd 40ba aabd
00000320: 22de 2bbe 9c02 14bf 5ba4 e03e 269b e3bd
00000330: 68a3 cabe 5121 41be 29b6 38be 975f 25be
00000340: 7ab0 aa3e 0321 953e 2d52 c73e 1da6 eabd
00000350: c41f 39be 014a 813f eb18 eebe 0a06 94be
00000360: 985b 283d 0920 df3e dbc3 2bbe da98 b63e
00000370: 84fa 43be 0e46 75be 1809 86bd 5ee8 30be
00000380: 332b cd3e 8580 863e 3bb4 90be ccd1 463f
00000390: c553 93be d21e 0abe 9d29 1fbe bc60 5ebe
000003a0: bcc8 3dbe 222d e73e c3e3 22be d109 2a3f
000003b0: 3dd2 033f a967 3e3f ee8d 313f 5631 243f
000003c0: ecaa 063f fc51 0cbe 4269 1bbe 106d ddbe
000003d0: 9e12 90be 5470 2fbe 7e8f 14be be80 52be
000003e0: 0b54 043f 58a8 04be 3f70 75bd 6f56 b6be
000003f0: 290a e3be 27d9 193f 0d31 ba3e 1c63 8fbe

fc3.bias f4 [3]
-0.026147477 -0.013722716 -0.054986328
00000000: 3c33 d6bc 3ed5 60bc 5839 61bd

exp_avg f4 [128, 6]
-0.14426155 0.027647022 0.034026936 -0.011014396 -0.11898013 -0.4708449 -0.018896597 0.024644062
0.001056063 -0.0032395609 0.4686242 -0.6652283 -0.03468295 0.01885084 0.02941206 -0.08587869
0.6612827 -1.1340104 -0.14406793 0.02553243 -0.062400244 -0.17529151 -0.16925873 0.40986294
0.031145776 -0.013066066 -0.056227393 -0.054024946 -0.25604475 0.6657088 -0.046963207 0.05539393
-0.03309323 0.14163543 0.0029417202 -0.06725184 -0.015722854 0.048683222 -0.028293785 -0.03755625
-0.6564579 0.7078849 -0.03731566 0.09894415 0.12389222 -0.09175428 0.8281915 -1.2615222
-0.10189008 0.027889837 -0.006382231 -0.088591196 0.60244274 -0.7561554 0.036332827 0.024460843
0.11748805 0.07858897 -0.29582116 0.31366146 0.04415084 -0.07154906 -0.00024872852 0.022536153
0.29670787 -0.22672395 -0.0027857202 -0.0008320873 0.01820093 0.08524837 -0.01820524 0.03357743
-0.10035999 -0.07254434 -0.06139028 -0.08189912 0.95697695 -1.5448028 0.0710841 -0.05607064
-0.06962557 -0.013195947 0.3212808 -0.7712261 -0.027604211 -0.011549657 -0.025882099 -0.12523808
0.2686789 -0.43657988 -0.08032863 0.075411044 -0.015214178 0.04871425 0.31123745 -0.7192369
0.007475151 0.037609484 0.08010398 -0.079756975 -0.29379407 1.5680257 0.024395617 -0.108695805
-0.05727389 0.042033087 -0.51268363 0.64550555 0.008646466 -0.016973684 0.0022038103 0.08100575
0.34353912 -0.43493378 0.018911373 -0.0015366654 -0.022570945 0.0036920349 0.23292062 -0.373105
0.011570149 0.0051774625 -0.0028774315 -0.022634195 -0.17247328 0.16759421 0.03831221 -0.028001057
-0.0306689 -0.045125272 0.13592476 -0.25122604 -0.044323392 -0.19101045 -0.07462749 0.0136573855
1.2896135 -0.760558 -0.077584684 0.005852671 -0.038337395 -0.21213633 0.2782544 -0.2265243
0.098111674 -0.03984963 -0.004150071 0.11066841 0.020642847 0.27387878 -0.024950543 -0.053495966
-0.09338691 -0.076801956 1.0008847 -1.8074313 0.062263474 -0.18196401 0.06457861 -0.0785482
-1.2403541 1.0885818 -0.001268865 0.0060141617 -0.019824916 -0.0339063 0.0031442943 0.02947477
0.015985183 0.05173143 0.006595815 0.057997268 0.02238522 0.23094693 0.15078044 0.100885406
-0.0087474715 -0.21302985 -1.3594615 2.4206614 0.006747238 -0.014332987 -0.00345346 0.01632699
-0.2279571 0.5738453 -0.015498373 -0.06151619 0.028499069 0.0023037675 0.008335361 -0.21833213
0.037524667 -0.028668767 -0.03086123 0.09070013 -0.09533482 0.021309542 -0.014126385 -0.015106041
-0.05220944 -0.035588153 -0.23876975 0.36459485 -0.010372086 0.002831946 -0.008346661 0.0036760534
-0.009112284 0.049822368 -0.0015962217 0.016409356 0.019554654 0.035308894 0.060353365 -0.13412356
-0.024317516 0.011218618 0.0048344126 0.045141093 0.10107633 -0.09182008 0.044863593 -0.016797552
-0.024697645 -0.019063706 0.013219491 0.09093717 0.002984353 0.053642053 0.047213074 -0.026463043
-0.3208498 0.29604626 0.054874104 0.059588436 0.030924829 -0.050862603 -0.21052642 0.6385822
0.00236961 -0.016333481 -0.027319362 -0.01602128 0.05544996 -0.11271274 0.005770988 0.043301668
-0.032326378 -0.04331373 0.17854251 -0.12810127 -0.012761553 0.03595214 0.01545475 -0.022968665
00000000: 4db9 13be 027c e23c d45f 0b3d ba75 34bc
00000010: dbab f3bd 9512 f1be 09cd 9abc 58e2 c93c
00000020: 986b 8a3a d04e 54bb 83ef ef3e 674c 2abf
00000030: b50f 0ebd 146d 9a3c 8ff1 f03c 2be1 afbd
00000040: d349 293f 4127 91bf 8b86 13be 6329 d13c
00000050: 6697 7fbd 9e7f 33be 2952 2dbe 8ed9 d13e
00000060: 6d25 ff3c 0e13 56bc b24e 66bd 4349 5dbd
00000070: 4c18 83be e46b 2a3f 7e5c 40bd bfe4 623d
00000080: c48c 07bd e108 113e e0c9 403b 55bb 89bd
00000090: 37cd 80bc 0f68 473d 5ec8 e7bc 95d4 19bd
000000a0: a00d 28bf f237 353f 4ed8 18bd 3ba3 ca3d
000000b0: 34bb fd3d abe9 bbbd 5c04 543f 8f79 a1bf
000000c0: bfab d0bd 3a79 e43c 0922 d1bb 4d6f b5bd
000000d0: b039 1a3f 6693 41bf bbd1 143d 1b62 c83c
000000e0: 939d f03d 41f3 a03d df75 97be 3c98 a03e
000000f0: 83d7 343d 5088 92bd c767 82b9 bd9d b83c
00000100: 18ea 973e 532a 68be a190 36bb 6f20 5aba
00000110: 1e1a 953c b396 ae3d 2823 95bc 7d88 093d
00000120: 8a89 cdbd 2092 94bd 6074 7bbd baba a7bd
00000130: 71fc 743f 19bc c5bf 8a94 913d 54aa 65bd
00000140: da97 8ebd d033 58bc eb7e a43e 136f 45bf
00000150: 3a22 e2bc c63a 3dbc b206 d4bc 693e 00be
00000160: 4890 893e 6687 dfbe 5683 a4bd 1b71 9a3d
00000170: e344 79bc 9888 473d 845a 9f3e e91f 38bf
00000180: 1df2 f43b 670c 1a3d 8e0d a43d a057 a3bd
00000190: 2d6c 96be 11b5 c83f 51d9 c73c e89b debd
000001a0: 0798 6abd e32a 2c3d 3c3f 03bf da3f 253f
000001b0: e8a9 0d3c 650c 8bbc cd6d 103b 58e6 a53d
000001c0: 5ce4 af3e a4af debe 06ec 9a3c ef69 c9ba
000001d0: b4e6 b8bc 11f6 713b be82 6e3e 9e07 bfbe
000001e0: b990 3d3c b4a7 a93b 4a93 3cbb 596b b9bc
000001f0: d69c 30be d19d 2b3e 44ed 1c3d 7962 e5bc
00000200: 583d fbbc 47d5 38bd dc2f 0b3e b3a0 80be
00000210: 728c 35bd 3e98 43be 4cd6 98bd 3ac3 5f3c
00000220: 0e12 a53f eeb3 42bf b8e4 9ebd c3c7 bf3b
00000230: ac07 1dbd 443a 59be 5c77 8e3e fcf5 67be
00000240: c6ee c83d 5e39 23bd 52fd 87bb 1fa6 e23d
00000250: 301b a93c d739 8c3e 1565 ccbc 961e 5bbd
00000260: a341 bfbd 584a 9dbd fd1c 803f e959 e7bf
00000270: fc07 7f3d c654 3abe ca41 843d e1dd a0bd
00000280: ecc3 9ebf a656 8b3f 0b50 a6ba 7212 c53b
00000290: dd67 a2bc 55e1 0abd 8110 4e3b 1375 f13c
000002a0: 5cf3 823c 56e4 533d b521 d83b 8b8e 6d3d
000002b0: 3561 b73c 5a7d 6c3e 3066 1a3e 029d ce3d
000002c0: 8e51 0fbc 7f24 5abe d602 aebf 1eec 1a40
000002d0: ef17 dd3b e8d4 6abc 7253 62bb 2ec0 853c
000002e0: 966d 69be 87e7 123f e3ec 7dbc 67f8 7bbd
000002f0: e176 e93c cefa 163b 0a91 083c 7592 5fbe
00000300: 77b3 193d c3da eabc b1d0 fcbc fdc0 b93d
00000310: e73e c3bd 5991 ae3c 5a72 67bc 547f 77bc
00000320: 91d9 55bd e2c4 11bd 0f80 74be 2dac ba3e
00000330: afef 29bc 2b98 393b 6fc0 08bc f1e9 703b
00000340: b04b 15bc 8a12 4c3d 5038 d1ba ea6c 863c
00000350: 1531 a03c 0fa0 103d 1735 773d b057 09be
00000360: 8735 c7bc 4bce 373c fe69 9e3b dee5 383d
00000370: 1b01 cf3d 2b0c bcbd e3c2 373d 059b 89bc
00000380: b752 cabc 7d2b 9cbc 9096 583c 443d ba3d
00000390: 2395 433b c5b7 5b3d 7f62 413d 06c9 d8bc
000003a0: 6d46 a4be 6093 973e abc3 603d 0113 743d
000003b0: 1156 fd3c 4e55 50bd 3d94 57be 207a 233f
000003c0: 754b 1b3b cbcd 85bc dbcc dfbc 0f3f 83bc
000003d0: 7f1f 633d f0d5 e6bd 8e1a bd3b 175d 313d
000003e0: aa68 04bd bd69 31bd d9d3 363e fb2c 03be
000003f0: d515 51bc 8d42 133d eb35 7d3c c828 bcbc

exp_avg_sq f4 [128, 6]
0.75377685 0.79252017 0.6366845 0.8336032 19.580534 40.79304 0.1667312 0.24541882
0.21817896 0.17057472 4.858368 10.663803 0.15454686 0.1834967 0.1557474 0.1830324
4.7157516 9.303023 0.38961807 0.4173084 0.387052 0.39486256 8.355017 31.975895
0.060802933 0.058259543 0.053642105 0.05914164 2.704757 5.0973845 0.24073368 0.32304138
0.25130975 0.3092309 5.311734 19.234066 0.2651468 0.21958242 0.23054248 0.24547485
7.2405286 27.142012 0.26823586 0.27261466 0.27202195 0.26724434 5.6464615 8.386643
0.41290557 0.39278772 0.35858086 0.41537884 11.347453 28.702864 0.1051178 0.112373225
0.08432786 0.14053737 1.9695952 13.4826 0.20011966 0.18373434 0.1493579 0.2003683
3.8296554 20.07592 0.0915311 0.09080835 0.08121733 0.086326525 2.175086 3.9669244
0.3227385 0.31792003 0.26870862 0.3460443 7.8413615 27.854935 0.22799152 0.23887083
0.1888088 0.24413677 5.1663537 11.412267 0.37851202 0.30791607 0.2761176 0.34410402
6.2256436 24.46511 0.08070539 0.07653165 0.07453295 0.07950422 1.6081334 3.0271719
0.46775675 0.72607696 0.5462405 0.6478345 11.831237 27.600618 0.28853613 0.28605852
0.277096 0.30322856 6.800521 19.861198 0.37417474 0.43616846 0.35858914 0.43754387
11.343049 31.772106 0.07311727 0.058332484 0.05499681 0.06809513 1.127407 7.9169984
0.015546401 0.0136485305 0.012195876 0.015376613 0.4350903 1.2094394 0.10488952 0.12137352
0.10236975 0.11405339 1.6510954 6.922713 0.9880663 0.9428604 0.8383708 0.9841724
17.950863 95.41741 0.07415104 0.12330356 0.105737336 0.0920153 1.5379941 2.5911016
0.13150172 0.11316385 0.12301731 0.11855168 2.742942 6.879548 0.52594787 0.4973844
0.42106336 0.5394457 14.445327 30.81228 0.70631325 0.7549622 0.58005804 0.8295197
21.737461 43.65479 0.010357077 0.01131346 0.011715427 0.009773962 0.21041568 1.3121201
0.071453564 0.08016822 0.07158571 0.066971906 1.6217753 2.2448623 1.0177739 0.7452884
0.8519231 0.8217068 37.26401 114.70466 0.0245418 0.018837564 0.01918832 0.020397644
0.83315104 1.8562386 0.06858025 0.12988177 0.10470587 0.084689625 2.2653558 4.4423747
0.080416396 0.08580315 0.07244127 0.09587117 1.3516332 6.8970833 0.085292034 0.06878427
0.06966613 0.072797514 1.0960417 4.9221344 0.003169651 0.004073835 0.002648716 0.004640191
0.08233822 0.1878466 0.0181787 0.019729044 0.015707698 0.021085327 0.36060694 1.6030197
0.019079875 0.028297208 0.018921833 0.025185626 0.32628807 1.5263087 0.014382383 0.018217655
0.015068829 0.016597604 0.37809107 0.9880223 0.07367501 0.078207135 0.057106856 0.09000859
1.4194255 8.000972 0.13346887 0.10856638 0.107551366 0.12148481 3.4424255 10.546111
0.0074763596 0.007006645 0.006585645 0.0073306835 0.06513334 1.1874013 0.07806094 0.05897938
0.05894568 0.070973 0.85149014 5.8743725 0.19570975 0.2272318 0.18981904 0.22356951
00000000: 85f7 403f 9ae2 4a3f c1fd 223f 0567 553f
00000010: efa4 9c41 132c 2342 95bb 2a3e 124f 7b3e
00000020: 4e6a 5f3e 24ab 2e3e c077 9b40 f09e 2a41
00000030: 8841 1e3e 8fe6 3b3e 3f7c 1f3e d86c 3b3e
00000040: 70e7 9640 2fd9 1441 057c c73e 72a9 d53e
00000050: ae2b c63e 6d2b ca3e 26ae 0541 a2ce ff41
00000060: 7f0c 793d 8fa1 6e3d d3b7 5b3d 813e 723d
00000070: bd1a 2d40 c61d a340 e482 763e ae65 a53e
00000080: acab 803e 8353 9e3e baf9 a940 5edf 9941
00000090: 52c1 873e 37da 603e 5413 6c3e c25d 7b3e
000000a0: 69b2 e740 d722 d941 3656 893e 2694 8b3e
000000b0: 7646 8b3e 40d4 883e d0af b440 b12f 0641
000000c0: 5c68 d33e 791b c93e e997 b73e 89ac d43e
000000d0: 2b8f 3541 779f e541 0048 d73d ef23 e63d
000000e0: 16b4 ac3d 07e9 0f3e b21b fc3f bbb8 5741
000000f0: 2bec 4c3e db24 3c3e 47f1 183e 592d 4d3e
00000100: 1319 7540 7c9b a041 a874 bb3d baf9 b93d
00000110: 4655 a63d f6cb b03d 9c34 0b40 17e2 7d40
00000120: fb3d a53e 6ac6 a23e 2d94 893e b82c b13e
00000130: 6fec fa40 e8d6 de41 9c76 693e 8e9a 743e
00000140: 1857 413e fdfe 793e c552 a540 a598 3641
00000150: 54cc c13e 2da7 9d3e 495f 8d3e 672e b03e
00000160: 7938 c740 8cb8 c341 de48 a53d a0bc 9c3d
00000170: bba4 983d 1cd3 a23d 51d7 cd3f 2fbd 4140
00000180: d07d ef3e 2ee0 393f 6bd6 0b3f 7bd8 253f
00000190: bf4c 3d41 11ce dc41 02bb 933e 4376 923e
000001a0: 87df 8d3e c640 9b3e de9d d940 bce3 9e41
000001b0: d593 bf3e 7951 df3e ff98 b73e c005 e03e
000001c0: 217d 3541 462d fe41 82be 953d 0bee 6e3d
000001d0: 5644 613d 7675 8b3d df4e 903f 0d58 fd40
000001e0: 55b6 7e3c 169e 5f3c 36d1 473c 30ee 7b3c
000001f0: 28c4 de3e e9ce 9a3f 51d0 d63d ae92 f83d
00000200: 3ba7 d13d d394 e93d 1857 d33f dd86 dd40
00000210: eaf1 7c3f 4d5f 713f 789f 563f b9f2 7b3f
00000220: 5e9b 8f41 b7d5 be42 80dc 973d 9486 fc3d
00000230: d18c d83d 8572 bc3d fedc c43f 9cd4 2540
00000240: 63a8 063e 73c2 e73d 80f0 fb3d 39cb f23d
00000250: 5d8c 2f40 4225 dc40 85a4 063f 2ba9 fe3e
00000260: 9e95 d73e 1d19 0a3f 0f20 6741 8d7f f641
00000270: f2d0 343f 3445 413f af7e 143f 675b 543f
00000280: 52e6 ad41 819e 2e42 bbb0 293c 175c 393c
00000290: 10f2 3f3c f822 203c 3577 573e 8df3 a73f
000002a0: 3f56 923d 3c2f a43d 879b 923d 9128 893d
000002b0: 5596 cf3f d3ab 0f40 6a46 823f 38cb 3e3f
000002c0: a217 5a3f 605b 523f 590e 1542 c968 e542
000002d0: e30b c93c 3c51 9a3c d330 9d3c f618 a73c
000002e0: 6349 553f 3a99 ed3f cd73 8c3d baff 043e
000002f0: 0870 d63d c171 ad3d 97fb 1040 ef27 8e40
00000300: 5ab1 a43d 90b9 af3d 175c 943d 1b58 c43d
00000310: 5102 ad3f e8b4 dc40 97ad ae3d c4de 8c3d
00000320: 1ead 8e3d dd16 953d 184b 8c3f 2082 9d40
00000330: ebb9 4f3b ce7d 853b 1596 2d3b be0c 983b
00000340: f1a0 a83d dc5a 403e 7feb 943c ce9e a13c
00000350: 6ead 803c 23bb ac3c 79a1 b83e c02f cd3f
00000360: 664d 9c3c 8ccf e73c f601 9b3c 1652 ce3c
00000370: 3b0f a73e 155e c33f 16a4 6b3c 313d 953c
00000380: 40e3 763c b3f7 873c 2795 c13e 08ef 7c3f
00000390: ece2 963d 102b a03d e1e8 693d 6c56 b83d
000003a0: bcaf b53f fb03 0041 10ac 083e 0d58 de3d
000003b0: e443 dc3d 07cd f83d b350 5c40 dfbc 2841
000003c0: 40fc f43b 0098 e53b 65cc d73b 3b36 f03b
000003d0: a164 853d c4fc 973f 6ade 9f3d 5d94 713d
000003e0: 0671 713d 4b5a 913d 42fb 593f dcfa bb40
000003f0: 2368 483e 74af 683e ec5f 423e 68ef 643e

exp_avg f4 [128]
-0.036561474 0.011672853 -0.019026339 -0.08832015 0.05147887 0.0793707 0.0035239323 -0.15308745
-0.17778109 -0.049403004 0.02723478 -0.012526844 -0.076841354 0.062541306 -0.03190717 -0.009075919
-0.12599972 0.103741206 -0.11331174 -0.043956038 0.0117984135 -0.029904826 0.041230608 0.0377194
0.10690234 -0.050300114 0.13931312 -0.006264319 0.07569554 0.07534311 -0.005296634 -0.07228861
0.11015023 -0.07214816 -0.007728935 0.019975808 0.033620875 0.066244595 0.013759482 -0.010962527
-0.009248793 -0.020743946 -0.0138222845 -0.10271686 0.14295481 0.04271504 0.12053951 0.046903636
-0.07394912 -0.12740842 0.04757003 0.03406283 -0.055721726 -0.12481563 -0.032290746 -0.021742254
-0.23380372 -0.065385304 -0.009535998 0.049039043 -0.011335151 -0.00020156383 0.07222018 0.0091263475
0.035863776 -0.2993047 0.009406047 0.09327188 -0.016095566 -0.14811675 0.048138916 -0.06256219
-0.06890008 -0.10125514 0.018757269 0.0009623742 -0.13149539 -0.008058311 -0.03498979 -0.09828368
0.013742543 0.06691758 0.027965587 0.013527455 0.040394872 0.043458473 0.033582855 0.044777814
0.007131183 0.03419467 0.007569836 -0.007997307 0.05328957 -0.0072065042 0.042484093 -0.14007802
0.036626875 0.015840031 0.045904666 -0.18339257 -0.13919443 -0.02097429 0.01778835 -0.059136365
-0.059136726 -0.046753265 -0.027713219 0.0011733244 -0.033206545 0.12618822 -0.020840494 0.18582177
0.044642095 -0.040259518 -0.027120033 0.08583086 0.0101408865 -0.10179498 0.013957682 -0.02483652
-0.0061142435 -0.21094725 0.027679352 -0.10179027 -0.11811881 0.03477214 -0.003639186 0.021934116
00000000: 7cc1 15bd 7e3f 3f3c 20dd 9bbc 32e1 b4bd
00000010: 82db 523d 1b8d a23d c6f1 663b f5c2 1cbe
00000020: 3f0c 36be ce5a 4abd 791b df3c 643d 4dbc
00000030: 005f 9dbd a815 803d 18b1 02bd 2ab3 14bc
00000040: 1206 01be 4576 d43d fc0f e8bd 3f0b 34bd
00000050: 224e 413c f7fa f4bc 6de1 283d a87f 1a3d
00000060: 9def da3d 7e07 4ebd 19a8 0e3e eb44 cdbb
00000070: 4306 9b3d 7d4d 9a3d 638f adbb 0d0c 94bd
00000080: 7296 e13d 6ac2 93bd 0243 fdbb 4ea4 a33c
00000090: 0bb6 093d 3fab 873d 736f 613c 2c9c 33bc
000000a0: 4088 17bc 35ef a9bc dd76 62bc 385d d2bd
000000b0: bf62 123e f7f5 2e3d 6bdd f63d 071e 403d
000000c0: a372 97bd 5a77 02be cbd8 423d 7785 0b3d
000000d0: 773c 64bd 569f ffbd 4d43 04bd d01c b2bc
000000e0: 3e6a 6fbe bbe8 85bd e03c 1cbc 2add 483d
000000f0: 12b7 39bc e15a 53b9 2ce8 933d ad86 153c
00000100: e5e5 123d 773e 99be d21b 1a3c 5405 bf3d
00000110: d9da 83bc ebab 17be 502d 453d 9b20 80bd
00000120: 7c1b 8dbd db5e cfbd d8a8 993c d747 7c3a
00000130: baa6 06be 0207 04bc 7451 0fbd f448 c9bd
00000140: 6728 613c 160c 893d 1618 e53c 42a2 5d3c
00000150: 1875 253d 8301 323d 2d8e 093d f168 373d
00000160: b3ac e93b b60f 0c3d 630c f83b 2307 03bc
00000170: 2a46 5a3d 8a24 ecbb cd03 2e3d 9d70 0fbe
00000180: 1006 163d f4c2 813c 8806 3c3d 43cb 3bbe
00000190: fc88 0ebe 46d2 abbc e0b8 913c f938 72bd
000001a0: 5a39 72bd 5a80 3fbd d506 e3bc 3cca 993a
000001b0: 9603 08bd 7c37 013e afb9 aabc 1048 3e3e
000001c0: a1da 363d 2ae7 24bd d52a debc 17c8 af3d
000001d0: f625 263c e379 d0bd c3ae 643c f575 cbbc
000001e0: fe59 c8bb 8e02 58be cfbf e23c 6b77 d0bd
000001f0: 46e8 f1bd 3b6d 0e3d 697f 6ebb 2daf b33c

exp_avg_sq f4 [128]
1.6009816 0.41908905 0.35555673 0.8692742 0.1227176 0.6127287 0.52777845 0.5411838
0.88297343 0.23802097 0.41606307 0.19330218 0.67959344 0.4701114 0.7798139 0.16376457
1.1779256 0.6344333 0.86406916 0.1466684 0.032751758 0.2516838 2.1158931 0.21567903
0.2625073 1.0833887 1.5009034 0.02142441 0.17064291 1.8123288 0.044504106 0.19488046
0.18692818 0.17082329 0.0072801188 0.038022894 0.051611725 0.032754157 0.16680402 0.25018665
0.014915201 0.15959547 0.39776018 0.8447778 0.34878102 0.10577133 0.8310434 1.0383505
0.731353 0.5094529 0.3548604 0.04596975 0.22050661 0.5955635 0.018338202 0.36920568
1.0014287 0.33945107 0.11527258 1.7334317 0.020540884 0.01212303 0.04142522 0.033112776
0.12806584 3.1870182 0.014159155 0.5134378 0.19756332 0.7541271 0.1517018 0.5335
1.1528488 0.40837976 0.12279513 0.06362585 1.3904244 0.027835289 0.50174177 0.5359335
0.06601614 1.1963943 0.07863689 0.09698529 0.07827308 0.082489565 0.17679629 0.6987977
0.23191698 0.038521953 0.042529985 0.032134272 0.87521845 0.1445653 0.015155421 0.80402637
0.02747534 0.019094963 0.26266474 1.1799161 0.9858753 0.039741907 0.5379817 0.80121297
0.09859085 0.06386913 0.6683138 0.09613665 0.85007 0.9331525 0.048738856 1.3067268
0.4538522 0.18092291 0.054965165 0.11340031 1.199034 0.1962715 0.13784349 1.4291673
0.43107897 0.48683065 0.042108014 0.6160301 1.3118068 0.19064623 0.037092514 0.31718627
00000000: f7ec cc3f d792 d63e 880b b63e c188 5e3f
00000010: 5d53 fb3d cadb 1c3f 7d1c 073f 068b 0a3f
00000020: 8c0a 623f c5bb 733e 3806 d53e 02f1 453e
00000030: d6f9 2d3f 71b2 f03e e2a1 473f e6b1 273e
00000040: 44c6 963f 396a 223f a333 5d3f 3e30 163e
00000050: b526 063d b3dc 803e cb6a 0740 f7da 5c3e
00000060: 5b67 863e 7bac 8a3f 9a1d c03f 3f82 af3c
00000070: 04bd 2e3e 64fa e73f f049 363d be8e 473e
00000080: 1a6a 3f3e 4dec 2e3e 108e ee3b e5bd 1b3d
00000090: d166 533d 3929 063d acce 2a3e 7718 803e
000000a0: e35e 743c ff6c 233e 39a7 cb3e 5c43 583f
000000b0: 6d93 b23e a49e d83d 43bf 543f abe8 843f
000000c0: f339 3b3f 816b 023f 43b0 b53e c74a 3c3d
000000d0: 7ccc 613e d976 183f ff39 963c 8708 bd3e
000000e0: d12e 803f 88cc ad3e 0814 ec3d 17e1 dd3f
000000f0: 5b45 a83c ac9f 463c 7ead 293d 43a1 073d
00000100: b123 033e 1bf8 4b40 cdfb 673c a970 033f
00000110: 0a4e 4a3e 790e 413f b757 1b3e 7593 083f
00000120: 8d90 933f 2717 d13e 037c fb3d 454e 823d
00000130: 6df9 b13f d506 e43c 2672 003f f032 093f
00000140: 7833 873d 7323 993f 610c a13d 39a0 c63d
00000150: a34d a03d 4af0 a83d 160a 353e 68e4 323f
00000160: a57b 6d3e 32c9 1d3d ec33 2e3d 3a9f 033d
00000170: 510e 603f ed08 143e 714e 783c acd4 4d3f
00000180: f713 e13c 0a6d 9c3c fe7b 863e 7e07 973f
00000190: 5362 7c3f 69c8 223d 2bb9 093f 4b1c 4d3f
000001a0: 00ea c93d d2cd 823d 9d16 2b3f 4be3 c43d
000001b0: 309e 593f 15e3 6e3f 65a2 473d d342 a73f
000001c0: 515f e83e db43 393e 2723 613d 6c3e e83d
000001d0: f279 993f 65fb 483e d826 0d3e f4ee b63f
000001e0: 62b6 dc3e de41 f93e 7479 2c3d 26b4 1d3f
000001f0: 49e9 a73f c438 433e 52ee 173d 3d66 a23e

exp_avg f4 [128, 128]
0.010861338 0.006790411 0.017069755 0.004479134 0.016307844 0.0038753953 0.006703031 0.030638997
0.01251878 0.00087126915 -0.014394376 0.009872903 0.015713124 0.018883953 0.027746772 0.014152787
0.012823195 0.01733981 0.0025769596 -0.0037567352 -0.0040459023 0.00902648 -0.003670146 0.016666383
0.013301628 0.011718289 0.0078234365 -0.009019566 0.013178875 -0.0009988224 -0.011055425 -0.0006073725
0.015577759 0.017777612 0.0280215 -0.006376288 0.019971013 0.010895879 -0.0106683085 0.002342495
-0.0009070411 0.009151891 0.020722514 0.009922027 0.008372611 0.022185529 -0.004918798 0.021435274
0.015193976 0.02860882 0.007096011 0.025614467 -0.0011412841 0.018615153 -0.028404322 0.005906693
0.014063403 0.011970542 0.018989205 0.025677137 0.02559172 0.031568583 0.020424291 0.026501954
-0.0036143172 0.0022723866 -0.03186223 0.035406712 -0.005346103 0.024237595 0.043223795 0.015939973
0.018225282 0.0061702444 0.014779635 0.039520595 0.017969385 0.031141339 0.010830394 0.026001299
0.027225919 0.011465933 0.0041303085 -0.01578602 0.01417508 0.03315116 -0.008008152 0.010698094
-0.010254209 0.02957868 -0.0067717163 0.041642323 0.009674609 0.015713582 -0.0061123287 0.009999753
0.0057511954 0.014733915 0.009854273 0.010386507 0.022735959 -0.020247016 0.0066572498 0.024088163
0.026843036 0.02348267 0.005276717 0.0026814754 0.00019323434 0.020798083 0.015281137 0.0193449
0.01279292 0.0019122991 0.00078440213 0.037035644 0.0054412517 0.019697577 0.0038120865 0.003896023
-0.0018704912 0.008206834 -0.0056035616 0.010887562 0.0066890107 0.028770799 0.0009815276 0.0021688542
-0.0035579507 0.019644722 0.0026560773 -0.0056001665 0.020626703 0.01317851 0.019933224 -0.00030667163
0.009869238 -0.0048030387 0.011645694 -0.03396264 0.010675461 0.015063537 0.003216064 0.030504884
0.014529274 0.021117775 0.009946197 0.02472119 0.030997181 0.027412523 0.008190023 -0.0348858
-0.0012194959 0.004268493 -0.007886304 0.02902594 -0.008483879 0.00028684773 0.01654687 0.023250645
0.026930796 0.0059995 -0.010661741 0.031023659 0.002278943 0.005564731 0.013730529 0.004192242
0.019773783 0.015434282 0.006068769 -0.012041007 -0.03645393 -0.019737102 -0.0025248118 0.008147259
-0.0012905101 0.022722216 -0.0053539015 0.033131663 0.0065263496 0.011010981 0.029692017 0.006632174
0.0018966681 -0.015826017 0.0046181045 0.0016409581 -0.0065178075 0.017816028 -0.018016633 0.004926394
-0.021106757 0.013237645 0.017614285 -0.0025840863 0.029315889 0.008412133 0.003171981 0.03516861
-0.0044932514 -0.0019348857 0.0037397912 0.012091681 0.0019170602 0.0017047612 0.0107448185 0.010591565
-0.005247135 0.0021598528 0.036272507 0.0024961908 -0.0136045795 -0.024872148 0.012807482 0.002550736
0.013256705 0.03736475 0.02022524 -0.0037258696 0.023052555 0.0013239319 0.040778067 0.0043845326
0.015053911 -0.031663503 0.007993216 0.004717831 0.008051306 0.025418077 -0.0146958865 0.0119243665
-0.0069172336 -0.023188096 0.010741885 0.004811361 0.0025189237 0.0042897933 0.015079779 0.02886578
-0.020031 0.018479977 -0.011804988 0.0005083674 -0.020873146 0.0065365527 0.0062511517 0.0069810525
-0.016261354 0.0013710805 0.031778634 0.011611089 0.0019649407 0.011850776 0.010420055 -0.01698268
00000000: c1f3 313c 1982 de3b dfd5 8b3c b3c5 923b
00000010: 0798 853c 58fa 7d3b 19a5 db3b a2fe fa3c
00000020: 921b 4d3c e265 643a 64d6 6bbc f5c1 213c
00000030: cfb8 803c 85b2 9a3c 334d e33c 17e1 673c
00000040: 6118 523c 380c 8e3c 35e2 283b 8f33 76bb
00000050: 7d93 84bb cde3 133c d586 70bb f087 883c
00000060: 12ef 593c 11fe 3f3c df2d 003c cdc6 13bc
00000070: 35ec 573c ebea 82ba d021 35bc 1438 1fba
00000080: db39 7f3c 5ba2 913c 588d e53c 2ef0 d0bb
00000090: 409a a33c a184 323c 21ca 2ebc 8b84 193b
000000a0: 7fc6 6dba d0f1 153c 43c2 a93c ff8f 223c
000000b0: 472d 093c 6dbe b53c de2d a1bb 0799 af3c
000000c0: 28f0 783c 0b5d ea3c a885 e83b 6ed5 d13c
000000d0: 2497 95ba ce7e 983c 2eb0 e8bc ef8c c13b
000000e0: 306a 663c 1820 443c 408f 9b3c dc58 d23c
000000f0: baa5 d13c 0f4e 013d d850 a73c a01a d93c
00000100: 2ede 6cbb 52ec 143b f881 02bd a106 113d
00000110: 5d2e afbb ec8d c63c 6f0b 313d 8c94 823c
00000120: 304d 953c c32f ca3b 4826 723c 59e0 213d
00000130: 8834 933c 1f1c ff3c f771 313c ad00 d53c
00000140: e408 df3c 9cdb 3b3c 8a57 873b af51 81bc
00000150: 983e 683c 83c9 073d a034 03bc 0f47 2f3c
00000160: 4501 28bc fd4e f23c 46e5 ddbb 2491 2a3d
00000170: 4082 1e3c c5b9 803c ee49 c8bb 01d6 233c
00000180: 8674 bc3b 8566 713c d173 213c 2b2c 2a3c
00000190: c340 ba3c 12dd a5bc 0f25 da3b 8a54 c53c
000001a0: ede5 db3c ba5e c03c 4fe8 ac3b b1bb 2f3b
000001b0: f39e 4a39 be60 aa3c bc5d 7a3c 3279 9e3c
000001c0: 6599 513c 1ca6 fa3a 56a0 4d3a b0b2 173d
000001d0: 874c b23b d05c a13c 33d4 793b 6b54 7f3b
000001e0: 452b f5ba f575 063c 159e b7bb bf61 323c
000001f0: 7d2f db3b bdb0 eb3c 9aa6 803a 5623 0e3b
00000200: 822c 69bb f8ed a03c 9511 2e3b 9a81 b7bb
00000210: 55f9 a83c adea 573c 004b a33c c5c8 a0b9
00000220: 96b2 213c cf62 9dbb 95cd 3e3c 691c 0bbd
00000230: 21e8 2e3c 0ecd 763c 9ac4 523b 61e5 f93c
00000240: 310c 6e3c 2fff ac3c 60f5 223c 1884 ca3c
00000250: cded fd3c 3a90 e03c 722f 063c 6ae4 0ebd
00000260: 7ed7 9fba b7de 8b3b 8e35 01bc cfc7 ed3c
00000270: f8ff 0abc 0d64 9639 4d8d 873c 2378 be3c
00000280: f99d dc3c 7497 c43b 95ae 2ebc 5425 fe3c
00000290: 525a 153b 5958 b63b 03f6 603c 135f 893b
000002a0: a1fc a13c 12e0 7c3c 86dc c63b a547 45bc
000002b0: b750 15bd b4af a1bc 5077 25bb 157c 053c
000002c0: 5526 a9ba f123 ba3c c86f afbb 11b5 073d
000002d0: fdda d53b 6767 343c ac3c f33c b552 d93b
000002e0: 9f99 f83a 90a5 81bc 7853 973b 6b15 d73a
000002f0: 5593 d5bb ebf2 913c 9e97 93bc 976d a13b
00000300: 14e8 acbc b5e2 583c d54b 903c c659 29bb
00000310: e027 f03c 0bd3 093c 03e1 4f3b f60c 103d
00000320: 203c 93bb fe9b fdba 4917 753b 301c 463c
00000330: de45 fb3a 4b72 df3a 090b 303c 3e88 2d3c
00000340: 29f0 abbb 518c 0d3b 7b92 143d 2297 233b
00000350: bee5 5ebc adc0 cbbc 79d6 513c 402a 273b
00000360: a732 593c c80b 193d 67af a53c b82d 74bb
00000370: b6d8 bc3c c887 ad3a e706 273d 20ac 8f3b
00000380: aea4 763c 97b1 01bd faf5 023c 0998 9a3b
00000390: a0e9 033c 9239 d03c 04c7 70bc 6b5e 433c
000003a0: f6a9 e2bb f6f4 bdbc bbfe 2f3c 9fa8 9d3b
000003b0: 8714 253b 6591 8c3b 2d11 773c ee77 ec3c
000003c0: 0d18 a4bc 5263 973c b569 41bc f543 053a
000003d0: 29fe aabc 9430 d63b 76d6 cc3b 50c1 e43b
000003e0: 8836 85bc d4b5 b33a 502a 023d 703c 3e3c
000003f0: 3cc6 003b c229 423c e1b8 2a3c 431f 8bbc
