Acrobot/dqn_acrobot_v1.pth (torch, 73806 bytes, 6 tensors)

fc1.weight f4 [128, 6]
00000000: ff07 023f 66a9 d03e 70e7 343e ce05 673d
00000010: 257c aebe de82 a5bd 8774 9f3d dab0 2b3e
00000020: 3099 70be 6476 bbbd 8a05 90be d8b8 df3d
00000030: 4b1a 92be db7d 61bf 817f 1fbd f086 053e
00000040: 911b 853e a208 01be 5c66 763e 2cd9 14be
00000050: 3abd 093f e073 d93e 99d9 663e 353f eb3d
00000060: e46d abbc 8a28 acbe d483 33bf d1b2 1e3f
00000070: 6824 3abe 8749 78bc 7575 293c cd22 a2bd
00000080: 872e e7bd 7f26 2a3f 7925 33bf eb62 95be
00000090: 46fa 303e 1acd a5be 1525 763e 486d 63bf
000000a0: a1cc 5d3e 09e6 1bbc 0dc2 303e b127 a8be
000000b0: 4f73 603d 3aa2 913e 4c65 fbbd 3de1 a93e
000000c0: 7c5d e23d 7dd0 3abe b7dd 42be ce8e 56be
000000d0: c67e eabd d5bf 1a3d 0dbe 153f 81de 3e3f
000000e0: 437a 073f f9b0 6abe 9622 a8be 9617 9bbd
000000f0: aeb9 573f 8698 4a3d 7b2c 9fbb cd23 883e
00000100: 5199 c6be de5c b5bd 30e2 c4be 97b7 503e
00000110: 1b77 1abe 0d44 d23e f98f 5e3e e8e5 c4bd
00000120: a210 b3be 1887 813e 6305 8abe 0ecd c73d
00000130: 93a0 513e e227 ac3e 0d0a 94be 1285 1dbf
00000140: 410c 1e3e 59d2 4e3e b481 d9bd 5624 acbd
00000150: 82e8 8b3e 1d64 833e 416d 393f 12c9 113e
00000160: cfb8 56be 5f2e 973e 7fe4 943e da11 79be
00000170: 96d2 d83e 3a1a 5c3e 706f b0bb eb1a 543c
00000180: f96e 8b3e e824 263e 1346 4b3f 9aca 18bf
00000190: 7d08 e93e 11af 833e 11f1 653e 9825 dd3e
000001a0: 4fcf 443b f560 37bf 8013 4bbe 141e 813e
000001b0: a18c 823e 9392 263d a8a9 e93e 52e4 4a3f
000001c0: 6898 023d 4980 5abe abc9 023e 51e4 0abf
000001d0: 317d 72bd e548 abbe ba01 153e 9d25 56be
000001e0: d56f 0f3f 0633 413e f6c1 8c3e 631a 043e
000001f0: e212 3fbe 238f b2bd 3b1e d0bd b5f2 b0be
00000200: aa1b 443f 237b 45be 5a94 bebe 1293 adbe
00000210: ea90 173f 2e1f 1cbf 20d2 023f b7e6 0a3f
00000220: c12f 33be d455 6ebe 6876 163f 6d81 1b3f
00000230: 01e6 15be 6078 aabe 7e73 4cbd a2c4 16be
00000240: b6a8 433e e3ab edbd 4522 67be 8756 be3e
00000250: 4b7f 04bd 4154 943d 483d 193f 3455 06bf
00000260: 5ea8 113d 7caf d53e b010 333e 51c4 4bbe
00000270: 25d5 7abe 9e79 68be cced 3fbe 660e 59be
00000280: c389 863e 78b6 85be a539 0abf 08c9 4abf
00000290: 3c92 13bc ef5a 84be 52dc f6be a1c8 14bc
000002a0: 0ec6 6fbf 02ec 6b3f 71b2 c23d c9f7 f33e
000002b0: 8843 c2be 4982 12be 1e5b 81bd e0a1 40be
000002c0: 4df5 c13e e96b 0fbe 7e7b 53be c10f f9be
000002d0: e5ac 3d3e fbbc 0c3c fb11 d73e 070f bfbe
000002e0: 70a8 15be 46a5 823e 8e78 213e b3ae 7c3c
000002f0: bf07 e7be 6789 543e 7292 99be 64a2 a0be
00000300: c7e3 10bf 9745 babe 2805 52bd 86d8 c1be
00000310: d1b8 f7be 57e8 623e 8e6f acbe 6951 b5be
00000320: ae77 bc3d 2cab 7d3e c978 bb3e 0fa0 80be
00000330: e097 a9be 046f ee3e 0750 49be 1426 c3bd
00000340: 6343 c33e 1a59 c53e 560a c03e be2f 593c
00000350: 98fe d2be 6a0b 9dbe 69f4 e1be c16c 563e
00000360: 1235 80be c266 4a3e 4a47 69be 6ffa 8a3e
00000370: bea9 cebe 510d ccbe c57e 543d 3716 86be
00000380: 8e3b e23d 2a63 0bbe 5a56 aebd 4943 cabd
00000390: adae b3be 5511 0e3f 2657 33bf 756d b03d
000003a0: a890 b4bd e572 64bd 3ce9 95be cf5a 9fbd
000003b0: 916a 283e a987 233f 6808 923d ebb7 81be
000003c0: 226f b53c 4377 513e 48e8 083f a76c 31bf
000003d0: 148c 483e 2800 ae3e 900a 04bd eddd 32be
000003e0: 9b37 27bf 9a0a 363f 9722 ee3e 6561 86bd
000003f0: 093a 223e a350 0abf 685c b0be 5940 f13d
0.5079345 0.4075424 0.17666411 0.05640202 -0.3407909 -0.080816016 0.07785898 0.16766682
-0.23495936 -0.091534406 -0.28129226 0.10923928 -0.28535685 -0.88082665 -0.038939957 0.13039756
0.25997594 -0.1260095 0.24062485 -0.1453597 0.5380436 0.42471218 0.22543944 0.11486665
-0.020926423 -0.3362468 -0.7012303 0.619916 -0.1817795 -0.015154249 0.010342945 -0.07916794
-0.11288171 0.6646499 -0.69979054 -0.2917703 0.17282972 -0.32383043 0.24037583 -0.88838625
0.21660091 -0.009515294 0.17261524 -0.32842782 0.054797467 0.28444082 -0.1227518 0.33179656
0.11052987 -0.18243594 -0.1902989 -0.20952913 -0.11449961 0.0377806 0.5849312 0.74558264
0.5292093 -0.22919072 -0.32838887 -0.07572858 0.842677 0.049461864 -0.0048575974 0.26589814
-0.38788846 -0.08855604 -0.38453817 0.20382534 -0.15084498 0.41067544 0.21734609 -0.09614164
-0.34973627 0.2529838 -0.26957235 0.09755908 0.2047141 0.33624178 -0.28913918 -0.61531174
0.15434362 0.20197429 -0.10620442 -0.08405368 0.27325827 0.25662318 0.72432333 0.14236858
-0.20968936 0.29527566 0.2908058 -0.24323216 0.42348164 0.2149438 -0.005384378 0.012945871
0.27233103 0.16225016 0.794038 -0.59684145 0.4551429 0.25719503 0.22455241 0.43192744
0.0030030792 -0.7163232 -0.19831657 0.2521826 0.25497916 0.040667128 0.4563725 0.7925464
0.031883627 -0.21338 0.12772243 -0.54254633 -0.059201423 -0.33454052 0.1455144 -0.20912786
0.5603002 0.1886712 0.2749173 0.1290069 -0.18659547 -0.087187074 -0.10162016 -0.3456017
0.7660471 -0.19285254 -0.37222558 -0.33901268 0.59205496 -0.60985076 0.51101875 0.5425829
-0.17498685 -0.23274928 0.58774424 0.60744363 -0.14638521 -0.33294964 -0.04991483 -0.14723447
0.19107327 -0.116050504 -0.22571667 0.3717539 -0.03234796 0.07242633 0.5985913 -0.5247376
0.035560958 0.41735446 0.17486835 -0.19899108 -0.2449537 -0.22702643 -0.18743056 -0.21196899
0.2627698 -0.26115775 -0.5399421 -0.79213 -0.009007033 -0.25850627 -0.48214966 -0.009081037
-0.9366158 0.92156994 0.09506691 0.47649983 -0.37942147 -0.14307512 -0.06316207 -0.1881175
0.37882462 -0.14006008 -0.20652577 -0.48644832 0.18522985 0.008589978 0.42005906 -0.37316152
-0.14615035 0.2551672 0.15768644 0.015422511 -0.45123097 0.2075554 -0.2999454 -0.31373894
-0.5659756 -0.36381218 -0.05127445 -0.37860507 -0.4838319 0.22158943 -0.3367886 -0.35413674
0.092025146 0.24772328 0.3661559 -0.25122115 -0.33123684 0.46569073 -0.19659434 -0.09528747
0.3813735 0.38544542 0.37507886 0.0132560115 -0.41209865 -0.3067277 -0.44131783 0.20939924
-0.2504049 0.19765761 -0.22781101 0.2714419 -0.40363878 -0.3985391 0.05187871 -0.26188824
0.110465154 -0.13612047 -0.08512564 -0.09876115 -0.35094205 0.55495197 -0.7005485 0.08614627
-0.088166535 -0.055773634 -0.29279506 -0.07780992 0.16446902 0.63878876 0.071305096 -0.2533563
0.022147719 0.20455651 0.53479433 -0.69306415 0.19584686 0.33984494 -0.032236636 -0.1746747
-0.6531922 0.71109927 0.46510765 -0.06561545 0.15842451 -0.5402929 -0.344455 0.117798515

fc1.bias f4 [128]
00000000: 65d5 53be 0ab7 043f 6fe1 07be 969b aa3e
00000010: 96ac d23d 78a3 84be 7a64 bbbc b3ff 8abe
00000020: 00e1 0a3f 3d09 0d3e 52b6 0f3f 47c8 10bf
00000030: 2aeb 9abe a7c5 963e 9e2c 6ebe 6485 d73e
00000040: ae01 023e e4a7 a2be 23ab eebe 3933 d13e
00000050: 0d85 fe3c fad3 17bd 25b3 933d 2e0c 063f
00000060: 1fd7 df3e f6e1 59be 6658 14bf fa64 513e
00000070: 91e3 973e fc4a abbe 8764 d33e 9ebb 09bf
00000080: 884d 00bf 0aeb a9bd 85d7 67bd 8e53 0cbf
00000090: beff 1ebf 8500 e23e 1a68 c63e 66dc fdbe
000000a0: 555e c83e 631d 4c3d 217d 93be 6619 c7bd
000000b0: ea4a f13e ff14 003f 8c9b 5bbc cd37 153f
000000c0: 71c4 3ebe 9112 a9be 50d7 cdbe 9bc6 ee3e
000000d0: 2e22 9fbd 38fb 01be 5a93 143e 5509 293e
000000e0: 6a6c 02be b258 b7be c4e6 643e 94e5 103f
000000f0: d2b3 f93e 4fb1 293f 439d d1be 04aa 45bf
00000100: 077b eb3e a58b 0e3f 71ea 813e fccc ce3e
00000110: 9a3b d5be ef10 0bbd 4dbf 283e fa23 1d3f
00000120: cda0 4dbd 054f e03e 0674 023f 4f8c 9f3e
00000130: ca80 033f a55d 873e e1da 6e3e be56 70be
00000140: e75d d7bc 3ddf fe3e 359d 8ebe 54db 5c3d
00000150: b629 17be d080 d23d 8c9e 703e 8051 bf3e
00000160: 884a c33e 0bc2 0bbf bd34 03bf 2329 a43e
00000170: 719b c83e 197b 4ebe f290 12bc bd5c 7fbd
00000180: 7841 233f fabe 18bf 6935 b2bd 52f9 4d3e
00000190: aa18 fe3e b39c a3be 4579 ca3d 6134 9dbd
000001a0: 5bde b7be 8172 373f 6a12 ba3d f65e 4bbe
000001b0: 6620 eb3e aadf 9d3d 96ea 03be bd5d 71bd
000001c0: 927a e83e 0bd0 793c fc66 efbd 4912 e7be
000001d0: 319a ae3e 2eba bbbd 889b ff3e 488a 8bbe
000001e0: 0416 f8be aacd 2b3e 763c 40be e1c9 b03e
000001f0: 5683 a0be 770c aabe 0bb3 2ebe 3a64 b3be
-0.20686872 0.51841795 -0.1326959 0.33321828 0.102868244 -0.25905967 -0.02287506 -0.27148208
0.5424957 0.13773055 0.56137574 -0.565556 -0.3025754 0.29447672 -0.23259208 0.42093956
0.12695953 -0.31768715 -0.46614942 0.40859392 0.031069303 -0.03706739 0.072119035 0.52362335
0.43718812 -0.21277604 -0.57947385 0.20448676 0.29665807 -0.33455646 0.41287634 -0.53801906
-0.50118303 -0.08296783 -0.05660202 -0.54814994 -0.6210898 0.4414102 0.38751298 -0.49582213
0.3913447 0.049832713 -0.28806403 -0.09721641 0.47127467 0.5003204 -0.0134037845 0.5828827
-0.18629624 -0.33021978 -0.40203333 0.466359 -0.07770191 -0.12693489 0.14509335 0.16507466
-0.12736669 -0.35809857 0.22353655 0.5660031 0.48770005 0.66286176 -0.40940294 -0.7721255
0.459923 0.5568183 0.25374177 0.40390766 -0.41647035 -0.033951696 0.16479225 0.6138302
-0.05020218 0.43810287 0.5095829 0.31161734 0.5136839 0.26438633 0.23325683 -0.2347059
-0.026289893 0.49779692 -0.27854314 0.053920105 -0.14762005 0.10278475 0.23497981 0.37366867
0.381428 -0.5459296 -0.5125235 0.32062635 0.39181092 -0.20164146 -0.0089456905 -0.0623443
0.6377177 -0.5966641 -0.087015934 0.2011464 0.49628192 -0.3195549 0.098864116 -0.07676006
-0.3591183 0.71659094 0.090855435 -0.19860443 0.45923156 0.07708676 -0.12882456 -0.058927286
0.45406014 0.015247355 -0.116895646 -0.45131138 0.34102014 -0.0916637 0.49923348 -0.27253938
-0.48454297 0.16777673 -0.18773064 0.3452902 -0.313502 -0.33212635 -0.17060487 -0.35037404

fc2.weight f4 [128, 128]
00000000: 84b8 933e 093c 753a 48ea cdbe 11f1 febc
00000010: 9cdf 3abd 5fd0 f33d 18ad d9bc 6c7a 553d
00000020: fd03 e53c ddff 9b3e 691c ee3d 0640 9c3d
00000030: 404f 153e ac1c e4bd 0e67 5b3d f8ab afbd
00000040: 5824 69be a9d9 0c3e cf97 c33e 6aee edbd
00000050: 8c48 903d 631f 833e 24d0 d8bd b375 1cbe
00000060: 031f 19bd 9e5d 043e 4d9f bfbe 4e98 203e
00000070: 519f de3d 9ba4 913e 33f4 173d 4dca 1e3e
00000080: e03b a33d 3124 0abd cd50 043e b82c 7a3d
00000090: f6c4 323e fd88 59be 29b5 abbd 968e ae3e
000000a0: 594b 323c 0118 043d ae10 a43d 1c2d 223d
000000b0: 6fd9 a83d 1252 443e cebd c73d 1e6a e43a
000000c0: 7b53 013e d3a2 113e f746 01be 6501 1c3e
000000d0: 5460 61be 78ff a7bc 3f4c 223e 6a60 dbbe
000000e0: c3f5 e93d dc9f 283e 5986 dfbe 70cf 523d
000000f0: 2f6a 18bf aa5a 94bd 13d4 2a3e 1fbd e4be
00000100: 980c 85bc e6a2 55be b8fb 0cbe 784a f33c
00000110: c7c9 19be 1f88 52be f9ac 5abe b51c c7bd
00000120: 98ff 8c3c b0ed 6fbe 6522 28be 5f03 dbbe
00000130: 1578 4dbe 25c3 3dbe 8e40 153e 2357 823e
00000140: f037 2c3c 1149 253c bd7b aa3d d658 443c
00000150: 49dd d7be 84ba 74bd a80a 353e cf2b 0dbe
00000160: 1a20 dcbe d195 37be e8cc 07be 921d 073e
00000170: ee62 15be 9209 97be 82ef a73d b907 a53c
00000180: d544 30be c1a4 e73c 67df f1bd efac 18be
00000190: e2d5 4ebe 6b4f 303e a09a 9c3b 3d13 f33d
000001a0: d6c4 8a3d c33a 80be 027e 9abd 1ad9 21be
000001b0: 299b f4be 732e c03d f8d1 a8bd 538b 0abd
000001c0: 4b4d 93bb 9ff4 29be d27a 1d3e 245b 273e
000001d0: f510 9cbb 08d6 25be f2a4 723b 5c3a b33e
000001e0: 6500 d0bc b688 de3d 2ab2 983b d274 963e
000001f0: 5e8b 5a3e 673b 94be 4a5f 923d 904c 9bbd
00000200: 2f1a 4fbd afb9 953d bd7c 943d 454b 6d3d
00000210: 7ab5 393e 4c6a 48bd 2bf7 97bd f777 56bd
00000220: 85bf 8a3d 7277 073e 779f 293e 61d9 96be
00000230: 7032 07be ca39 0fbc e4a9 a13c d00e 343e
00000240: 408d febd 41c8 693d 9cb6 fcbd a524 2b3d
00000250: 71c0 cf3d 01fa 93bd 965f 223e 3b40 703e
00000260: 87f8 093e 635b 01be 780a a1bd 8b55 6b3d
00000270: cb22 b83d 003f 53be 315f 593d a1f2 49be
00000280: 7ed0 9bbd 91f8 91bd 96ab c0bd 74b6 f0bc
00000290: 9175 1bbe 57e8 2d3e e574 d43d 519e f6bd
000002a0: 2dd8 9e3c 4e9b 25be 023c 24be b414 9abc
000002b0: 2d12 f93d 81c3 6dbd 21ca 9bbd f266 873c
000002c0: 1439 ca3c e9c0 cdbd 7615 a7bd d593 86bd
000002d0: 0c83 663d ca6e c3bd b558 04be bdae e13c
000002e0: 1bf9 b5bd 95c2 7dbe d2be a13d c528 743e
000002f0: 7c95 df3d 5f3b 023e 099e d5bc ef70 6bbe
00000300: 8189 e93d 9521 073e 70a3 773e 5fc1 463e
00000310: 3eef 83be 74d6 593e 3575 503d 6f54 fd3d
00000320: f860 dcbd 86cd c13d 5492 8cbd 5154 b13d
00000330: 9c8e 2d3e b97d 5ebd 3d8c d93d 4572 70be
00000340: bb51 97bd 17d9 84bc 02f5 92bd 1788 dc3d
00000350: 4356 02be 0dde 913d fd67 a1bd 2113 a03b
00000360: b486 3f3e 9c91 04be 86f8 96bd deb5 d83c
00000370: 228e 553d d736 3abe aa18 97bb 25ec 243d
00000380: fbaf 8a3d b32a ad3d 9913 63be 4cfe 0a3e
00000390: a4e2 503e e523 75bc 6c3e cc3d 0d15 e03c
000003a0: accf acba 42af 403d a6fb 963c 652e 433e
000003b0: 6c22 c83d 17e5 6c3d e4f9 87bd b611 433c
000003c0: c485 d03d 9f66 eabc 4bfc 15bc c320 0ebe
000003d0: 9b18 643d 15e5 02be c0ba b43c 55ae 98bd
000003e0: 7ab2 11be 09fd 0cbd c3ad 353e 4362 f7bd
000003f0: d1a1 ca3b ec85 01be fa41 d4bd 45fe 9ebd
0.28851712 0.0009354954 -0.40217805 -0.031120809 -0.045623407 0.11904978 -0.026571795 0.052118704
0.027956003 0.30468646 0.116265126 0.07629399 0.14581013 -0.11138281 0.053565077 -0.08577722
-0.2276777 0.13754906 0.38201758 -0.116177395 0.07045087 0.25609884 -0.10586575 -0.15279274
-0.03738309 0.12926337 -0.37426224 0.156831 0.10870231 0.28445897 0.03709812 0.15506859
0.079704046 -0.03372592 0.12921448 0.061077803 0.17457947 -0.21243663 -0.08384163 0.3409316
0.010882222 0.032249454 0.08010994 0.0395938 0.08244597 0.19171932 0.09752999 0.0017426645
0.12629502 0.14222269 -0.12624727 0.15234907 -0.22009403 -0.02050756 0.15849398 -0.42846996
0.114238285 0.16467232 -0.43657187 0.05146736 -0.59537023 -0.07243855 0.16682462 -0.44675538
-0.016241357 -0.20862922 -0.13767898 0.029698595 -0.15018378 -0.20559739 -0.21355046 -0.09722272
0.01721172 -0.23430514 -0.1641937 -0.4277601 -0.20065339 -0.18531473 0.14575407 0.25457105
0.010511383 0.010088221 0.083243825 0.011984071 -0.42161015 -0.059748188 0.17679846 -0.13786243
-0.42993242 -0.17928244 -0.1326176 0.13194874 -0.1458852 -0.2949949 0.08199979 0.020145284
-0.17213757 0.028276803 -0.11810189 -0.14909719 -0.20198777 0.17217796 0.004779175 0.11868904
0.06775825 -0.25044832 -0.07543565 -0.15805474 -0.47774628 0.093838595 -0.08243173 -0.033824276
-0.004495298 -0.16597222 0.15378883 0.16343361 -0.0047627636 -0.16194928 0.0037024585 0.35005462
-0.025390813 0.10865919 0.0046599107 0.29386002 0.21342227 -0.2895157 0.07147081 -0.075829625
-0.05056208 0.07310807 0.072503544 0.05793311 0.18135634 -0.048929498 -0.074201904 -0.0523605
0.06774811 0.13229159 0.16564737 -0.29462722 -0.13202834 -0.008741805 0.01973433 0.17583776
-0.12429285 0.057075743 -0.123395175 0.041782994 0.10144127 -0.07225419 0.15856776 0.23462002
0.13473712 -0.12632518 -0.07863325 0.057454627 0.08991011 -0.20629501 0.053069297 -0.19721462
-0.07608126 -0.071274884 -0.094077274 -0.029383875 -0.15181567 0.16983162 0.10373858 -0.12041915
0.01939019 -0.16172525 -0.16038516 -0.0188087 0.1216167 -0.058047775 -0.076069124 0.01652858
0.02468542 -0.1004656 -0.0815839 -0.065711655 0.05627732 -0.09542616 -0.12924464 0.027549142
-0.08885404 -0.24781258 0.07897724 0.23843677 0.10917184 0.12717961 -0.026076334 -0.229923
0.1140318 0.13196404 0.2418344 0.19409703 -0.25768465 0.21273214 0.050893027 0.1236962
-0.10760683 0.094630286 -0.068638474 0.0865866 0.16948932 -0.054319117 0.106224515 -0.2348109
-0.07388636 -0.016216798 -0.07175638 0.107681446 -0.12728219 0.07122431 -0.07881162 0.004885093
0.18703729 -0.1294617 -0.07371621 0.026453909 0.0521375 -0.18184982 -0.0046110945 0.040264267
0.06771847 0.0845541 -0.22175445 0.13573569 0.20398957 -0.014962171 0.099728435 0.027353788
-0.001318445 0.04704214 0.018430542 0.19060667 0.097721905 0.057835665 -0.0663946 0.011906078
0.10181764 -0.028613387 -0.00915439 -0.13879685 0.055687528 -0.127827 0.022061706 -0.07455126
-0.1422824 -0.034421 0.17742066 -0.12079289 0.006183841 -0.12648743 -0.103641465 -0.07763342

fc2.bias f4 [128]
00000000: 5b39 c1bd bb13 3c3e f3be 4c3e 77e7 ea3d
00000010: 605b 63bd ef13 e2bc c1cc 5b3c c1a2 3c3e
00000020: 69f9 d63d acb0 f33d 2296 ad3d d55b a43c
00000030: b435 243e ec06 38be c901 d93d 2ff0 973d
00000040: 5508 223e 1868 4f3e 6001 253e 6f83 dc3d
00000050: c09d efbd 5ee1 963e a643 1ebe b14c 7b3e
00000060: b699 773e 8887 753e 4fc5 113e fdbb 493e
00000070: 1d35 3b3c 592a be3d 14f6 2dbc b594 343e
00000080: de93 b13d 26d6 30be ebf9 463e a77b 233e
00000090: d182 98bd b799 053e 88ce a13d a245 193e
000000a0: 55e3 553e 300e b63d 90d0 49bd d55b 813d
000000b0: 6adb 2a3e 88c8 2e3e 90f4 c23d a472 1d3e
000000c0: 75fc e63d 6ba0 373e b549 2abd 3e79 bc3d
000000d0: 6a9c da3d b4cf 0b3e c82e 853d 6ba7 593e
000000e0: 747d 753d a502 513d 6e96 63bd ad57 0b3e
000000f0: 93c6 0b3e f37b c73d 89bd 983d 8d28 c43c
00000100: a9c4 193e d7c6 65bc b002 d53c 058f 373e
00000110: 86ea 57bd 197a aa3d db35 f03d 6f28 ab3d
00000120: 2568 68bc f654 3d3d 5002 033e bdc2 423e
00000130: eab2 353e bfcf 8abd 11b9 2a3d b91a 313e
00000140: bea0 793c 746d 183e a6ca 13bd 0f3e 2fbe
00000150: 9a13 5f3d ca77 9abc 185b 9abd 142a 6f3e
00000160: 9c33 163e 1dbd 15bc 4d96 c6bd 2b0f c83d
00000170: aeae 263e 2e29 153e c159 65be 87f0 043e
00000180: a37b 263e 9c3a 523d 1995 1b3e 360e 3d3e
00000190: d9d0 c0bd 90f4 bfbb 0607 f03d f7b9 a23d
000001a0: 7d1a 4d3e 4248 06bd 8ed3 00bc 9e64 b43c
000001b0: be33 483e 513a 9ebc 08c5 8c3d bd60 25be
000001c0: d131 1bbe 0d0b e1bd 18ad 58bd 6112 3c3e
000001d0: 87ee c13d 721e da3d 11e1 49be ba52 fdbd
000001e0: 272f cfbd 2b7a 16be 53ed a23d c0f0 b13d
000001f0: 87bc d53d 179e 09bd 92bd 433d 3ba7 0e3e
-0.09434768 0.18366902 0.19994716 0.1146993 -0.055507064 -0.027597396 0.013415516 0.1842146
0.1049679 0.11898932 0.08475901 0.02006332 0.16036111 -0.1797139 0.105960436 0.07418858
0.15823491 0.20254552 0.16113806 0.107672565 -0.1170001 0.29468817 -0.15455493 0.24540974
0.2417973 0.23977482 0.14235424 0.19700618 0.011426237 0.09285421 -0.010617752 0.17634852
0.086707816 -0.17269191 0.19431274 0.15965138 -0.07446826 0.13046919 0.07900721 0.14967969
0.20887502 0.08889425 -0.049271166 0.06316344 0.16685262 0.17068684 0.09519303 0.15375763
0.11278621 0.17932288 -0.0415742 0.092028126 0.10674365 0.13653451 0.065030634 0.21255271
0.059934095 0.051027913 -0.055563383 0.13607664 0.13649969 0.09740438 0.07458026 0.023945117
0.15016426 -0.014024458 0.026002258 0.17925651 -0.052713893 0.083240695 0.11729022 0.083573215
-0.014184986 0.046223603 0.12793851 0.190196 0.17744032 -0.06777906 0.0416804 0.1729535
0.015236078 0.14885503 -0.036081932 -0.17113517 0.054462053 -0.018855948 -0.07536906 0.23355895
0.14668125 -0.009139326 -0.09696636 0.09768518 0.16277573 0.1456649 -0.2239752 0.12982379
0.16258101 0.051325426 0.15193595 0.18462452 -0.094148345 -0.0058580115 0.117200896 0.07945626
0.20029636 -0.032783754 -0.007862939 0.022020634 0.19550988 -0.019314917 0.06873518 -0.16150184
-0.15155722 -0.10988436 -0.05289945 0.18366386 0.094693236 0.10650338 -0.19714762 -0.123692945
-0.101164155 -0.14695041 0.07955422 0.086884975 0.10436349 -0.03359803 0.04778821 0.13930981

fc3.weight f4 [3, 128]
00000000: 34c1 323f 1575 38be 42b0 9bbe 4773 1cbe
00000010: fdf2 a33e e8cc 933d cfe8 2a3f a563 76be
00000020: 5c40 babd c705 75be 0180 63be 98b9 a3bd
00000030: b873 ecbd c644 a73e 5e10 28be 7e95 373f
00000040: 06f4 0fbe 139a 523e a723 53bd e773 77bd
00000050: 77df 153f a5d3 6bbe aec7 013f 0cd8 65be
00000060: 3cc6 61be 41a7 5abe 5bdf 74be 6103 35bd
00000070: 392b 9cbe 59f0 cb3e f271 edbe 416b 96be
00000080: 3d0c 293e ce1e 8dbe b1d7 54be a3d6 2bbe
00000090: 7b1b 02bf 1447 2fbe e014 b23e 7c32 2dbe
000000a0: 88cd bfbe 630e 2dbe 51ac 363f 0394 803b
000000b0: 017e 77bd 699d e5be 8961 a2be 3a74 b5bd
000000c0: 4052 b7bd b25c f1bd 451e 8fbd 0fb2 8bbd
000000d0: 2356 18be c607 fabe 490a 1dbf a547 09be
000000e0: 99bc 913d 61ff 06be bf40 e13e b9e0 a8be
000000f0: 39fb e5bd 0c5b b1be 89d8 dfbe 1e1f 373f
00000100: 773a 6dbe 9a60 c13e a119 18bd cf2b b2be
00000110: 2833 d43c 12dd e13e b4fd 07be 2b72 e6be
00000120: b9e7 02bf 5a0a e13e afa9 3cbe 69a6 4bbd
00000130: 4f17 57be 798e 803d 07c5 f83e 6070 38be
00000140: 0df2 d73e c47d 3ebe 47cc 7a3e b0e5 553e
00000150: 754b e8bd dfc8 f9be a2b0 fd3e a3ba 3bbe
00000160: 0265 85be 16ce 28be df16 373e cc10 39be
00000170: 5edf c0bd 7a2f 37be a2f4 2e3f 3cde 87be
00000180: 8721 82be 265c 823e a696 0cbe ecb4 fabd
00000190: c189 a1ba 5f68 b6be 1914 a73e 6ccd 46be
000001a0: e9ac dfbd fde7 113f 2251 9fbb a577 e53e
000001b0: dba3 2dbe 156b c03e 5967 45be a64a 8c3e
000001c0: 290b 233f 5074 6e3d a053 eb3e 3359 53be
000001d0: ff55 c2bd c750 48be 7826 ae3e d04a 94be
000001e0: e4fc b9be 1879 2bbf a507 38be c9b2 d1bd
000001f0: 4e87 b5bd fd26 d23e 5364 d73e 64c4 5dbe
00000200: 3176 e63e 1821 0ebe 68a8 01bd 3740 2fbe
00000210: 6261 fe3e a557 c93e d438 323f f555 28be
00000220: efe5 103e eeb1 9bbe 6ba4 98be 6a8e a93d
00000230: 0bc9 bdbd b3f5 fe3e d034 f9bd 08bf 343f
00000240: 8443 d8bd 2abc 343f 7830 3ebe 9d64 24be
00000250: 36bf c63e 232c 6cbe ae0a f83d 1c9a 08be
00000260: c7c5 2abe cd53 17be 4bb1 38be 6edb 20be
00000270: a563 3ebf 7593 753f 859b 0dbf 256f bcbe
00000280: 3b79 0b3f 16fc 38bf 534a 2ebe 39d5 36be
00000290: f98d 02bf 370a c2bd 8510 143f 6224 58be
000002a0: 7165 80be 2fed 21bc 5d4e 223f 01c2 603d
000002b0: 4203 4ebe 9b9c e2be 2829 34be d4b1 2fbe
000002c0: 6954 02be 80ac a5bd 4097 29bb 3100 05be
000002d0: a66e 5abe 547e 24bf 9a4e 06bf 29b9 c1bd
000002e0: 58b3 f33b 3e1f 15be f25e b13e abd7 10be
000002f0: 1492 11be 4563 77be 691c fdbe 0943 173f
00000300: 0149 2abe be82 433f e02a 2fbe b898 dabe
00000310: 53ee 133d 8269 293f d9b0 58be 56ad 8abe
00000320: 753b a4bd 6d78 bd3e 61a2 43be 6e5e 583e
00000330: b6c9 c5be 7787 013d cb34 2b3f 336c 3cbe
00000340: 8b1c 403f 9356 22be a15c c83e fcf0 903e
00000350: e840 22be 7161 703d fb6b df3e 376c 50bd
00000360: aa86 a7be 03f2 99be da41 f53e 0deb 80bd
00000370: 1922 c3bd e7dd 3ebe e933 ba3d 66a9 8cbe
00000380: f2a6 a6be 6b06 ac3e 8862 61be a9b2 44be
00000390: b551 633d 97f2 c9be 8251 023f 3716 09be
000003a0: e2f1 55be eed3 273f f648 9e3d 70b1 e83e
000003b0: fb66 29be 2607 d13e d98e 35be c780 f93e
000003c0: 4c65 cf3e 95f6 7f3e cbe9 be3e fe68 36be
000003d0: 93a5 c5be adb2 26be b75f 1e3e a36a edbe
000003e0: 27ae 013f 4070 efbe 5857 30be f98d 44be
000003f0: 42d4 2ebe 35ec 053f 5616 283f 2886 aabd
0.69826055 -0.18013413 -0.30407912 -0.1527835 0.32021323 0.07216817 0.6676149 -0.24061449
-0.09094307 -0.23927985 -0.22216798 -0.079943836 -0.11545509 0.32669657 -0.16412494 0.7171248
-0.14057931 0.20566587 -0.051547673 -0.060413267 0.58544105 -0.23029955 0.5069531 -0.22445697
-0.22048277 -0.21352865 -0.23913328 -0.044192676 -0.30501726 0.39831808 -0.46375996 -0.29378703
0.16508575 -0.27562565 -0.20785405 -0.16781096 -0.5082318 -0.17116958 0.3478155 -0.1691379
-0.37461495 -0.1690002 0.71356684 0.0039238944 -0.0604229 -0.44846657 -0.31715038 -0.08860059
-0.08951235 -0.11785258 -0.06988195 -0.06821071 -0.14876609 -0.48834056 -0.6134382 -0.13406236
0.0711605 -0.13183357 0.4399471 -0.3298395 -0.112295575 -0.34639776 -0.4371989 0.71531856
-0.23166834 0.37769014 -0.037133817 -0.34799048 0.0259033 0.44113976 -0.13280374 -0.45008978
-0.5113483 0.4395321 -0.18424104 -0.049719248 -0.21004985 0.062771745 0.4858782 -0.18011618
0.42176858 -0.18602663 0.24491988 0.208884 -0.11342517 -0.48786065 0.49548823 -0.18332915
-0.26053625 -0.16484866 0.17879818 -0.18072814 -0.09417604 -0.17889205 0.6834203 -0.2653674
-0.25416204 0.2546093 -0.13729343 -0.12241539 -0.0012324379 -0.35626504 0.3263252 -0.194143
-0.10921652 0.5699461 -0.0048619667 0.44817844 -0.16957037 0.37581697 -0.19277705 0.27400702
0.63688904 0.058216393 0.45962238 -0.20639496 -0.09489059 -0.19562064 0.34013724 -0.28963327
-0.36325753 -0.6698165 -0.17971666 -0.10239179 -0.08863698 0.4104537 0.4206873 -0.21656948
0.45012048 -0.13879812 -0.031654745 -0.1711434 0.49683672 0.3932468 0.6961796 -0.1643904
0.14150213 -0.30409187 -0.2981294 0.082791165 -0.092668615 0.4979683 -0.12168276 0.7060399
-0.105597526 0.70599616 -0.18573177 -0.16054006 0.38817757 -0.23063712 0.12111412 -0.13340038
-0.16677009 -0.14778061 -0.18036382 -0.15708706 -0.74370795 0.95928127 -0.5531543 -0.36803547
0.5448186 -0.7225965 -0.1702054 -0.17854775 -0.50997883 -0.094746046 0.57837707 -0.21107629
-0.25077394 -0.009883209 0.6340082 0.054872517 -0.2011843 -0.44260105 -0.17593825 -0.1715768
-0.12727512 -0.080895424 -0.0025877506 -0.12988354 -0.21331272 -0.6425526 -0.52463686 -0.094591446
0.007437151 -0.14562699 0.3464275 -0.14144771 -0.1421588 -0.24158962 -0.49435738 0.5908666
-0.16629411 0.7637137 -0.171062 -0.4269464 0.036115956 0.6617662 -0.21161212 -0.2708537
-0.08019153 0.3700594 -0.19104911 0.21129772 -0.38630456 0.03162333 0.6687743 -0.1840065
0.75043553 -0.15853338 0.3913317 0.28308856 -0.15845072 0.058686677 0.4363707 -0.05088445
-0.32719928 -0.30067453 0.47901803 -0.062948324 -0.09527988 -0.18639337 0.09091932 -0.2747299
-0.32549244 0.33598647 -0.22010243 -0.19208778 0.055497844 -0.39442894 0.5090562 -0.1338738
-0.20893052 0.65557754 0.0772876 0.45447874 -0.1654319 0.40825766 -0.17730273 0.48731062
0.4050697 0.24996407 0.37287745 -0.17813489 -0.38602886 -0.16279097 0.154662 -0.4637042
0.5065636 -0.46765327 -0.17220819 -0.19194783 -0.17073157 0.5231355 0.6565908 -0.083263695

fc3.bias f4 [3]
00000000: abf3 5ebe ca2b cdbd b6a0 5fbd
-0.2177264 -0.10018118 -0.054596625
