Acrobot/dueling_dqn_acrobot_v1_checkpoint.pth (torch, 436814 bytes, 33 tensors)

feature.0.weight f4 [128, 6]
0	0x3ece2007	0.4025881
1	0x3ee7785c	0.45209014
2	0xbf04c397	-0.51860946
3	0x3d9069fb	0.07051464
4	0xbe9000e2	-0.28125674
5	0x3e52703b	0.20550625
6	0x3cf55ace	0.029950526
7	0xbea3876d	-0.3193926
8	0x3edb42e8	0.42824483
9	0xbea9ef0d	-0.33190194
10	0xbead35cd	-0.3383011
11	0x3d35439e	0.044253938
12	0x3d6c2479	0.05765197
13	0x3e19bb9f	0.15012978
14	0x3f1e52eb	0.6184527
15	0x3e96a0f4	0.29419672
16	0xbe220704	-0.15822989
17	0xbdab6e4b	-0.08370646
18	0x3cec7364	0.028863616
19	0x3f009f27	0.5024285
20	0x3e9dd6ac	0.30827844
21	0xbec85c95	-0.39133134
22	0xbe66d033	-0.22540359
23	0xbc54f5ac	-0.012998026
24	0x3d80ad7a	0.06283088
25	0x3db664da	0.08905955
26	0x3ea70531	0.32621148
27	0xbead9d6f	-0.33909175
28	0xbdeff495	-0.11716572
29	0xbe4238f0	-0.18967032
30	0xbe12b48c	-0.14326686
31	0x3eb8a242	0.36061293
32	0xbe82447d	-0.25442877
33	0x3e1589fb	0.14603417
34	0xbc9f7ca4	-0.019468613
35	0x3ca6ddf9	0.020369517
36	0xbf0653e8	-0.5247178
37	0xbdb51c45	-0.088432826
38	0xbd39da33	-0.045374107
39	0x3e163959	0.14670314
40	0xbe7ec522	-0.24879888
41	0x3ec935ae	0.39298767
42	0x3e25f34e	0.16206095
43	0x3e9cfcb1	0.30661538
44	0x3c1b3c7f	0.009474873
45	0x3ed569b6	0.41682214
46	0xbe0717a0	-0.13192606
47	0x3ea5a9fe	0.32356256
48	0x3dff15fa	0.124553636
49	0xbf12e68b	-0.5738303
50	0xbeb508e7	-0.35358354
51	0x3dd2f193	0.10299983
52	0x3e017d5d	0.12645479
53	0xbe07a220	-0.1324544
54	0x3f102cb8	0.56318235
55	0xbe5f16eb	-0.21786086
56	0x3f01679a	0.5054871
57	0x3ed2cb8d	0.41170922
58	0xb8e3fdd9	-0.00010871486
59	0x3d2fb12a	0.042893566
60	0x3f0f08ad	0.55872613
61	0x3e8479b4	0.25874102
62	0x3e9078b0	0.28217077
63	0x3f105aac	0.56388354
64	0x3d500f63	0.050795924
65	0xbd9b5928	-0.075853646
66	0x3ef80730	0.48442984
67	0x3ed5511e	0.4166345
68	0x3ea97cce	0.3310303
69	0x3dc24524	0.09485844
70	0xbdb64078	-0.08899015
71	0xbd5b7601	-0.053579334
72	0x3e0da455	0.13832219
73	0xbe0f4cdb	-0.13994162
74	0x3e1d30ba	0.15350619
75	0xbebf967a	-0.37419492
76	0x3eb89ab2	0.36055523
77	0xbe98384d	-0.29730454
78	0x3dfe9e5e	0.1243255
79	0x3efc117a	0.49232084
80	0xbec6468a	-0.38725692
81	0xbf003a03	-0.5008852
82	0x3d288591	0.041143004
83	0x3e2e18b3	0.1700161
84	0xbecb4468	-0.39700627
85	0xbd81b1d3	-0.063327454
86	0xbe190d55	-0.14946492
87	0xbeef02c5	-0.466818
88	0x3c5344be	0.012894807
89	0xbe35ec35	-0.17765887
90	0x3e64d7d5	0.22347958
91	0x3e932861	0.28741744
92	0x3d887286	0.066624686
93	0xbf1548a1	-0.5831395
94	0x3d8d2e91	0.068936475
95	0x3e819cba	0.25314885
96	0xbee1d3de	-0.44106954
97	0xbefcae89	-0.4935191
98	0x3dcb286d	0.0991982
99	0x3e034e91	0.1282294
100	0xbe5ac285	-0.21363266
101	0x3eaa6397	0.33279106
102	0x3e592412	0.21205166
103	0xbf1da7e5	-0.6158431
104	0x3eebf6af	0.46086642
105	0xbe793750	-0.24337506
106	0x3dda18c4	0.10649255
107	0xbd6fb502	-0.058522232
108	0xbedcca52	-0.43123108
109	0xbd83829a	-0.06421395
110	0xbd73fdac	-0.059568092
111	0xbd60439f	-0.05475199
112	0x3de603ec	0.11231217
113	0xbe956415	-0.2917792
114	0xbdc7b73d	-0.09751747
115	0xbec80949	-0.39069584
116	0x3ebdf38d	0.37099877
117	0xbc21ad02	-0.009867908
118	0x3eee2985	0.46516052
119	0x3de3df8c	0.111266226
120	0xbf3dcee5	-0.7414382
121	0x3d27dfb0	0.04098481
122	0xbf3767c8	-0.7164273
123	0x3d873043	0.06601002
124	0xbd8fbea1	-0.070187815
125	0x3e7f82cb	0.24952237
126	0xbe0f3c06	-0.13987741
127	0x3e81dac1	0.25362208
128	0x3e66a4cd	0.22523804
129	0xbe9d4f0c	-0.3072437
130	0xbebaf4a0	-0.3651476
131	0x3ddc04df	0.107431166
132	0xbe0389cf	-0.12845539
133	0x3ebf6296	0.37379903
134	0xbec285f6	-0.3799283
135	0x3e459306	0.19294366
136	0xbcfd7aeb	-0.0309424
137	0x3e961767	0.2931473
138	0xbe2b80ab	-0.16748302
139	0xbf0b75c6	-0.54476583
140	0x3e677f08	0.22607052
141	0xbeafdef8	-0.343498
142	0x3e3af52c	0.18257588
143	0xbeb9904d	-0.36242905
144	0x3e83f7c7	0.25774977
145	0xbeb2c68a	-0.34917098
146	0xbdfa479e	-0.12220691
147	0x3f0344e7	0.5127701
148	0x3e179b5f	0.14805363
149	0xbe915295	-0.28383318
150	0xbe818a00	-0.25300598
151	0xbeae46cf	-0.34038398
152	0x3e9f0a90	0.31062746
153	0x3d48b3c7	0.048999574
154	0xbed71f9b	-0.420163
155	0xbe499045	-0.1968394
156	0xbd4a3b9f	-0.049373265
157	0xbf096264	-0.5366576
158	0xbe535e97	-0.20641552
159	0x3e9423cb	0.28933558
160	0x3c24d813	0.010061282
161	0xbe62e422	-0.22157338
162	0x3cea1dc7	0.028578652
163	0xbeac1a81	-0.3361397
164	0x3e73b5a4	0.23799759
165	0x3eac8c77	0.33700916
166	0xbe78c91c	-0.24295467
167	0x3e1d309a	0.15350571
168	0x3dfe4346	0.12415175
169	0xbf4d25ee	-0.80136
170	0x3da2ba9a	0.07945748
171	0x3f05b3ee	0.52227676
172	0x3e47ec9f	0.19523858
173	0xbe72664a	-0.23671833
174	0x3e5af6b5	0.21383174
175	0xbf24b389	-0.6433645
176	0xbf251221	-0.6448079
177	0x3f0bd7b1	0.54625994
178	0xbda1ed39	-0.07906575
179	0xbe51c9ae	-0.20487091
180	0xbe91b0fb	-0.28455338
181	0x3e8c68a4	0.27423584
182	0xbe0eb4ca	-0.13936153
183	0xbe95c1d6	-0.29249448
184	0x3ee536f6	0.44768494
185	0x3dffe6c0	0.12495184
186	0x3e7973ab	0.2436053
187	0x3e8870ea	0.26648647
188	0x3ef991e3	0.48744115
189	0x3e7ecad6	0.24882063
190	0xbd912e44	-0.070889026
191	0xbe532f7b	-0.20623581
192	0xbd9d908b	-0.07693585
193	0xbe8cf3d0	-0.27529764
194	0xbee28c00	-0.44247437
195	0xbec6ddff	-0.38841245
196	0x3ec4df48	0.384516
197	0xbce5bfec	-0.028045617
198	0xbdc120e5	-0.09430102
199	0xbeb93713	-0.3617483
200	0xbf0ba1fb	-0.5454404
201	0x3dbe4543	0.092905544
202	0x3e4de4a6	0.20106754
203	0x3e0ddffb	0.13854973
204	0xbee97159	-0.4559429
205	0xbe1198c3	-0.1421843
206	0x3eb6c9ca	0.35700828
207	0xbde7f3a1	-0.113257654
208	0x3e6eb15e	0.23309848
209	0xbe70a6df	-0.23501156
210	0xbeb7638d	-0.3581814
211	0x3ea80dbc	0.32822978
212	0x3eb4992f	0.3527312
213	0x3ef53e8a	0.47899276
214	0x3e9d3c4a	0.3071006
215	0xbe8db3ad	-0.27676144
216	0x3ed24867	0.41070864
217	0x3da2845c	0.07935402
218	0x3ed57105	0.4168779
219	0xbeb2cc27	-0.3492138
220	0xbcffa384	-0.0312059
221	0xbdf58e64	-0.119900495
222	0x3e292996	0.1651977
223	0x3f039b5f	0.5140895
224	0x3e482e6a	0.19548956
225	0x3ee3c76b	0.4448808
226	0xbe8f4a04	-0.27986157
227	0xbde510aa	-0.11184819
228	0x3e47c3e8	0.19508326
229	0xbe8ad716	-0.27117223
230	0xbe563c07	-0.20921336
231	0xbe68af4b	-0.22723119
232	0x3d4b2813	0.049598765
233	0x3ea9aaea	0.3313821
234	0x3e09e3dd	0.13465829
235	0x3e8b5c86	0.27219027
236	0xbca79f55	-0.020461718
237	0xbe150a36	-0.14554676
238	0x3e26ef32	0.16302183
239	0x3d8aace8	0.067712605
240	0xbe8192ac	-0.25307214
241	0x3ebc3f40	0.36767006
242	0xbe819baf	-0.2531409
243	0x3de16925	0.11006383
244	0x3e139b55	0.14414723
245	0x3ea1e398	0.31618953
246	0x3ed899ba	0.42304784
247	0xbed06020	-0.40698338
248	0x3f025a0d	0.50918657
249	0x3e57838c	0.21046275
250	0xbe132f22	-0.14373448
251	0xbe36ae5b	-0.17839949
252	0xbe5be2f4	-0.21473294
253	0x3ec2b9c0	0.3803234
254	0xbde503e5	-0.111823834
255	0x3e342d93	0.1759551

feature.0.bias f4 [128]
0	0x3e632880	0.22183418
1	0xbebd09af	-0.3692145
2	0xbd21a01f	-0.039459344
3	0x3e9744ee	0.29544777
4	0x3e96d8c2	0.29462248
5	0x3e81b902	0.25336462
6	0xbea8a0bd	-0.32935134
7	0x3eed5628	0.46354795
8	0xbe15f064	-0.14642483
9	0xbdf9f4f2	-0.12204923
10	0x3ce6df81	0.028182747
11	0xbe626b10	-0.22111154
12	0x3ed596a3	0.4171649
13	0xbda5f718	-0.0810377
14	0x3c9daa27	0.019246174
15	0x3de9a403	0.11408236
16	0x3e27804e	0.16357538
17	0x3ecaa888	0.39581704
18	0xbe9f59b7	-0.31123134
19	0xbeb271c3	-0.34852418
20	0xbdc3d9cf	-0.09563028
21	0xbe1e3e90	-0.15453553
22	0xbebcc2dd	-0.3686742
23	0xbeaaca81	-0.33357623
24	0xbeafbee0	-0.34325314
25	0x3cce4e4c	0.02518382
26	0xbebf5402	-0.3736878
27	0x3e9de993	0.30842265
28	0x3e516821	0.20449878
29	0xbe57a065	-0.2105728
30	0x3e74a50a	0.23891082
31	0x3eec40f5	0.46143308
32	0x3edc4420	0.43020725
33	0x3e1c55e6	0.15267143
34	0xbe9f7b94	-0.3114897
35	0xbe031e30	-0.12804484
36	0x3de0cc91	0.10976518
37	0x3edbd815	0.42938295
38	0x3e8f3764	0.27971947
39	0x3ed83fb6	0.42236108
40	0xbead58dd	-0.3385686
41	0x3ea65857	0.32489273
42	0x3ec2d1d9	0.38050726
43	0x3e8f8b7d	0.2803611
44	0x3e2c75b8	0.16841781
45	0x3dfb3cee	0.12267481
46	0x3de1fd12	0.110345975
47	0xbe30c65b	-0.17263167
48	0xbebee540	-0.3728428
49	0x3e0b6995	0.13614495
50	0xbe1984c5	-0.14992054
51	0x3e850c37	0.25985882
52	0x3e94e97d	0.29084387
53	0xbe36e4c6	-0.17860708
54	0x3eb8850f	0.36039016
55	0xbe99c6e4	-0.30034554
56	0xbe9db1dc	-0.30799758
57	0x3e3758d7	0.17904983
58	0x3d08ffb6	0.03344699
59	0x3e438fa3	0.19097762
60	0xbeed01ac	-0.46290338
61	0xbe1cdab1	-0.15317799
62	0x3d01b912	0.031670637
63	0xbd2010da	-0.03907857
64	0x3ee2d066	0.4429962
65	0x3ec95534	0.39322817
66	0xbe132a0a	-0.14371505
67	0x3d2d8d66	0.042371176
68	0x3d81eec8	0.06344372
69	0x3d8be9f9	0.06831736
70	0x3eb20b5f	0.347743
71	0xbe8b796a	-0.2724107
72	0x3e9c602b	0.3054212
73	0xbec2fcb0	-0.3808341
74	0xbe249b77	-0.1607493
75	0x3e508b0f	0.20365547
76	0x3e3c57e6	0.18392906
77	0xbea443ac	-0.3208288
78	0xbd897040	-0.06710863
79	0xbc54c67e	-0.012986777
80	0xbe7d46f1	-0.24734093
81	0x3ed86053	0.4226099
82	0x3e86144c	0.2618736
83	0xbee15a14	-0.44014037
84	0x3ebfd07c	0.37463748
85	0x3eca73b7	0.39541408
86	0x3e8fbac3	0.28072175
87	0xbe3d9edf	-0.18517636
88	0x3e983524	0.29728043
89	0x3e110ca9	0.14164986
90	0xbde339a0	-0.110949755
91	0x3e342a4d	0.17594261
92	0x3e01a5c6	0.12660894
93	0xbc456e0d	-0.012050164
94	0x3ea79511	0.32730916
95	0x3eb1e37f	0.34743878
96	0xbea88b5f	-0.32918832
97	0xbe816d45	-0.2527868
98	0x3d67273d	0.056433905
99	0x3e7ca873	0.24673633
100	0xbed576d7	-0.4169223
101	0x3ebc2910	0.36750078
102	0x3ec1997d	0.37812415
103	0x3e527988	0.20554173
104	0xbee313a0	-0.4435091
105	0xbee5e9e2	-0.44905
106	0xbe56f0bf	-0.20990275
107	0xbe90d7d2	-0.28289658
108	0xbea71bd2	-0.32638413
109	0x3eaf88bb	0.34284005
110	0x3e823b93	0.25436077
111	0x3eabc4d4	0.33548605
112	0x3e6656f9	0.22494115
113	0xbdf13156	-0.11776988
114	0x3eb88ef9	0.3604658
115	0xbeaa3b42	-0.33248335
116	0x3e89e932	0.26935726
117	0x3ede6753	0.43438205
118	0x3c4ca7c7	0.012491173
119	0x3e641518	0.22273672
120	0x3db8e7fe	0.09028624
121	0x3f016189	0.5053945
122	0xbcd0da5e	-0.02549475
123	0xbe59d684	-0.21273237
124	0xbea57192	-0.3231321
125	0x3e9bd026	0.30432242
126	0x3e511c41	0.20420934
127	0x3e117a2d	0.14206763

feature.2.weight f4 [128, 128]
0	0x3d71064f	0.058843907
1	0x3d60c07e	0.054871075
2	0x3d8c5e88	0.06853968
3	0x3df1dcf2	0.1180972
4	0xbb9f429e	-0.0048602363
5	0x3e101ee4	0.14074284
6	0xbd257e9f	-0.04040396
7	0x3cf6ba4c	0.03011813
8	0x3d1a5491	0.037678305
9	0xbd0059ba	-0.03133557
10	0xbda24973	-0.079241656
11	0xbd678003	-0.056518566
12	0x3de0784a	0.10960443
13	0xbd28a555	-0.041173298
14	0x3d619dc7	0.05508211
15	0x3bccff2f	0.006256006
16	0xbcf24e53	-0.029578364
17	0xbd17ee56	-0.03709253
18	0x3d46c2a2	0.04852546
19	0xbe055140	-0.13019276
20	0xbd078fd3	-0.033096146
21	0x3d516fdb	0.051132064
22	0xbcd4d7e6	-0.025981855
23	0xbd78e62b	-0.06076638
24	0x3ccefca7	0.025266958
25	0x3e1e6ea8	0.154719
26	0xbd478b62	-0.04871691
27	0x3ce4f2f4	0.02794788
28	0x3b453270	0.0030089878
29	0x3dd10d75	0.10207645
30	0xbdce8cc1	-0.100854404
31	0xbd80d6c9	-0.06290967
32	0x3ce64dfa	0.028113354
33	0x3d9094f0	0.070596576
34	0xbd878e01	-0.06618882
35	0x3cbb08c1	0.022831323
36	0x3ce526b5	0.027972559
37	0xbd8049d0	-0.062640786
38	0x3dd3775a	0.10325499
39	0x3b8dad8b	0.0043236664
40	0xbd90dbf0	-0.070732
41	0x3e1c5b3f	0.15269183
42	0xbddcca7f	-0.107808106
43	0x3e002c0a	0.125168
44	0xbd2de1c8	-0.04245165
45	0xbd917d47	-0.07103973
46	0x3dc6abee	0.09700762
47	0xbc3a3467	-0.011365033
48	0xbdb48010	-0.088134885
49	0x3cf3b073	0.029747223
50	0xbda38598	-0.07984465
51	0x3d16797b	0.036736947
52	0xbc859935	-0.016308406
53	0xbb257dca	-0.0025251978
54	0x3d94246e	0.07233511
55	0x3d7e2893	0.062050413
56	0xbd937be1	-0.072013624
57	0x3cf2a451	0.029619368
58	0x3d30a78c	0.043128535
59	0xbd2103a5	-0.039310116
60	0xbb33edda	-0.0027455003
61	0x3d9ca872	0.07649316
62	0x3da5005e	0.08056711
63	0x3d5d3aa3	0.054011
64	0xbd810883	-0.063004516
65	0x3dcdc6b8	0.10047668
66	0x3d74f5cd	0.059804726
67	0xbd3f3013	-0.046676707
68	0x3cccc023	0.024993962
69	0x3dbfbfe3	0.09362771
70	0x3d86400d	0.065551855
71	0xbdb8401a	-0.089966014
72	0xbd3da8ba	-0.04630349
73	0xbd834db1	-0.06411303
74	0x3cf78c22	0.030218188
75	0x3c27058c	0.010194194
76	0x3be14c5e	0.0068755588
77	0xbd0fa359	-0.03506789
78	0xbc160e88	-0.009158738
79	0xbd7784db	-0.060429435
80	0x3c89456a	0.016756732
81	0x3d394091	0.04522759
82	0x3c7eeb49	0.015559026
83	0xbe0090fe	-0.1255531
84	0x3d1c3677	0.03813788
85	0x3e02473d	0.12722488
86	0x3d4ffe97	0.050779905
87	0xbabfe9a7	-0.0014641777
88	0x3d7a6d49	0.06113938
89	0x3e2fa412	0.17152432
90	0x3d3d649b	0.046238523
91	0x3d82aa76	0.06380169
92	0xbce4f38f	-0.027948169
93	0xbd42e886	-0.047585033
94	0x3c9a0c8c	0.018804811
95	0x3e502cab	0.2032954
96	0x3dbcb87e	0.092148766
97	0x3dc81c39	0.09771008
98	0x3d0f0ae6	0.034922503
99	0xbcae75d1	-0.021296414
100	0x3c3c9557	0.011510215
101	0x3da64933	0.081194304
102	0x3c5e67ff	0.013574599
103	0xbbe5e223	-0.007015483
104	0x3dae102e	0.0849918
105	0xbd1bacad	-0.038006473
106	0x3d9ee20a	0.07757957
107	0xbd590a9c	-0.052988634
108	0xbe2c9488	-0.16853535
109	0x3dd1cd13	0.10244193
110	0x3c61302d	0.013744396
111	0xbad97978	-0.0016591987
112	0x3e41e499	0.1893486
113	0x3d9710ae	0.07376228
114	0x3d852d15	0.06502739
115	0x3d0b9fb1	0.03408784
116	0x3d90cf9a	0.07070847
117	0x3ddf186d	0.10893331
118	0x3c607057	0.013698659
119	0x3e0d9cbe	0.13829324
120	0x3b4657d0	0.0030264743
121	0x3afb45ef	0.0019170622
122	0x3d274143	0.040833723
123	0xbd0ed57e	-0.03487157
124	0xbd38423b	-0.044985037
125	0x3d4a1762	0.049338706
126	0x3d7affab	0.06127898
127	0x3e14e8ec	0.14541978
128	0xba591578	-0.0008281092
129	0xbd6f5a8d	-0.058435965
130	0x3d82e9ee	0.06392275
131	0xbbdcb873	-0.0067358552
132	0xbc0c2ce9	-0.008555629
133	0x3cafe453	0.021471178
134	0xbc4e9d55	-0.012610753
135	0x3db04f9f	0.086089365
136	0xbc43b219	-0.011944317
137	0x3ca26069	0.019821363
138	0xbd07c21a	-0.033144094
139	0x3c9722a6	0.018449139
140	0x3d248bfa	0.040172555
141	0xbcf63c09	-0.030057924
142	0x3d154b59	0.03644881
143	0x3dac9fca	0.08428915
144	0x3d9592bc	0.07303378
145	0x3cc46f7b	0.02397894
146	0x3ccf5edc	0.025313787
147	0xbd31bd21	-0.043393258
148	0xbd5f48f8	-0.054512948
149	0xbb74bff6	-0.0037345863
150	0xbdb28638	-0.087170064
151	0xbda168b4	-0.07881299
152	0xbdb73373	-0.0894536
153	0x3d9afcb1	0.07567728
154	0xbdf5c5ba	-0.12000604
155	0xbd1c73c2	-0.038196333
156	0x3d631ff9	0.055450413
157	0x3d099ef9	0.033598874
158	0x3bfc8948	0.007706795
159	0x3d8a1267	0.06741791
160	0x3cf0ba4c	0.029385708
161	0x3dbb7b98	0.09154433
162	0x3d0110fb	0.031510334
163	0xbca44c19	-0.020055817
164	0x3e24d07f	0.1609516
165	0x3cc9673d	0.02458536
166	0xbd14e51b	-0.036351305
167	0x3d270c41	0.04078317
168	0xbd649ef8	-0.055815667
169	0x3e1b695d	0.15176912
170	0x3c8fef6e	0.017570224
171	0x3e026ee0	0.12737608
172	0xbd90cb18	-0.07069987
173	0x3d973228	0.073826134
174	0x3db0ba50	0.08629286
175	0x3d328171	0.043580476
176	0xbc2fced4	-0.010730464
177	0x3d568047	0.05236843
178	0x3d81c575	0.0633649
179	0x3d8f331f	0.069921724
180	0xbd16cb32	-0.036814876
181	0x3c842379	0.016130196
182	0x3d5213b4	0.05128832
183	0xbdacbbf9	-0.084342904
184	0xbda2d911	-0.079515584
185	0xbd319cc0	-0.04336238
186	0x3d8bbb27	0.06822806
187	0xbd5307de	-0.051521175
188	0xbd5604e8	-0.052250773
189	0x3da8613a	0.082216695
190	0xbc02be32	-0.007979916
191	0x3de1b0f7	0.110200815
192	0xbc5db5d8	-0.013532124
193	0x3c42c754	0.011888344
194	0xbd568a11	-0.052377764
195	0xbc5c9c2f	-0.013464971
196	0x3bd3b16d	0.00646036
197	0x3d5e129f	0.054216977
198	0xbcf49fff	-0.029861448
199	0xbcc367b2	-0.023853157
200	0x3dc6b68f	0.09702789
201	0x3a4920ae	0.0007672411
202	0xbd839959	-0.06425733
203	0xbd1198ec	-0.03554623
204	0xbcaceadf	-0.021108089
205	0xbd398f2b	-0.04530255
206	0x3d872de1	0.066005476
207	0xbd427e65	-0.04748382
208	0xbd5f8a39	-0.05457518
209	0x3df5843d	0.11988113
210	0xbd529f70	-0.051421583
211	0xbe4517c4	-0.19247347
212	0x3ddfe372	0.109320536
213	0xbadcbd75	-0.001684113
214	0xbb1a2801	-0.002352238
215	0xbd98eebb	-0.07467409
216	0x3d83d797	0.06437605
217	0x3c0c0f73	0.008548605
218	0xbdc1206f	-0.09430014
219	0xbd186378	-0.037204236
220	0x3d34ee01	0.04417229
221	0xbd169cd3	-0.036770653
222	0x3ba69f95	0.0050849416
223	0x3e0c58d3	0.13705759
224	0xbda27d49	-0.079340525
225	0xbda81678	-0.082074106
226	0xbcdc4ad2	-0.026891146
227	0x3d9e3475	0.07724849
228	0x3cdbc488	0.026827112
229	0x3dabb260	0.08383632
230	0xbd1cec2c	-0.03831117
231	0x3cf74832	0.030185793
232	0xbd6b9da3	-0.05752338
233	0xbd5f0ea8	-0.054457337
234	0xbca91ab2	-0.020642612
235	0xbd56ec50	-0.05247146
236	0xbd27a685	-0.04093029
237	0x3d3b7c9e	0.04577314
238	0xbcd9d610	-0.02659133
239	0x3e01a141	0.1265917
240	0xbd4055d8	-0.046956867
241	0x3bd71ec4	0.006564947
242	0x3b276ece	0.0025548222
243	0xbdbb41e8	-0.0914343
244	0x3db50ff7	0.08840936
245	0xbdbeee48	-0.09322792
246	0x3d60644e	0.054783158
247	0x3c4a4cb4	0.012347389
248	0x3c229bea	0.009924868
249	0x3c6e259d	0.014535335
250	0xbd51789e	-0.05114042
251	0xbdb0cb7d	-0.08632562
252	0xbd959737	-0.073042326
253	0x3de6a1b9	0.11261315
254	0x3d38d0b3	0.045120906
255	0x3da2c4b4	0.079476744

feature.2.bias f4 [128]
0	0x3d4ae81d	0.049537767
1	0x3d3d7ed1	0.04626352
2	0x3d76de84	0.0602708
3	0xbd0a26ee	-0.033728532
4	0x3c6eb3d3	0.014569241
5	0xba5d3b8f	-0.0008439356
6	0x3d81a5b5	0.06330434
7	0x3dc3e18c	0.09564504
8	0x3dcbf536	0.0995888
9	0xbd8fb3c4	-0.070167094
10	0xbcfb54d0	-0.03068009
11	0x3dc15e70	0.09441841
12	0x3de074d2	0.10959782
13	0x3d2a138e	0.041522555
14	0x3db2bf1c	0.087278575
15	0x3c8e9013	0.017402684
16	0x3dfcb110	0.123384595
17	0x3d1dff14	0.03857334
18	0xbc643327	-0.013928211
19	0xbd4b45c0	-0.049627066
20	0xbcead1e2	-0.028664533
21	0x3da97643	0.0827451
22	0x3ce54061	0.0279848
23	0xbd0655d5	-0.0327967
24	0x3dc2747f	0.09494876
25	0x3db8e999	0.0902893
26	0xbe178933	-0.14798431
27	0xbd37ce4f	-0.044874486
28	0xbc3cf0cd	-0.011532021
29	0x3d9807ce	0.074233636
30	0x3dcc20d3	0.09967198
31	0xbd11d62a	-0.035604633
32	0x3dee4e13	0.11635985
33	0x3b9da4c5	0.004810902
34	0xbe0cd78b	-0.13754098
35	0x3c646ef1	0.013942466
36	0x3dda1c01	0.106498726
37	0x3d71371b	0.058890443
38	0x3d8c11ee	0.06839357
39	0x3e097054	0.13421756
40	0x3e42f574	0.19038945
41	0x3dfce8ea	0.12349112
42	0x3ba8d22d	0.005152008
43	0x3c9370ce	0.017998125
44	0xbdc85d0b	-0.097833715
45	0x3db77daa	0.089595154
46	0x3de262a0	0.110539675
47	0x3e269d27	0.16270886
48	0x3cc349a0	0.023838818
49	0x3da20f07	0.079130225
50	0x3dbc0585	0.0918074
51	0x3db9fd30	0.09081495
52	0xbda38d3d	-0.079859234
53	0x3d43bdc8	0.04778841
54	0xbd86de46	-0.06585364
55	0x3e2611b3	0.16217689
56	0x3d7ef4dc	0.062245235
57	0x3e08614a	0.13318363
58	0x3c485281	0.012226702
59	0x3e6576e5	0.22408636
60	0x3df69479	0.12040038
61	0x39786e51	0.00023692219
62	0xbd016941	-0.03159452
63	0x3e2d3fc0	0.1691885
64	0xbde92ace	-0.113851175
65	0x3d4a22d5	0.049349625
66	0x3d5c551c	0.053792104
67	0x3cc8d151	0.024513872
68	0x3ddf9d7c	0.1091871
69	0x3e42d430	0.19026256
70	0xbbca561e	-0.0061748167
71	0x3df9bb36	0.12193911
72	0xbc519d7b	-0.012793894
73	0x3db85f20	0.09002519
74	0xbcd20174	-0.025635459
75	0x3d67e02e	0.05661028
76	0x3de297c3	0.110641025
77	0x3d740be1	0.05958164
78	0x3d394502	0.045231827
79	0xbd428928	-0.047494084
80	0x3de45a8f	0.11150085
81	0x3ccd0773	0.025027966
82	0xbcd6bdf9	-0.026213633
83	0x3dd0ef82	0.102019325
84	0x3d12a2ba	0.03579972
85	0xbd101965	-0.035180468
86	0xbd087d0e	-0.033322386
87	0x3ce9ee9f	0.028556166
88	0xbcb1df7d	-0.021713013
89	0x3df22a8b	0.11824521
90	0x3d39ba4b	0.04534368
91	0x3dbde561	0.09272266
92	0x3cb62401	0.022233965
93	0x3dcb2565	0.09919242
94	0x3d6fea13	0.05857284
95	0x3ab78ae8	0.0014003189
96	0x3dd83871	0.1055764
97	0x3e1dd083	0.15411572
98	0xbd582b5e	-0.052775733
99	0x3d4eacc8	0.050457746
100	0xbd8cba1e	-0.068714365
101	0x3e180819	0.14846839
102	0x3d83de0a	0.06438835
103	0x3ca273ef	0.019830672
104	0xbdb895a8	-0.0901292
105	0x3db12ff9	0.08651728
106	0xba87e1a2	-0.0010366926
107	0xbd2ebaaa	-0.042658485
108	0x3da8b721	0.08238054
109	0x3dcd18f9	0.10014529
110	0xbb978b3f	-0.0046247537
111	0x3e02bfcb	0.12768476
112	0x3cf6b4b6	0.030115467
113	0x3d2466a5	0.040136952
114	0x3e04885a	0.12942639
115	0x3e476015	0.19470246
116	0xbd27543e	-0.040851824
117	0x3d9fbf7a	0.07800193
118	0x3daad3d1	0.08341182
119	0xbc5494c8	-0.012974925
120	0xbd3e2cc8	-0.046429425
121	0x3e0b9ff0	0.1363523
122	0x3dd5bebd	0.10436771
123	0x3bdd95f4	0.0067622606
124	0x3df2c630	0.118542075
125	0x3d8033c0	0.062598705
126	0x3e33784a	0.17526355
127	0xbd5f24bb	-0.05447839

value_stream.0.weight f4 [64, 128]
0	0xbd47d77f	-0.048789497
1	0xbcc1ca0d	-0.023655916
2	0x3dc33b80	0.09532833
3	0x3d39d06b	0.04536478
4	0xbe9916f4	-0.29900324
5	0xbd073ffe	-0.033020012
6	0x3d8a81bb	0.067630254
7	0x3d8f53cf	0.06998407
8	0x3c41539f	0.011799722
9	0xbb4a3c07	-0.0030858533
10	0xbde4098a	-0.11134632
11	0x3cf84f8a	0.030311365
12	0xbcb2b6d3	-0.021815693
13	0xbd8c29b4	-0.06843892
14	0x3d37281f	0.044715997
15	0xbd83d8af	-0.064378135
16	0x3e2e0cdd	0.16997094
17	0x3dd4d2dd	0.103917815
18	0xbcc2ffd9	-0.023803638
19	0xbd8a6734	-0.06757966
20	0xbd5cc98d	-0.05390315
21	0x3d51bb24	0.05120386
22	0xbd26ba49	-0.040705
23	0xbd01c18f	-0.031678732
24	0xbd496fc4	-0.049178854
25	0x3d781574	0.060567334
26	0xbdba139e	-0.09085773
27	0x3e0afc5e	0.13572833
28	0x3c0e27a8	0.008676447
29	0x3d606d44	0.054791704
30	0x3dc13221	0.094333895
31	0xbde723ee	-0.1128615
32	0xbd01720f	-0.031602915
33	0x3dc35d30	0.095392585
34	0x3c694410	0.014237419
35	0x3e0ccb00	0.13749313
36	0xbd4f1f68	-0.05056706
37	0x3b85db60	0.0040849894
38	0xbd6483a1	-0.055789594
39	0x3db3a22d	0.08771167
40	0x3d630d34	0.055432513
41	0x3cc661fa	0.02421664
42	0x3d57e902	0.052712448
43	0xbcb445a5	-0.022005865
44	0xbd723fac	-0.059142753
45	0xbda90a27	-0.082538895
46	0x3dd3e787	0.10346895
47	0x3c9c30ee	0.0190663
48	0xbd7d7396	-0.06187781
49	0x3c8dfc80	0.017332315
50	0xbd6cdb19	-0.057826135
51	0x3d73db6b	0.059535425
52	0xbc764803	-0.015031817
53	0xbd03fbcb	-0.03222255
54	0xbe1df384	-0.15424925
55	0xbdf31b86	-0.11870484
56	0xbe76414e	-0.2404835
57	0x3d1589db	0.036508422
58	0xbd1bd5d7	-0.03804573
59	0x3da6ef28	0.08151084
60	0xbe4c45d3	-0.19948511
61	0x3c162127	0.009163178
62	0x3b704e4b	0.003666776
63	0x3b2b46dd	0.0026134767
64	0xbdb09085	-0.08621315
65	0xbd01a752	-0.03165371
66	0xbd3c240e	-0.045932822
67	0xbd5b12f7	-0.053484883
68	0xbc5b6b93	-0.013392347
69	0x3cc36d7a	0.023855913
70	0x3d99e11f	0.075136416
71	0xbda6b5ff	-0.08140182
72	0xbd758fc2	-0.05995155
73	0xbdde6c3c	-0.10860488
74	0x3dc5b8fe	0.09654425
75	0xbd0f4c85	-0.034985084
76	0xbd9402d2	-0.072271004
77	0xbc80b360	-0.015710533
78	0x3db6e708	0.089307845
79	0x3cc9faa3	0.024655646
80	0xbdbda712	-0.09260382
81	0xbe690418	-0.22755468
82	0xbd38064e	-0.044927888
83	0xbcec7f4d	-0.028869295
84	0xbad20773	-0.0016023949
85	0x39fbf11b	0.00048054088
86	0x3d232500	0.039830208
87	0xbd51d64a	-0.051229753
88	0xbc9a5383	-0.01883865
89	0xbd46ec76	-0.04856535
90	0xbac48a93	-0.0014994912
91	0xbd0e4baf	-0.034740146
92	0x3d5c5041	0.053787474
93	0x3deffe5f	0.11718439
94	0xbb5be49a	-0.0033553005
95	0x3d9582d0	0.07300341
96	0x3d323bdf	0.04351413
97	0xbdacdfa3	-0.08441093
98	0xbcedcdb8	-0.029028758
99	0xbd20df26	-0.03927531
100	0x3d9850df	0.074373
101	0x3dc6c007	0.09704595
102	0x3e1da457	0.15394722
103	0xbb8e2fdd	-0.004339202
104	0xbd03abd2	-0.032146282
105	0xbda0e28c	-0.078557104
106	0xbe183faa	-0.14868036
107	0xbd84c326	-0.06482534
108	0x3d70a45d	0.0587505
109	0x3dadd391	0.08487619
110	0x3daefb0d	0.08543978
111	0xbd842d97	-0.06454008
112	0xbb54523a	-0.0032397644
113	0x3d481d19	0.048855875
114	0xbdd5d833	-0.10441627
115	0xbdb097f3	-0.08622732
116	0xbe14a5a1	-0.14516307
117	0xbdeebe43	-0.11657383
118	0x3d630ff4	0.055435136
119	0x3d46f776	0.04857584
120	0x3d170938	0.036874026
121	0x3cacdd6e	0.02110168
122	0xbc764fd0	-0.015033677
123	0x3d7dd8d3	0.061974358
124	0x3d9cc203	0.07654192
125	0x3ce9b938	0.028530702
126	0x3cd8cc52	0.026464615
127	0xbe25cf3c	-0.16192335
128	0x3d87cbdc	0.0663068
129	0x3d9cbffb	0.07653805
130	0xbccb7762	-0.0248372
131	0x3d1633af	0.036670383
132	0xbe27e4c7	-0.16395865
133	0xbc6eb5d4	-0.014569718
134	0x3d23ec81	0.04002047
135	0x3c93311f	0.017967759
136	0x3c3d520c	0.011555206
137	0x3dfcb6ee	0.123395786
138	0xbc1d3f0d	-0.009597552
139	0xbd3d1a8c	-0.046167895
140	0xbc9c9a94	-0.019116677
141	0xbe3c5264	-0.18390805
142	0x3dca58a6	0.098801896
143	0xbd1e3e35	-0.038633544
144	0xbc60da66	-0.013723945
145	0x3da86c1b	0.082237445
146	0x3e0908e7	0.13382302
147	0xbdc4e442	-0.09613849
148	0xbcee8aad	-0.02911886
149	0xbcb778a9	-0.022396402
150	0xbe1f9b58	-0.15586603
151	0x3cfb28d1	0.030659111
152	0xbd85df3c	-0.06536719
153	0xbdf8364d	-0.12119732
154	0xbe0dd5ce	-0.13851091
155	0x3dc452a2	0.095860735
156	0x3e088e09	0.13335432
157	0xbcec3cea	-0.02883764
158	0x3c1ffecc	0.009765338
159	0xba97549c	-0.0011545601
160	0x3d29c194	0.041444376
161	0xbcc658f3	-0.024212336
162	0x3ddced2d	0.10787425
163	0x3dd4282b	0.10359224
164	0xbdbf5bdb	-0.09343692
165	0x3d7377c1	0.059440378
166	0xbc8fe38f	-0.017564563
167	0x3da33072	0.079682246
168	0xbcb3b4b0	-0.021936744
169	0xbdb2caee	-0.08730112
170	0xbd8bd768	-0.06828195
171	0x3d5b06c2	0.05347324
172	0x3d79cffe	0.060989372
173	0xbc18d731	-0.009328649
174	0x3d8bc299	0.06824226
175	0x3c6b7399	0.014370822
176	0x3d21cd92	0.039502688
177	0x3d6f3e00	0.058408737
178	0x3c72e401	0.014824868
179	0xbc4451af	-0.0119823655
180	0x3dc7f31a	0.09763165
181	0x3db7fe98	0.08984107
182	0xbd9c9232	-0.07645072
183	0xbe44feec	-0.1923787
184	0xbd42f9ef	-0.047601636
185	0x3b7c8a44	0.0038534561
186	0xbd642233	-0.055696677
187	0xbd17cf28	-0.037062794
188	0xbe95c19d	-0.29249278
189	0xbba1b4ff	-0.0049349065
190	0x3d166395	0.036716063
191	0x3de4552e	0.11149059
192	0xbc9c39e2	-0.01907057
193	0xbd00abce	-0.031413846
194	0xbde1385f	-0.1099708
195	0xbdf5a9a4	-0.11995247
196	0xbe497de2	-0.19676927
197	0xbd652f42	-0.05595327
198	0x3d617391	0.055041853
199	0xbd813373	-0.06308641
200	0xbcbd769d	-0.023127848
201	0xbda8d967	-0.08244591
202	0x3d6e0820	0.058113217
203	0x3c1d03a6	0.009583389
204	0x3c8c4e29	0.017127113
205	0xbda4e4ff	-0.0805149
206	0xbe3981b0	-0.18115878
207	0xbe0ec90c	-0.13943881
208	0xbd1636ef	-0.036673483
209	0xbe0d41e4	-0.13794667
210	0x3ceb76ac	0.02874311
211	0x3cadca54	0.021214642
212	0x3e0c0133	0.13672332
213	0xbd7eedb1	-0.0622384
214	0xbe288f1d	-0.16460843
215	0xbd442386	-0.04788544
216	0xbcab3d30	-0.0209032
217	0xbd1c6c69	-0.038189325
218	0x3db51206	0.08841328
219	0x3e133b96	0.14378199
220	0x3d34462c	0.044012234
221	0xbb817511	-0.003950723
222	0x3dfe4b9b	0.12416764
223	0xbd58ba53	-0.052912068
224	0xbd3d964e	-0.04628592
225	0xbda64293	-0.08118167
226	0x3dac842f	0.084236495
227	0x3dae9b13	0.08525672
228	0x3d46ca5f	0.04853284
229	0xbcbd6b9d	-0.023122603
230	0xbb4a8db3	-0.0030907213
231	0xbe3577e9	-0.17721523
232	0xbde8764c	-0.11350688
233	0x3d20bffb	0.039245587
234	0xbdf765ce	-0.120799646
235	0xbe12e613	-0.14345579
236	0xbe51d02e	-0.2048957
237	0x3df9d1c2	0.12198211
238	0x3d950ed7	0.07278221
239	0x3cb1f875	0.021724919
240	0x3de61655	0.11234728
241	0xbdad319b	-0.08456727
242	0xbd00c752	-0.031440087
243	0xbda9cc77	-0.08290952
244	0xbce230ea	-0.027611215
245	0xbe90e90c	-0.283028
246	0xbd671de7	-0.056425
247	0xbd86beb6	-0.06579344
248	0x3dccd7d5	0.10002104
249	0xbd327543	-0.04356886
250	0xbcf0ed00	-0.029409885
251	0xbe0be268	-0.13660586
252	0xbe13f97d	-0.14450641
253	0xbe02d2cc	-0.12775725
254	0xbc4ebea0	-0.012618691
255	0x3d800574	0.0625104

value_stream.0.bias f4 [64]
0	0x3db5abbb	0.088706456
1	0x3c874f65	0.01651735
2	0xbd141c35	-0.036159713
3	0xbdb703de	-0.089362845
4	0x3d4bffef	0.049804624
5	0xbb62ab10	-0.0034586824
6	0x3b353893	0.002765213
7	0x3cd4080c	0.025882743
8	0x3c9a259f	0.018816767
9	0x3920beac	0.0001532982
10	0x3d31b865	0.043388743
11	0x3ddf167f	0.10892963
12	0xbc8e2d53	-0.017355597
13	0x3d687d19	0.056759927
14	0x3d158bcc	0.036510274
15	0xbcff326b	-0.03115197
16	0x3c025b0b	0.007956277
17	0x3bdb112a	0.0066853957
18	0x3cf567e0	0.029956758
19	0x3cac9604	0.021067627
20	0x3d1aa18b	0.037751716
21	0x3c7e6fe3	0.015529606
22	0x3df9df43	0.12200787
23	0x3cd9bd9e	0.026579674
24	0x3d1b4352	0.037906
25	0x3e016b45	0.12638576
26	0x3d96b12f	0.07358014
27	0xbd88f3a3	-0.06687095
28	0x3d425003	0.047439586
29	0x3e001e8d	0.12511654
30	0x3c1c49bc	0.009539064
31	0x3ddeee47	0.108852915
32	0x3cdebf8e	0.02719095
33	0xbc88ec94	-0.016714372
34	0x3c427060	0.011867613
35	0x3df4c684	0.11951926
36	0x3d6121be	0.05496382
37	0xbb40e412	-0.0029432815
38	0x3c2bf7ba	0.010496074
39	0x3d47b59b	0.048757177
40	0x3d216cd0	0.039410412
41	0x3dbf70e8	0.09347707
42	0x3d3451ab	0.044023197
43	0x3d4f8712	0.050665922
44	0xbbd54473	-0.006508404
45	0x3db1a129	0.08673317
46	0x3d66b66e	0.056326322
47	0x3d51cd2e	0.051221065
48	0x3d50953d	0.050923575
49	0x3d818402	0.063240066
50	0x3c1e2270	0.009651765
51	0x3b566912	0.0032716435
52	0x3d903b68	0.07042581
53	0x3dc6c941	0.09706355
54	0x3dc9f4ce	0.09861146
55	0xbcd47f2b	-0.025939545
56	0x3d5eedf6	0.054426156
57	0xbd44af62	-0.04801882
58	0xbd278d04	-0.040905967
59	0x3d1819d7	0.037134018
60	0xbd35ed03	-0.044415485
61	0xbdc9229b	-0.098210536
62	0x3e0a264e	0.13491175
63	0xbd2a3f33	-0.041564178

value_stream.2.weight f4 [1, 64]
0	0x3e60c1fe	0.21949002
1	0x3e917aa9	0.28413895
2	0x3d2c05e0	0.04199779
3	0x3e09444c	0.1340496
4	0xbe5007ca	-0.20315471
5	0x3d5b97ce	0.05361157
6	0x3f0de6fc	0.5543058
7	0x3e2f5245	0.17121227
8	0xbe764f9a	-0.24053803
9	0xbe16b632	-0.1471794
10	0x3c1f7d5a	0.009734476
11	0x3ea57736	0.32317513
12	0x3e9d773b	0.30755028
13	0xbe72c72c	-0.2370879
14	0x3ddb19f3	0.10698309
15	0xbe36de9d	-0.17858358
16	0x3ef23a33	0.47310027
17	0xbe382d09	-0.1798593
18	0x3eb5147c	0.3536719
19	0x3f0e2c14	0.5553601
20	0x3eef442b	0.46731696
21	0x3f2416c4	0.6409724
22	0x3f1ecbe5	0.6202987
23	0xbe5d6e8d	-0.21624203
24	0xbe1b93e1	-0.1519313
25	0xbe5f27f1	-0.2179258
26	0xbe1b52eb	-0.1516835
27	0x3c9538f3	0.018215632
28	0x3f35aec8	0.7096982
29	0xbe6e437c	-0.23267931
30	0xbe444a39	-0.19168939
31	0x3efe8c56	0.49716443
32	0x3d005c10	0.031337798
33	0xbe553b2f	-0.20823358
34	0xbe177e35	-0.14794238
35	0x3f06cc75	0.52655727
36	0x3eeb4d4f	0.4595742
37	0xbe65bdab	-0.22435634
38	0x3c77454e	0.015092207
39	0x3d3ccfe8	0.046096712
40	0xbe6999e9	-0.22812618
41	0x3ec8a782	0.39190298
42	0x3eb47cf1	0.35251573
43	0xbe6f196a	-0.23349538
44	0x3cc0d805	0.023540506
45	0xbe2a2c83	-0.16618542
46	0xbe31b46f	-0.17353986
47	0x3e5f5d59	0.21812953
48	0xbe229885	-0.15878494
49	0x3d105e69	0.035246287
50	0xbe3f493c	-0.1868028
51	0xbe83abaf	-0.25716922
52	0x3f0fb681	0.56137854
53	0x3f0a1367	0.53935856
54	0xbe6531d9	-0.22382297
55	0xbe1b293a	-0.15152445
56	0x3de2f160	0.11081195
57	0x3f174b5b	0.5909936
58	0x3ed04781	0.40679553
59	0x3d884e25	0.0665553
60	0x3f0c046b	0.5469424
61	0xbe97d041	-0.29651073
62	0x3f1e61b2	0.6186782
63	0x3ef70f4e	0.48253864

advantage_stream.0.weight f4 [64, 128]
0	0xbd2fe782	-0.042945392
1	0x3d3b57a2	0.04573787
2	0x3d514b82	0.0510974
3	0xbd0bc3d0	-0.03412229
4	0xbd845fe6	-0.06463604
5	0xbc9f6590	-0.019457608
6	0xbac93100	-0.0015349686
7	0xbcbafb30	-0.022824854
8	0xbda83932	-0.08214034
9	0xbdb10675	-0.0864381
10	0x3b3e6b60	0.00290557
11	0xbdb019c2	-0.08598663
12	0xbd17719d	-0.036973584
13	0xbd102c50	-0.03519851
14	0x3ceb9234	0.028756239
15	0xbca480a0	-0.020080864
16	0x3a704c00	0.00091665983
17	0xbda5b6e5	-0.08091525
18	0x3daf93bd	0.08573101
19	0xbd02e88a	-0.031960048
20	0xbd01333d	-0.031543005
21	0x3ab75d00	0.0013989508
22	0xbd261197	-0.04054412
23	0x3d3b6eb2	0.045759864
24	0x3c95504c	0.018226765
25	0xbd52b12a	-0.051438488
26	0x3d6bf982	0.057610996
27	0x3be339d0	0.006934382
28	0xbcebc70e	-0.02878144
29	0xbd642c83	-0.055706512
30	0x3cd20ee0	0.025641859
31	0x3cc1cad4	0.023656286
32	0xbc887d30	-0.016661257
33	0x3d5e5a0e	0.0542851
34	0xbc8e22d0	-0.017350584
35	0xbd810ef9	-0.06301684
36	0xbc3bda08	-0.011465557
37	0xbd2fb9bf	-0.04290175
38	0xbc581330	-0.013188168
39	0x3da81021	0.08206201
40	0x3d7c754e	0.061635308
41	0x3d1e0dce	0.038587384
42	0xbc9fcb24	-0.019506045
43	0x3d2f8096	0.04284724
44	0x3d42df1e	0.047576062
45	0xbd4444c6	-0.04791715
46	0x3d660f7a	0.056167103
47	0xbcc17c04	-0.023618706
48	0xbd727827	-0.059196617
49	0xbc8cc260	-0.017182529
50	0xbdaf9572	-0.08573426
51	0x3d854ad5	0.06508414
52	0x3d656c2e	0.05601137
53	0x3d61f17a	0.05516193
54	0xbd98e38e	-0.074652776
55	0x3d661076	0.056168042
56	0xbd9ac2fe	-0.07556723
57	0x3cd8f254	0.026482739
58	0x3d50b836	0.050956927
59	0xbd66eee9	-0.056380186
60	0xbbce7890	-0.0063009933
61	0x3cc030c8	0.02346076
62	0x3c649138	0.0139506385
63	0x3cefa3c4	0.029252894
64	0x3c40ecf8	0.011775248
65	0x3d2eb9a6	0.042657517
66	0x3cadb448	0.021204129
67	0x3d224e16	0.03962525
68	0xbdb1c341	-0.0867982
69	0x3c939834	0.018016912
70	0xbd8268ae	-0.06367622
71	0x3d0b0fa8	0.033950478
72	0x3d2cb952	0.042168923
73	0xbc4df830	-0.01257138
74	0xbdac8dc6	-0.08425479
75	0xbdae0443	-0.084969066
76	0xbca99e98	-0.020705506
77	0xbc74eeb0	-0.014949486
78	0x3bece600	0.0072295666
79	0x3be69210	0.007036455
80	0xbcade4dc	-0.021227293
81	0xbd431546	-0.04762771
82	0xbd96c99f	-0.07362675
83	0xbd21d65c	-0.03951107
84	0x3d156b1c	0.0364791
85	0xbd46bce5	-0.048519988
86	0xbcdc3254	-0.026879467
87	0x3cc07244	0.023491986
88	0x3d079566	0.03310146
89	0xbd59e8f2	-0.05320067
90	0x3d98642f	0.074409835
91	0xbd6a99b2	-0.05727548
92	0x3dae0877	0.08497708
93	0x3d78ea62	0.0607704
94	0x3db26a03	0.087116264
95	0x3c0481f0	0.00808762
96	0xbcca3580	-0.024683714
97	0x3d7f2bca	0.06229762
98	0x3ce4f16c	0.02794715
99	0xbd3e3fcd	-0.046447564
100	0xbc110f50	-0.008853748
101	0x3d2a8366	0.041629218
102	0xbd35cdf7	-0.044385877
103	0x3d86f87b	0.06590363
104	0x3d770976	0.060311757
105	0xbd843e1a	-0.064571574
106	0xbd80bd3b	-0.06286093
107	0xbd822ba0	-0.06355977
108	0x3d87ff63	0.06640508
109	0xbd9f3ca4	-0.07775238
110	0x3c964410	0.018343002
111	0x3d96ac2d	0.07357059
112	0xbd83ecb6	-0.064416334
113	0xbd7c5ebe	-0.06161379
114	0xbbadcd90	-0.005304046
115	0xbd0fa3dc	-0.035068378
116	0x3bdc2850	0.006718673
117	0x3d855137	0.06509631
118	0xbdaf72a3	-0.08566787
119	0x3db33e1d	0.087520815
120	0xbbf7eb70	-0.007565908
121	0xbc6881c8	-0.0141910985
122	0xbd016e0a	-0.031599082
123	0xbbe3eaa0	-0.0069554597
124	0xbc9ba84c	-0.019001149
125	0x3d321e9a	0.043486215
126	0xbcf39b86	-0.029737245
127	0x3b89d050	0.004205741
128	0xbc799205	-0.015232568
129	0x3d97f060	0.07418895
130	0x3d7a8797	0.061164465
131	0xbbe17fb2	-0.0068816775
132	0xbd9cc51a	-0.07654782
133	0x3dd2fa9b	0.103017054
134	0xbd481a6d	-0.048853327
135	0xbd8d5a81	-0.06902028
136	0xbd7aadad	-0.061200786
137	0x3d80ab29	0.06282646
138	0xbdd2ec5e	-0.1029899
139	0xbd30d343	-0.043170225
140	0x3ce40056	0.027832191
141	0x3d86db2c	0.065847725
142	0xbc50fe38	-0.012755923
143	0xbd84cd2c	-0.06484446
144	0x3ccaf775	0.0247762
145	0xbe067e07	-0.13134013
146	0x3d13fad9	0.0361279
147	0x3e11135c	0.14167541
148	0xbdba443f	-0.09095048
149	0xbd9b6b5a	-0.07588835
150	0xbc11cc98	-0.008898877
151	0xbdb8093c	-0.08986136
152	0xbce9d346	-0.028543126
153	0x3db31f2a	0.087461784
154	0xbb6c1211	-0.003602151
155	0x3ba520d8	0.0050393157
156	0x3ba0a589	0.004902546
157	0x3bc44139	0.0059892205
158	0xbca7993e	-0.020458814
159	0x3e6a82c8	0.22901452
160	0x3c72628b	0.014794002
161	0x3cf04721	0.029330792
162	0x3dc356a2	0.09538008
163	0xbde0b50b	-0.10972031
164	0x3b3a5e06	0.002843739
165	0xbd934a9e	-0.071919665
166	0xbcb2633b	-0.021775832
167	0x3d05950f	0.032612856
168	0xbd3fd355	-0.0468324
169	0xbda547f9	-0.08070368
170	0x3d932169	0.07184107
171	0x3d21fc72	0.03954739
172	0x3ca24ef3	0.019813037
173	0xbd9f46b8	-0.077771604
174	0x3c928ed0	0.017890364
175	0xbca06855	-0.019581
176	0xbbc3e8e0	-0.0059786886
177	0x3dcc995d	0.09990189
178	0xbb3e0212	-0.0028992933
179	0xbd0e078c	-0.034675166
180	0x3bc30da8	0.0059525557
181	0x3d2d87f5	0.042365987
182	0xbda6aa2a	-0.08137925
183	0x3d58e798	0.05295524
184	0x3bca7f87	0.006179753
185	0x3dca81a8	0.09888011
186	0x3bd513cf	0.0065026055
187	0xbd7dc00a	-0.06195072
188	0xbde3b851	-0.1111914
189	0xbd8838b9	-0.06651444
190	0x3d3f9b08	0.04677871
191	0xbcf8f6e8	-0.030391172
192	0xbd1529c6	-0.03641679
193	0x3bd3a477	0.0064588147
194	0xbe162967	-0.14664231
195	0x3e332f61	0.17498542
196	0x3a151d38	0.0005688253
197	0xbc279b41	-0.0102298865
198	0xbd14c6df	-0.03632247
199	0xbdaf3ee0	-0.08556914
200	0xbdb0943f	-0.08622026
201	0x3e0152cd	0.12629242
202	0xbd0abe7d	-0.03387307
203	0xbbeca9ec	-0.0072224047
204	0xbb486156	-0.0030575595
205	0x3d94f9ce	0.07274209
206	0x3dce844b	0.10083827
207	0x3d20c474	0.039249852
208	0x3d6ab4d1	0.057301346
209	0xbb5d070c	-0.0033726124
210	0x3da1f824	0.07908657
211	0xbd39c4b2	-0.0453536
212	0xbdac931a	-0.08426495
213	0x3d82dfd5	0.06390349
214	0x3b8066cb	0.003918504
215	0x3d375024	0.044754162
216	0x3d9ab731	0.07554472
217	0xbb58203c	-0.0032978198
218	0xbc368053	-0.011138993
219	0xbd410b34	-0.047129825
220	0xbd77e6ce	-0.060522847
221	0x3bdc5e6c	0.006725123
222	0xbd847c6f	-0.06469046
223	0x3c91da67	0.017804338
224	0x3d9c8402	0.07642366
225	0xbd365a49	-0.044519696
226	0xbd831e55	-0.0640227
227	0x3da59fc9	0.08087117
228	0x3d8899e6	0.06669979
229	0x3c574334	0.013138581
230	0xbd18ef07	-0.03733733
231	0x3d3065dd	0.043065894
232	0x3dc49ba9	0.09600002
233	0xbd5c280d	-0.053749133
234	0x3d2dde2c	0.042448208
235	0x3ca497b2	0.020091865
236	0x3ddb91b7	0.10721152
237	0x3dad84fb	0.0847263
238	0x3c28d74c	0.010305237
239	0xbe32ab85	-0.17448242
240	0x3b8567d7	0.0040712166
241	0xbdb3c01e	-0.08776878
242	0xbe4afe6a	-0.19823614
243	0xbd7ba6cf	-0.061438378
244	0x3cfad137	0.03061734
245	0x3d486307	0.048922565
246	0x3dcdfc79	0.10057921
247	0x384469de	4.6828638e-05
248	0x3c0602c6	0.008179372
249	0xbc7ad6b3	-0.015309977
250	0xbda4592a	-0.08024819
251	0x3e01547d	0.12629886
252	0xbe0d866e	-0.13820812
253	0x3d8b5ce7	0.06804829
254	0xbd481098	-0.04884395
255	0x3d0387e9	0.032112036

advantage_stream.0.bias f4 [64]
0	0xbda7e71a	-0.08198376
1	0x3ddbed3a	0.10738607
2	0x3c70ca10	0.014696613
3	0x39bcc2fe	0.00036003435
4	0xbd9e4314	-0.07727638
5	0x3b6b6bd4	0.0035922425
6	0x3d529ccb	0.05141906
7	0x3d01b69d	0.031668294
8	0x3b0386fc	0.002006947
9	0x3de65d97	0.112483196
10	0x3dd12754	0.10212579
11	0x3dbf5da5	0.09344033
12	0xbc952783	-0.018207317
13	0xbd37f8f3	-0.04491515
14	0x3deee5d6	0.116649315
15	0xbd8491f2	-0.06473149
16	0xbbfecb60	-0.007775709
17	0x3c9951d1	0.01871577
18	0xbc7a002f	-0.015258833
19	0x3d7a18dd	0.061058868
20	0xbd8045be	-0.06263302
21	0x3d9e19cc	0.07719764
22	0xbd87be5c	-0.06628105
23	0xbdfab029	-0.12240631
24	0x3c96810d	0.018372083
25	0x3debc811	0.11512769
26	0x3d6055ae	0.05476921
27	0xbd276b88	-0.040874034
28	0x3d5327fd	0.051551808
29	0xbc19d55d	-0.009389249
30	0xbb8459cd	-0.0040390254
31	0x3de64850	0.11244261
32	0xbdb8311a	-0.089937404
33	0x3d8fc46d	0.07019887
34	0x3c156331	0.009117887
35	0x3d8db1ec	0.069187015
36	0xbd98e872	-0.074662104
37	0x3bd91d06	0.0066257743
38	0x3d22328f	0.039598998
39	0xbb4d090f	-0.0031285917
40	0xbddd6f1c	-0.10812208
41	0x3d14ddd9	0.036344383
42	0x3c1f1615	0.009709855
43	0xbcfdc637	-0.030978305
44	0x3c481ed7	0.012214384
45	0xbd2ba7ed	-0.041908193
46	0xbc254102	-0.0100863
47	0xbda9ae61	-0.08285213
48	0xbd04426e	-0.032289915
49	0x3cb3d4fe	0.021952149
50	0xbce5fa03	-0.028073316
51	0x3d8d4a26	0.06898908
52	0x3c547ff8	0.012969963
53	0xbd20b87f	-0.03923845
54	0xbd5b0904	-0.053475395
55	0xbd9a4c25	-0.07534055
56	0x3d3c54b8	0.04597923
57	0xbd0556bf	-0.03255343
58	0xbd3eb260	-0.04655683
59	0xbd53f3da	-0.051746227
60	0x3df8d153	0.121493004
61	0xbc1d3a95	-0.009596487
62	0x3d07352a	0.033009686
63	0x3d28bec6	0.04119756

advantage_stream.2.weight f4 [3, 64]
0	0x3d4eee88	0.05052045
1	0x3e53d05a	0.20684949
2	0xbccef1f0	-0.02526185
3	0x3de9d7c1	0.11418105
4	0x3bfd8eee	0.007737986
5	0xbd770ca4	-0.06031479
6	0x3d9f13c6	0.07767443
7	0xbd0bd256	-0.03413614
8	0x3d5a49a3	0.05329288
9	0xbe408fbd	-0.18804832
10	0x3e2d23bb	0.16908161
11	0xbdd27a62	-0.10277249
12	0xbc703719	-0.014661574
13	0x3dc10d5b	0.094263755
14	0xbad9cd24	-0.0016616923
15	0xbe0e7cfd	-0.13914867
16	0x3e0baad5	0.13639386
17	0x3dc74604	0.09730151
18	0xbe8ebd2f	-0.2787871
19	0xbe687365	-0.2270027
20	0x3dbff740	0.09373331
21	0xbe6b4e9f	-0.2297921
22	0x3e50c230	0.20386577
23	0xbe132454	-0.14369327
24	0x3d60f107	0.05491736
25	0xbecc6a7d	-0.39924994
26	0x3e3d20a0	0.18469477
27	0x3dc58813	0.09645095
28	0xbd8d6d03	-0.06905558
29	0xbe88c37f	-0.26711652
30	0xbe074333	-0.13209228
31	0x3ebca1a9	0.36842087
32	0x3bc61c9f	0.0060458924
33	0xbde2e539	-0.11078877
34	0x3e52e7fb	0.20596306
35	0xbec45f92	-0.38354164
36	0x3d8797ac	0.06620726
37	0x3deeffd3	0.11669888
38	0xbe1fbcec	-0.15599412
39	0x3ce6ca99	0.028172778
40	0x3e3bc19e	0.18335578
41	0xbea97e9e	-0.33104414
42	0x3eac4bfb	0.33651718
43	0x3db0090f	0.08595478
44	0x3d9dee57	0.07711475
45	0xbdd8833a	-0.105719045
46	0x3e092846	0.1339427
47	0x3dabca62	0.08388211
48	0xbca6e520	-0.020372927
49	0xbea8025a	-0.32814294
50	0xbe2b22c4	-0.16712481
51	0xbe559d57	-0.20860802
52	0xbdc56b90	-0.096396565
53	0x3d8a59e5	0.06755427
54	0x3e8e9cce	0.27854007
55	0xbe890830	-0.2676406
56	0xbe39bed5	-0.18139203
57	0x3d9bdda7	0.07610636
58	0xbda0b1d6	-0.078464195
59	0x3eb5b22a	0.3548749
60	0xbdfd826c	-0.123783916
61	0x3e1b03ab	0.15138118
62	0x3d25410c	0.040345237
63	0xbe359177	-0.17731272
64	0xbdba282c	-0.090896934
65	0x3c8aa1b4	0.01692281
66	0xbd95c4c9	-0.073129244
67	0xbc62fe31	-0.013854549
68	0xbcebab9a	-0.02876835
69	0x3d9c3d83	0.0762892
70	0x3ddc93de	0.10770391
71	0x3d591cde	0.053006046
72	0x3dc00d97	0.09377592
73	0x3dc4dca3	0.096123956
74	0xbcfdb8a4	-0.030971833
75	0x3d9188c9	0.07106168
76	0xbde0d6cb	-0.109784685
77	0xbd09146e	-0.03346675
78	0xbb3d166d	-0.0028852478
79	0xbdf5b05f	-0.11996531
80	0xbd5a2615	-0.053258974
81	0x3ca80da8	0.020514324
82	0xbcc89608	-0.024485603
83	0xbd6e6d31	-0.0582096
84	0xbd9f4dc0	-0.077785015
85	0xbeafeedb	-0.3436192
86	0xbce48628	-0.027896002
87	0xbe0b6d45	-0.13615902
88	0x3e623636	0.22090992
89	0xbeaab347	-0.33339903
90	0xbda53169	-0.08066065
91	0x3d45fb4e	0.048335366
92	0x3d89f23a	0.06735654
93	0x3d25ba59	0.040460918
94	0x3d901627	0.07035475
95	0xbe2ccc7d	-0.16874881
96	0xbd37b92f	-0.04485434
97	0xbd9b65e8	-0.075877964
98	0xbe18287c	-0.14859194
99	0xbea71723	-0.3263484
100	0x3d8c0128	0.06836158
101	0xbd9b49ed	-0.075824596
102	0xbd1f28e0	-0.03885734
103	0x3c94a083	0.018142944
104	0xbde15fcc	-0.110046
105	0xbd15b807	-0.036552455
106	0xbe247272	-0.16059282
107	0xbbf62503	-0.0075117364
108	0x3dd6c826	0.10487394
109	0x3cc0d551	0.023539217
110	0xbe28b110	-0.16473794
111	0x3d421540	0.047383547
112	0xbe760652	-0.24025849
113	0xbe555b22	-0.20835546
114	0xbc81a629	-0.015826302
115	0x3dd27b70	0.1027745
116	0x3dcdfef8	0.10058397
117	0xbc012941	-0.007883371
118	0x3c091106	0.008365875
119	0x3e84beef	0.2592692
120	0xbd148883	-0.036263
121	0xbe63d929	-0.22250809
122	0x3dcf0375	0.10108081
123	0xbd302488	-0.04300359
124	0xbd8f0e9f	-0.069852106
125	0xbd4bed56	-0.049786888
126	0xbd984668	-0.07435304
127	0xbc7bd4f2	-0.015370594
128	0x3dfc5638	0.123211324
129	0xbe2cd9ec	-0.16880006
130	0xbe37de67	-0.17955934
131	0x3dab1d68	0.08355218
132	0xbe5d6e52	-0.21624115
133	0x3e9b91cb	0.3038467
134	0xbe8da777	-0.27666828
135	0xbda0bf1d	-0.07848952
136	0xbd0a288a	-0.033730067
137	0x3cb5e68e	0.022204664
138	0xbe6a6b82	-0.22892573
139	0x3e33ac8c	0.1754629
140	0x3d7dd861	0.061973933
141	0xbe49dc23	-0.19712882
142	0xbe539765	-0.20663221
143	0x3e23da2c	0.16001195
144	0xbe5936a2	-0.21212247
145	0xbe2e9398	-0.1704849
146	0x3e556b6f	0.20841764
147	0x3e069b98	0.13145292
148	0x3cb427dc	0.021991663
149	0x3e958bff	0.2920837
150	0xbe3eacec	-0.18620652
151	0x3e00030d	0.12501164
152	0xbe904ad5	-0.28182092
153	0x3ea92c98	0.33041835
154	0xbc6cff2b	-0.014465134
155	0xbcf9e3fb	-0.030504217
156	0x3df1c3e9	0.11804945
157	0xbda37422	-0.07981135
158	0xbd2e59dc	-0.042566165
159	0xbe97823c	-0.29591548
160	0x3da612d4	0.0810906
161	0x3d2291e5	0.039689917
162	0xbe33028b	-0.17481439
163	0x3e7d983f	0.24765109
164	0x3d61ba04	0.05510904
165	0xbdbfc22c	-0.09363207
166	0x3e1b3da5	0.15160234
167	0xbe294bbc	-0.16532797
168	0x3d012d5b	0.031537395
169	0x3ea9a092	0.33130318
170	0xbea731af	-0.32655093
171	0xbda71770	-0.08158767
172	0x3dc9c62d	0.09852252
173	0x3e730650	0.23732877
174	0x3d1e2a2b	0.038614433
175	0xbdc2c28d	-0.09509764
176	0x3e15a7c4	0.14614779
177	0x3eba87a6	0.36431617
178	0x3e2ed74a	0.17074314
179	0xbdd15a14	-0.10222259
180	0x3d65d450	0.05611068
181	0x3df6df5c	0.12054321
182	0xbe3d4fa0	-0.18487406
183	0x3c814033	0.015777683
184	0xbc5f2371	-0.01361929
185	0x3e2bd5db	0.16780798
186	0xbd913e6e	-0.07091986
187	0xbe531a26	-0.20615444
188	0x3ce70a39	0.028203117
189	0xbcda7872	-0.02666876
190	0xbd4ce528	-0.050023228
191	0x3e1ad62f	0.15120767

advantage_stream.2.bias f4 [3]
0	0x3c4192c9	0.011814781
1	0xbba98d8c	-0.0051743444
2	0xbdd5c141	-0.10437251
