Acrobot/rainbow_acrobot_v1.pth (torch, 141474 bytes, 11 tensors)

feature.0.weight f4 [128, 6]
0.015802732 0.079405144 0.5429572 -0.05397428 -0.33801025 0.10256717 -0.31977284 0.05336161
-0.19962513 0.34938464 -0.16695945 0.08946442 0.26503393 -0.05676057 -0.15011564 -0.029796528
-0.021063255 0.1495123 0.41881987 -0.36313337 0.5981247 0.23691341 0.41182813 0.32024726
0.028918091 -0.44644105 -0.20868374 -0.069523245 -0.18571995 -0.30764195 -0.1450591 -0.30766463
0.47980335 -0.2863095 0.35522604 0.06164272 -0.06622601 -0.12478961 -0.10804355 -0.056361437
-0.2302733 -0.21997625 -0.012882928 0.2212283 0.30762163 0.33233973 0.2892838 0.16944246
0.55176264 -0.056962978 -0.25103348 0.20708518 -0.20435585 -0.12107864 0.3532859 -0.71801716
-0.34882107 0.8443241 0.012475728 -0.2711054 0.42279765 0.020257894 -0.38589618 -0.30699155
-0.20251285 0.17099053 0.4350504 -0.59962034 -0.01820958 -0.5369555 -0.14481567 0.04031687
0.3798561 -0.39361298 0.38356495 -0.35922298 -0.28059694 0.26223576 0.4730995 0.23558505
0.23155822 0.15242909 -0.18519714 -0.09238768 -0.119778715 -0.21051188 -0.28502688 -0.29603997
0.40676954 0.17336515 -0.37509426 -0.28592706 0.54961413 -0.14146486 0.024483258 -0.031724393
-0.051249117 -0.13009071 0.30446777 -0.21009746 0.14802256 -0.28450492 0.16413118 -0.3991801
-0.5188364 -0.24374913 -0.22284728 -0.34672737 0.24659175 0.5479497 0.3397702 -0.51259804
0.0065631 0.17847188 -0.0561629 -0.18745486 -0.27051106 0.040263 -0.39057854 -0.10626677
0.08973869 0.6762897 0.18628037 -0.62442183 -0.2232529 0.398204 -0.28336096 0.17908616
-0.46397275 0.28474042 0.14296159 -0.20832083 0.42756718 0.038126055 -0.15666988 -0.38921207
0.06295444 -0.21719737 0.10130722 -0.5536733 -0.15892416 0.6672779 0.10916147 -0.081174925
0.39717394 -0.40177852 0.24310133 0.39507073 0.21228927 0.1831091 0.1887903 -0.41479862
0.033134047 0.49406597 -0.13989766 0.06545203 0.1019991 0.2134305 0.26255348 -0.061788682
0.05388256 0.07553397 0.06428089 0.51291746 0.43525776 -0.234908 -0.26595417 0.013485987
-0.34733638 -0.4752328 -0.35561398 -0.122411326 0.3636695 -0.16878799 -0.044746622 0.575591
-0.7010503 -0.5097046 -0.025424182 0.24776371 0.19512512 0.3339123 0.23388845 -0.017738067
0.14757854 0.13107228 -0.17969356 0.07861999 -0.24104472 0.055142943 0.24319829 0.015050517
0.4629845 0.52793205 0.14189613 -0.5631591 -0.2373615 0.097573146 -0.36324188 0.34763587
0.5082172 -0.1783174 0.3511979 0.35233784 0.56552726 0.42802414 0.38801792 0.06094096
-0.1471162 0.02524505 0.06756365 -0.46568623 0.22610983 0.027942156 0.21015018 -0.29674855
0.1429019 0.5048484 -0.34954146 -0.2377511 -0.11680071 -0.13475801 0.29672527 0.2630039
-0.21127711 -0.45345977 -0.090998866 -0.054915294 -0.16392483 -0.4597625 0.41296953 -0.22764832
0.04632324 0.040738337 0.41542348 0.28491953 -0.5936719 -0.23159242 0.31360114 0.2652588
0.010182436 -0.25353992 0.06595501 0.022339862 0.30030343 0.28431517 -0.3314454 0.24195185
-0.24608596 -0.24734397 -0.20193662 0.25708815 0.55556333 0.10746225 -0.31868666 0.3826323
00000000: bb74 813c 2a9f a23d 3eff 0a3f 2214 5dbd
00000010: ae0f adbe bd0e d23d 44b9 a3be b491 5a3d
00000020: 886a 4cbe 8be2 b23e 6bf7 2abe 1f39 b73d
00000030: 87b2 873e c57d 68bd eab7 19be d917 f4bc
00000040: d98c acbc c119 193e 8f6f d63e 9eec b9be
00000050: b31e 193f 6e99 723e 23db d23e 73f7 a33e
00000060: a2e5 ec3c ec93 e4be 31b1 55be 3462 8ebd
00000070: 5f2d 3ebe 3f83 9dbe 5f8a 14be 3886 9dbe
00000080: c9a8 f53e 2997 92be 30e0 b53e 147d 7c3d
00000090: 81a1 87bd b291 ffbd f045 ddbd 40db 66bd
000000a0: c4cc 6bbe 7441 61be eb12 53bc ac89 623e
000000b0: 9580 9d3e 6f28 aa3e 021d 943e 5382 2d3e
000000c0: 5140 0d3f 0352 69bd 7687 80be 230e 543e
000000d0: a942 51be 14f8 f7bd e4e1 b43e f9cf 37bf
000000e0: ad98 b2be a025 583f ff66 4c3c 54ce 8abe
000000f0: ef78 d83e e2f3 a53c 2f94 c5be ff2d 9dbe
00000100: 875f 4fbe 2418 2f3e edbe de3e b880 19bf
00000110: 422c 95bc ea75 09bf 8f4a 14be 4d23 253d
00000120: 807c c23e a487 c9be a062 c43e 13ec b7be
00000130: 67aa 8fbe c443 863e 193a f23e 353d 713e
00000140: 991d 6d3e 5f16 1c3e 52a4 3dbe c135 bdbd
00000150: 8b4e f5bd 6d90 57be 0bef 91be 8d92 97be
00000160: 1944 d03e a286 313e 5b0c c0be 0865 92be
00000170: 83b3 0c3f 2adc 10be 1d91 c83c 70f1 01bd
00000180: 98ea 51bd 8036 05be 33e3 9b3e ca23 57be
00000190: 3a93 173e a1aa 91be 0112 283e 5661 ccbe
000001a0: 76d2 04bf 5f99 79be 1432 64be 4086 b1be
000001b0: 8c82 7c3e 6e46 0c3f 5cf6 ad3e a039 03bf
000001c0: 460f d73b 55c1 363e 120b 66bd 2bf4 3fbe
000001d0: 6d80 8abe d1ea 243d e9f9 c7be 64a2 d9bd
000001e0: ebc8 b73d 5221 2d3f 48c0 3e3e 1cda 1fbf
000001f0: 699c 64be 65e1 cb3e b014 91be 5d62 373e
00000200: d68d edbe 7fc9 913e 8664 123e 0e52 55be
00000210: 16ea da3e 112a 1c3d 126e 20be ce46 c7be
00000220: 42ee 803d fd68 5ebe 297a cf3d 89bd 0dbf
00000230: 04bd 22be b9d2 2a3f 0c90 df3d 0a3f a6bd
00000240: 625a cb3e eab5 cdbe 8eef 783e b646 ca3e
00000250: 5c62 593e f480 3b3e 3f52 413e 7c60 d4be
00000260: 91b7 073d 37f6 fc3e 5541 0fbe b70b 863d
00000270: e7e4 d03d 868d 5a3e 696d 863e 2116 7dbd
00000280: f6b3 5c3d 8eb1 9a3d b3a5 833d 8f4e 033f
00000290: 1bda de3e b98b 70be 252b 88be 54f4 5c3c
000002a0: 13d6 b1be b751 f3be 0913 b6be cab2 fabd
000002b0: e432 ba3e c2d6 2cbe 3c48 37bd ef59 133f
000002c0: 0878 33bf 007c 02bf 6046 d0bc c5b5 7d3e
000002d0: e1ce 473e 8ef6 aa3e 7480 6f3e 6c4f 91bc
000002e0: d41e 173e d037 063e 9701 38be 8403 a13d
000002f0: 6dd4 76be 91dd 613d f908 793e 7296 763c
00000300: 4e0c ed3e 8e26 073f 384d 113e 322b 10bf
00000310: e50e 73be 6ed4 c73d d7fa b9be 54fd b13e
00000320: 861a 023f d698 36be 36d0 b33e a065 b43e
00000330: 65c6 103f fb25 db3e 49aa c63e 3a9d 793d
00000340: a1a5 16be b5ce ce3c d05e 8a3d 6d6e eebe
00000350: 5689 673e f3e6 e43c 9c31 573e 6def 97be
00000360: e054 123e bf3d 013f 19f7 b2be 0675 73be
00000370: 3635 efbd 01fe 09be 60ec 973e 72a8 863e
00000380: 0759 58be e12b e8be 9d5d babd dcee 60bd
00000390: e9db 27be fe65 ebbe be70 d33e a41c 69be
000003a0: 70bd 3d3d 3edd 263d 63b2 d43e f9e0 913e
000003b0: e2fa 17bf 9026 6dbe 5490 a03e 00d0 873e
000003c0: 3bd4 263c fccf 81be 6c13 873d 1602 b73c
000003d0: 5fc1 993e c291 913e 36b3 a9be 3ac2 773e
000003e0: f5fd 7bbe bd47 7dbe 79c8 4ebe 0fa1 833e
000003f0: 6639 0e3f 2b15 dc3d e62a a3be 61e8 c33e

feature.0.bias f4 [128]
-0.08668531 -0.009616676 0.46442854 0.26289538 -0.26558107 -0.30537888 -0.44697675 -0.3000564
0.18232399 0.17060952 -0.22978805 0.3435213 -0.2299165 0.08704072 -0.38634646 0.019602032
-0.4664374 -0.101634555 0.22399017 -0.0070361258 0.09921851 -0.42825708 0.4469107 0.31328085
0.092014335 0.24991903 0.19293931 -0.20881157 0.16344416 0.043848682 0.43996853 -0.30067202
-0.18471898 0.5499715 0.43161902 -0.23116009 0.22409041 0.36598644 0.31009638 0.31169614
-0.18928845 -0.37700507 0.24983533 0.38142395 -0.04808005 0.04456205 0.2383617 0.17459658
0.39938232 -0.37771156 -0.27973995 -0.27557883 -0.006300382 -0.070342116 0.03849734 0.27637473
-0.19919501 -0.14471915 -0.1240262 0.22905788 0.39374554 0.13608877 -0.4610345 -0.21801181
-0.14209653 -0.11446756 -0.3144139 0.26003134 0.08313945 -0.2962945 0.41409963 -0.13759196
0.03209913 -0.36088407 0.04715455 0.14363423 0.24808042 0.3375462 0.47395054 0.32805863
0.11544847 0.04317529 -0.2771707 0.3610497 -0.18049124 -0.3157943 0.12728515 0.18100317
0.31576672 0.30394223 0.37094218 -0.2295795 0.0696438 0.17150854 0.011958378 -0.17487785
0.25239924 0.11795448 -0.17974843 -0.2125618 -0.084514186 0.305246 0.31942877 0.0070667295
-0.07220617 0.42004737 0.16829541 0.4963252 0.4525212 0.39070797 0.059223916 -0.052407976
-0.41133514 -0.41889864 0.44161806 0.46215302 0.031444892 -0.28502813 0.35525408 -0.10170714
0.44727102 -0.40733865 0.47276285 0.38208336 -0.07059796 0.04250673 0.21294872 0.003833657
00000000: 1188 b1bd 438f 1dbc 94c9 ed3e 399a 863e
00000010: 3efa 87be 9f5a 9cbe 23da e4be fea0 99be
00000020: 24b3 3a3e 43b4 2e3e 8f4d 6bbe 06e2 af3e
00000030: 3b6f 6bbe 6842 b23d 34cf c5be 7194 a03c
00000040: e2d0 eebe c725 d0bd ae5d 653e 4d8f e6bb
00000050: 1333 cb3d 8344 dbbe 7bd1 e43e 5966 a03e
00000060: 0372 bc3d c6ea 7f3e e291 453e b3d2 55be
00000070: e85d 273e ad9a 333d 8e43 e13e aff1 99be
00000080: f926 3dbe efca 0c3f 2bfd dc3e 3bb5 6cbe
00000090: f577 653e 9362 bb3e f4c4 9e3e a396 9f3e
000000a0: d5d4 41be cf06 c1be d5d4 7f3e 004a c33e
000000b0: 96ef 44bd b286 363d 1715 743e 72c9 323e
000000c0: d77b cc3e 6963 c1be 133a 8fbe ab18 8dbe
000000d0: 6f73 cebb 870f 90bd 63af 1d3d fd80 8d3e
000000e0: c7f9 4bbe 4231 14be 7301 febd 268e 6a3e
000000f0: 0499 c93e db5a 0b3e b70c ecbe 7d3e 5fbe
00000100: c181 11be f86d eabd dcfa a0be d422 853e
00000110: 0445 aa3d eab3 97be de04 d43e e8e4 0cbe
00000120: 617a 033d ccc5 b8be 2125 413d da14 133e
00000130: cb08 7e3e dbd2 ac3e a5a9 f23e 4df7 a73e
00000140: 3f70 ec3d 93d8 303d 51e9 8dbe 82db b83e
00000150: b2d2 38be caaf a1be 0a57 023e e558 393e
00000160: 2dac a13e 519e 9b3e 22ec bd3e e316 6bbe
00000170: 69a1 8e3d ef9f 2f3e 13ed 433c 2e13 33be
00000180: 793a 813e 1e92 f13d f90f 38be cda9 59be
00000190: c615 adbd 3449 9c3e 2b8c a33e 0690 e73b
000001a0: d4e0 93bd 7310 d73e a255 2c3e 561e fe3e
000001b0: dcb0 e73e e00a c83e c794 723d bfa9 56bd
000001c0: 859a d2be e279 d6be c31b e23e 529f ec3e
000001d0: 5ccc 003d 35ef 91be dde3 b53e d54b d0bd
000001e0: b500 e53e b18e d0be f90d f23e 6ea0 c33e
000001f0: aa95 90bd 891b 2e3d 3b0f 5a3e 173e 7b3b

feature.2.weight f4 [128, 128]
-0.10986697 0.16469152 0.072387956 -0.08594125 0.05288142 -0.023072077 -0.20135666 -0.13066472
0.021777842 0.030451179 -0.08154191 0.019838678 -0.09025224 0.09946515 -0.114832155 -0.010963774
-0.070627935 -0.014663592 -0.08857629 -0.026223805 -0.061813526 0.0017045371 0.028563311 -0.099842966
-0.048342742 -0.0030770295 0.036320403 -0.20705666 -0.011689556 -0.011991902 0.14408058 -0.08259754
-0.17001782 -0.031389832 -0.030102445 -0.030533237 0.0636098 0.019899396 0.066330515 0.054595217
-0.041623585 -0.02398107 0.026965115 0.0040467973 -0.047622886 -0.023764882 -0.005120136 0.08702994
-0.086679004 -0.10615186 -0.15028198 -0.04789439 0.022254035 -0.06606042 0.007774353 0.07128051
-0.08687552 -0.12084326 0.08841754 0.0219622 0.09904822 0.054297175 -0.076185495 -0.019427883
0.006164648 0.05261061 -0.21637271 0.048499085 0.011635304 -0.10244259 -0.040432088 -0.088931255
0.13977468 0.027268313 -0.034232628 -0.049801502 0.09280013 0.024298066 0.01696082 0.053089987
0.1564149 -0.010409118 -0.012315103 0.07537235 -0.12633887 0.010691308 0.032799084 0.0589995
0.051571254 -5.126097e-05 0.045641325 0.19895652 0.041161835 -0.09453027 0.049416352 -0.067068644
0.07734305 -0.10898763 -0.04819385 0.0004052442 -0.05239563 -0.07735883 0.1238894 -0.035918206
0.12643778 -0.0072660577 0.017570961 0.14107631 0.056386635 0.09215746 0.11133315 0.004970298
-0.09563265 -0.023492558 -0.042185396 -0.036428917 0.009631953 -0.063515 -0.05080949 -0.032403488
0.07766389 -0.05639219 0.07245319 0.0869304 -0.025215507 0.026380518 0.028200492 -0.014615512
-0.069722585 0.07333182 0.09194767 0.025218103 -0.031676803 -0.06718711 -0.10960443 -0.16842772
0.20986785 -0.03862246 -0.051585555 0.052622568 -0.06427526 0.05530165 -0.023027292 -0.024633586
-0.13639958 0.03726491 0.029294303 0.023576556 -0.07238518 0.08712079 0.068277895 0.09136516
-0.022414695 -0.031183774 0.06464937 -0.03200291 -0.05569461 -0.06610557 -0.021232335 -0.041556526
-0.0021464666 0.06650826 0.080147475 -0.047597717 0.16267136 0.080992065 0.057923928 -0.030187331
-0.09255725 0.028947117 0.003179082 0.07956168 0.13653247 -0.02367206 0.05213774 -0.08013496
-0.024939455 -0.07470284 -0.15942402 0.037757672 0.04237777 -0.05909478 -0.0064269663 0.03288275
0.013677484 0.02805081 0.10218087 0.07534115 0.08297977 -0.069041826 0.059949454 -0.00372625
-0.020575536 -0.09450961 -0.061268855 0.102662526 -0.03921193 -0.055475254 -0.029290548 -0.08921659
0.11630046 0.13283885 -0.06256346 -0.073955916 0.08945004 0.1217951 0.017797379 0.00024150829
0.052743968 -0.060558546 -0.045009524 0.019186482 -0.08231766 -0.087717675 0.08947479 0.0058283107
0.0038867597 0.09677788 -0.00624879 0.1945364 0.08888187 0.045764014 0.09154174 -0.07569029
0.0028179323 0.018698862 0.0047505386 0.020646282 -0.06307373 -0.05584325 0.08044515 -0.026799154
-0.031765398 0.073489875 0.07977222 0.07356408 0.0015757399 0.0074417423 0.1938741 -0.0017671098
-0.11739797 -0.029411633 0.06348335 0.07237165 0.048256475 -0.0009832482 0.022691455 -0.12804094
0.09789402 -0.047245387 0.16368632 -0.04434647 -0.0033329541 0.071744055 0.030605411 0.056766365
00000000: ef01 e1bd e5a4 283e 2340 943d f701 b0bd
00000010: 309a 583d a701 bdbc 7130 4ebe f9cc 05be
00000020: 7267 b23c c074 f93c 72ff a6bd b984 a23c
00000030: 2bd6 b8bd 62b4 cb3d 1f2d ebbd 67a1 33bc
00000040: 61a5 90bd 903f 70bc 7c67 b5bd 4ed3 d6bc
00000050: 2e30 7dbd c66a df3a 9bfd e93c 787a ccbd
00000060: 0a03 46bd fda7 49bb b4c4 143d a906 54be
00000070: 8d85 3fbc af79 44bc dc89 133e e628 a9bd
00000080: 2719 2ebe a092 00bd 6799 f6bc d720 fabc
00000090: db45 823d 0f04 a33c 4bd8 873d 3c9f 5f3d
000000a0: 7e7d 2abd f373 c4bc f2e5 dc3c ff9a 843b
000000b0: 3710 43bd 92ae c2bc d0c6 a7bb c13c b23d
000000c0: c384 b1bd 2566 d9bd 85e3 19be e82c 44bd
000000d0: 184e b63c af4a 87bd 00c0 fe3b 84fb 913d
000000e0: cbeb b1bd ac7c f7bd 4114 b53d 12ea b33c
000000f0: cbd9 ca3d b766 5e3d 2407 9cbd 3927 9fbc
00000100: d100 ca3b 397e 573d cf90 5dbe faa6 463d
00000110: 01a2 3e3c 6ccd d1bd 1e9c 25bd 9721 b6bd
00000120: 1821 0f3e cc61 df3c 8337 0cbd a9fc 4bbd
00000130: ff0d be3d bd0c c73c 6bf1 8a3c e374 593d
00000140: 3a2b 203e 018b 2abc 49c5 49bc d25c 9a3d
00000150: fa5e 01be 992a 2f3c 5558 063d 76a9 713d
00000160: 613c 533d 0c01 57b8 66f2 3a3d 42bb 4b3e
00000170: 5099 283d 1699 c1bd cd68 4a3d 495b 89bd
00000180: 0866 9e3d e834 dfbd ea66 45bd f576 d439
00000190: cd9c 56bd 4e6e 9ebd bab9 fd3d f81e 13bd
000001a0: e878 013e 1c18 eebb faf0 8f3c 4f76 103e
000001b0: acf5 663d 0dbd bc3d a202 e43d e2dd a23b
000001c0: 0ddb c3bd 7773 c0bc 98ca 2cbd 7d36 15bd
000001d0: 57cf 1d3c 2714 82bd 9d1d 50bd 85b9 04bd
000001e0: 3f0e 9f3d 7ffb 66bd 5762 943d 9108 b23d
000001f0: c090 cebc f51b d83c b804 e73c e775 6fbc
00000200: b7ca 8ebd fe2e 963d 0f4f bc3d 3296 ce3c
00000210: 89bf 01bd 6599 89bd 4a78 e0bd 5178 2cbe
00000220: 99e7 563e 9632 1ebd 604b 53bd c38a 573d
00000230: bfa2 83bd fc83 623d bba3 bcbc 60cc c9bc
00000240: 55ac 0bbe 17a3 183d 9bfa ef3c 9f23 c13c
00000250: ae3e 94bd 626c b23d 48d5 8b3d a81d bb3d
00000260: 069f b7bc 1d75 ffbc e466 843d 7c15 03bd
00000270: 0820 64bd 5b62 87bd 6fef adbc 2d37 2abd
00000280: bcab 0cbb 7c35 883d 5c24 a43d d3f5 42bd
00000290: 5293 263e 2bdf a53d a441 6d3d 6c4b f7bc
000002a0: a88e bdbd 8122 ed3c 2558 503b 3cf1 a23d
000002b0: 2bcf 0b3e e8eb c1bc 628e 553d cc1d a4bd
000002c0: d44d ccbc cdfd 98bd 0d40 23be caa7 1a3d
000002d0: 5094 2d3d 5e0d 72bd 4d99 d2bb 10b0 063d
000002e0: 8717 603c d0ca e53c 3444 d13d 764c 9a3d
000002f0: 4cf1 a93d cd65 8dbd 8f8d 753d 1a34 74bb
00000300: 078e a8bc 418e c1bd 0df5 7abd bb40 d23d
00000310: b09c 20bd 053a 63bd bbf2 efbc 30b7 b6bd
00000320: f02e ee3d e806 083e 4521 80bd 3376 97bd
00000330: 9531 b73d b66f f93d cfcb 913c 633d 7d39
00000340: 0f0a 583d 3d0c 78bd e85b 38bd f82c 9d3c
00000350: 2996 a8bd 53a5 b3bd 8f3e b73d 6afb be3b
00000360: 02b9 7e3b 7b33 c63d a6c2 ccbb 8d34 473e
00000370: b307 b63d 0c73 3b3d 3c7a bb3d 8303 9bbd
00000380: 0fad 383b 5b2e 993c 68aa 9b3b 6422 a93c
00000390: cd2c 81bd e4bb 64bd 6dc0 a43d e689 dbbc
000003a0: 6f1c 02bd dc81 963d 9e5f a33d c4a8 963d
000003b0: 0f89 ce3a dcd9 f33b ef86 463e 5e9e e7ba
000003c0: 596e f0bd aaf0 f0bc 8f03 823d 9637 943d
000003d0: 95a8 453d 56e0 80ba 6ee3 b93c 2a1d 03be
000003e0: a97c c83d 6184 41bd 639d 273e a5a4 35bd
000003f0: b16d 5abb 8cee 923d 33b8 fa3c d983 683d

feature.2.bias f4 [128]
0.122178204 0.07745921 0.095349774 -0.033140995 -0.08390637 0.045731936 -0.11468096 -0.026244514
0.002150799 -0.0011477872 -0.03473033 -0.022483734 0.023935616 -0.028748218 0.09567349 0.008823593
0.015106098 0.0936641 0.12406773 -0.029726388 0.025903698 0.14585203 0.14863038 0.06956024
-0.0058673564 -0.08841255 -0.09367561 0.07131022 0.052298512 -0.022835165 0.005737283 -0.03987023
-0.04483018 0.0035439297 0.0038304452 0.08650199 0.019026991 0.077661105 0.10410731 0.0027650192
0.033405777 0.16941696 0.13487665 0.044675633 -0.01079814 0.05222323 0.0018925798 -0.011785722
0.00834045 0.064877935 0.0985564 -0.06217663 0.092678994 0.007542306 0.07720963 0.019254528
0.050356895 -0.047032245 -0.013460954 -0.064760305 0.016113756 -0.022912413 -0.02232291 0.12672493
0.13482581 0.13028334 0.071894035 0.007959337 -0.036468882 0.011181459 0.04320784 0.07382007
-0.025372915 -0.004275749 0.09978831 0.07348505 0.025752772 0.045689393 -0.06651269 -0.043862
-0.009043896 -0.022021415 0.014924387 0.0924373 0.104904756 0.029827712 -0.09292644 0.12406691
0.015617396 -0.06976527 -0.017886806 -0.009002067 0.0008330087 0.11454136 0.07975941 -0.03442766
0.1522384 -0.011684816 -0.14155453 -0.035593152 0.1514889 -0.022846105 0.070509575 0.008785944
0.069677286 0.0075290194 0.047954716 0.034779567 0.10161829 0.07919442 -0.010619061 0.044713967
0.08811739 0.011418089 -0.045034662 0.15707967 0.041644808 0.054590788 -0.031958308 0.005697991
0.076801136 0.069540575 -0.0077567846 -0.067407034 0.13280545 0.07978721 -0.052482195 0.0626391
00000000: 9138 fa3d efa2 9e3d be46 c33d dabe 07bd
00000010: 1ad7 abbd 6951 3b3d dadd eabd bcfe d6bc
00000020: 6bf4 0c3b 5971 96ba 6441 0ebd cf2f b8bc
00000030: a014 c43c 6281 ebbc 76f0 c33d d590 103c
00000040: 917f 773c f7d2 bf3d 3917 fe3d c184 f3bc
00000050: fe33 d43c 3c5a 153e 9032 183e 9975 8e3d
00000060: f442 c0bb a411 b5bd 00d9 bfbd 180b 923d
00000070: f736 563d d010 bbbc d1ff bb3b f74e 23bd
00000080: da9f 37bd 4641 683b 3508 7b3b f527 b13d
00000090: 7ede 9b3c c90c 9f3d 3736 d53d 5335 353b
000000a0: 7fd4 083d a47b 2d3e 1b1d 0a3e ccfd 363d
000000b0: afea 30bc 07e8 553d 7110 f83a e718 41bc
000000c0: 62a6 083c b9de 843d f0d7 c93d ecac 7ebd
000000d0: 7cce bd3d 7325 f73b 1520 9e3d acbb 9d3c
000000e0: 0843 4e3d e2a4 40bd 558b 5cbc 0da1 84bd
000000f0: ff00 843c d0b2 bbbc 89de b6bc 2ec4 013e
00000100: c70f 0a3e ff68 053e 2e3d 933d e167 023c
00000110: 6560 15bd 7032 373c b4fa 303d fa2e 973d
00000120: dcda cfbc 951b 8cbb d05d cc3d 547f 963d
00000130: 7af7 d23c cd24 3b3d ce37 88bd a4a8 33bd
00000140: d92c 14bc 4166 b4bc 6b85 743c c44f bd3d
00000150: 4ed8 d63d 3f59 f43c 3850 bebd cb16 fe3d
00000160: 1be0 7f3c 18e1 8ebd 5a87 92bc 687d 13bc
00000170: 445e 5a3a a994 ea3d e758 a33d 0504 0dbd
00000180: 62e4 1b3e ac71 3fbc acf3 10be 20ca 11bd
00000190: e81f 1b3e c127 bbbc 5367 903d ecf2 0f3c
000001a0: f7b2 8e3d feb5 f63b 2a6c 443d 0575 0e3d
000001b0: 401d d03d af30 a23d 92fb 2dbc fe25 373d
000001c0: e476 b43d f012 3b3c 4476 38bd 7ed9 203e
000001d0: bf93 2a3d 979a 5f3d b7e6 02bd 36b6 ba3b
000001e0: ea49 9d3d 4a6b 8e3d a02c febb b30c 8abd
000001f0: 27fe 073e 7a67 a33d 92f7 56bd ee48 803d

value_stream.0.weight f4 [64, 128]
0.14074898 -0.051630847 0.14952832 0.048021104 -0.33327132 -0.2511915 -0.15441747 0.02283688
-0.07185207 0.053166766 -0.41252068 0.25257298 0.20091484 0.1570014 0.042765584 0.017408455
-0.049110785 0.09972885 0.050003123 -0.41170922 0.018059112 -0.0023481597 0.069672026 0.11829603
0.03436435 -0.15388252 -0.36015138 0.063623525 0.17893851 0.054999758 0.34555125 -0.14489716
-0.13984375 -0.18191896 0.058674414 -0.05530451 -0.05655764 0.086078405 0.07347466 0.058148548
0.062547855 0.096375585 0.2320143 0.10213194 -0.31923696 -0.3582938 -0.30442306 0.051692523
0.0150342705 0.10134952 0.06592423 -0.15052664 0.017245453 0.05116025 -0.008597484 0.11385182
0.17843558 -0.4597091 0.06730562 0.014317941 -0.24081337 -0.0058242693 0.055942178 0.15032478
0.0676496 -0.06021821 0.085354425 0.1802034 0.08266698 0.103106 0.080545776 0.09714984
-0.13709663 -0.63297063 0.12902936 0.059905455 0.25680274 0.11157679 -0.3077772 0.041117955
-0.06613516 -0.3188899 0.21394485 0.014556681 -0.110462375 0.11978982 -0.06108253 0.20727405
-0.018449688 -0.024975749 0.021778967 0.27701095 0.12602885 0.0842974 0.033443056 -0.13841155
-0.026818683 0.20259282 -0.31739533 0.06202609 0.16917382 0.02606372 0.028134333 0.050107352
0.13821279 -0.21422657 0.0404961 -0.02504512 0.05402507 0.08042355 0.06588186 0.13635236
0.1856055 0.004440294 0.49727643 0.04228221 0.052805062 0.008864718 0.28376624 -0.5143622
-0.12915559 -0.017796349 0.069211565 -0.36086747 0.16319956 0.06929962 -0.09717318 0.09391982
0.025803218 -0.046186484 0.21846478 0.07627687 -0.23378159 -0.3133813 -0.3969304 -0.0054090857
-0.2610297 -0.021516727 -0.4730566 0.13532525 0.251853 0.09011129 -0.031353466 -0.018496916
0.007545484 0.051543593 0.09147373 -0.23253918 0.00681589 0.12850903 0.10233046 0.17080627
0.06738896 -0.22122209 -0.36363965 0.032003317 0.13003735 0.047994178 0.22385322 -0.20387062
-0.29384992 -0.17832911 0.14338812 -0.040139064 -0.17810208 0.19913268 -0.023276785 0.11233865
-0.041284587 0.17318103 0.16117488 0.040278446 -0.50822383 -0.31545284 -0.38420555 0.039738886
0.06968373 0.19074774 0.06829176 -0.22360823 0.09256472 -0.044154987 0.06870544 0.06304908
0.10708371 -0.43056238 0.014985662 0.066234775 -0.2689396 0.08117745 0.05129667 0.10119288
-0.055144105 0.10004618 -0.04975341 0.09663077 0.13277012 0.09668814 0.0604983 0.19023612
-0.2204822 -0.6809689 0.14464171 0.07132948 0.2236135 0.03325364 -0.21757634 -0.081966996
0.048365843 -0.25657403 0.22436729 0.0383313 0.059314385 0.010680679 -0.013277186 0.11169511
0.021244895 -0.2460111 -0.024423664 0.25520805 -0.027655518 0.010014173 0.045501206 -0.26460016
0.15283781 0.22102909 -0.37189808 0.054925554 0.11331398 -0.016021749 0.17292267 -0.07850614
0.027446784 -0.22302529 -0.012107325 0.031138934 0.08289317 0.10806312 0.100240216 0.09866096
0.12623848 0.051074244 0.30377233 0.037871983 0.044520684 -0.0048125004 0.2693721 -0.4376993
0.0013503457 -0.04273008 0.07586736 -0.26689216 0.03353318 0.014080383 -0.23522615 0.03519141
00000000: 8020 103e de7a 53bd f41d 193e c7b1 443d
00000010: 8aa2 aabe 2c9c 80be 9d1f 1ebe 6914 bb3c
00000020: 2e27 93bd 65c5 593d e935 d3be 3f51 813e
00000030: 9fbc 4d3e fac4 203e f72a 2f3d 2d9c 8e3c
00000040: 6428 49bd a43e cc3d 13d0 4c3d 8dcb d2be
00000050: b4f0 933c 95e3 19bb 35b0 8e3d 3045 f23d
00000060: a2c1 0c3d 6193 1dbe c365 b8be 0d4d 823d
00000070: a83b 373e 6d47 613d 18ec b03e ec5f 14be
00000080: 3333 0fbe f748 3abe 9554 703d fb86 62bd
00000090: fca8 67bd e049 b03d e279 963d 2c2d 6e3d
000000a0: 1719 803d 9060 c53d 2895 6d3e 8d2a d13d
000000b0: 0773 a3be 4972 b7be 57dd 9bbe 8abb 533d
000000c0: 4d52 763c 5690 cf3d 4803 873d a823 1abe
000000d0: 5646 8d3c 698d 513d 76dc 0cbc 252b e93d
000000e0: d1b7 363e fe5e ebbe 87d7 893d cc95 6a3c
000000f0: c897 76be 83d9 bebb a023 653d bdee 193e
00000100: e08b 8a3d 5fa7 76bd 4dce ae3d 3d87 383e
00000110: 4e4d a93d 3d29 d33d 2ff5 a43d 7ff6 c63d
00000120: 0f63 0cbe 5d0a 22bf 4620 043e 6c5f 753d
00000130: a67b 833e 5f82 e43d f994 9dbe 4d6b 283d
00000140: df71 87bd 8945 a3be 5c14 5b3e 257f 6e3c
00000150: 193a e2bd 5d54 f53d ad31 7abd a63f 543e
00000160: cd23 97bc f199 ccbc ce69 b23c 61d4 8d3e
00000170: b50d 013e 1ea4 ac3d 96fb 083d c2bb 0dbe
00000180: dbb2 dbbc 7e74 4f3e a481 a2be 120f 7e3d
00000190: e73b 2d3e 9583 d53c f979 e63c 5e3d 4d3d
000001a0: a787 0d3e 365e 5bbe 3ddf 253d 6c2b cdbc
000001b0: 6449 5d3d 1ab5 a43d 12ed 863d f49f 0b3e
000001c0: 5e0f 3e3e e37f 913b 049b fe3e 1c30 2d3d
000001d0: 1f4a 583d 523d 113c cf49 913e 3ead 03bf
000001e0: 5d41 04be a6c9 91bc cbbe 8d3d 9fc3 b8be
000001f0: c91d 273e f6ec 8d3d bb02 c7bd 0959 c03d
00000200: 4561 d33c 0a2e 3dbd 3bb5 5f3e 0c37 9c3d
00000210: 7164 6fbe 8473 a0be 763a cbbe b33e b1bb
00000220: afa5 85be d943 b0bc 7a34 f2be b492 0a3e
00000230: e0f2 803e 458c b83d 7e6c 00bd d886 97bc
00000240: 1c40 f73b 601f 533d 9456 bb3d c01e 6ebe
00000250: d457 df3b df97 033e a292 d13d d7e7 2e3e
00000260: 3903 8a3d 0b88 62be fa2e babe e915 033d
00000270: 8328 053e 8b95 443d c739 653e 76c3 50be
00000280: 7f73 96be e89b 36be 56d4 123e dc68 24bd
00000290: 6460 36be 70e9 4b3e f5ae bebc ce11 e63d
000002a0: 071a 29bd 5e56 313e 070b 253e 03fb 243d
000002b0: f51a 02bf 0983 a1be 97b6 c4be 3ec5 223d
000002c0: 58b6 8e3d 6053 433e 8ddc 8b3d 8ef9 64be
000002d0: 9292 bd3d dcdb 34bd 70b5 8c3d e01f 813d
000002e0: b44e db3d ac72 dcbe 6c86 753c 19a6 873d
000002f0: 74b2 89be 5d40 a63d 751c 523d 363e cf3d
00000300: c9de 61bd 03e5 cc3d 3bca 4bbd 5ae6 c53d
00000310: e4f4 073e 6e04 c63d 11cd 773d 42cd 423e
00000320: 16c6 61be fa53 2ebf f51c 143e 3115 923d
00000330: f0fa 643e f834 083d 55cc 5ebe 50de a7bd
00000340: 431b 463d ac5d 83be 8ac0 653e 4801 1d3d
00000350: a4f3 723d 04fe 2e3c 8e88 59bc 68c0 e43d
00000360: c609 ae3c 55ea 7bbe 2314 c8bc a1aa 823e
00000370: d38d e2bc 7c12 243c 795f 3a3d ac79 87be
00000380: 8481 1c3e 7355 623e 6d69 bebe 9ef9 603d
00000390: 2911 e83d 0b40 83bc a412 313e d4c7 a0bd
000003a0: 14d8 e03c be60 64be cd5d 46bc 1417 ff3c
000003b0: e5c3 a93d 3250 dd3d be4a cd3d c20e ca3d
000003c0: a944 013e 3a33 513d 0c88 9b3e a71f 1b3d
000003d0: 525b 363d 2eb2 9dbb 24eb 893e 1f1a e0be
000003e0: 15fe b03a bd05 2fbd 5960 9b3d 17a6 88be
000003f0: 165a 093d 68b1 663c 20df 70be de24 103d

value_stream.0.bias f4 [64]
0.001991001 0.037375487 -0.042225126 0.06278753 0.081016436 0.057117768 0.14524408 -0.029821604
0.073977634 -0.028480966 -0.031433668 0.056635387 0.11009383 0.022002805 0.13425292 0.08633698
0.091915555 0.018943718 0.016901813 0.021321038 0.07009857 -0.061483726 0.027521111 -0.02570945
0.0064710104 -0.01307173 0.07082264 0.0010398634 0.04609024 0.1541288 0.1056133 0.072399825
0.10062526 -0.013423784 0.04370603 0.09084248 -0.006077354 -0.1169253 -0.020672701 0.05996309
-0.05382933 0.043197516 0.057422478 -0.029053561 0.03267315 0.020372272 -0.0047062133 -0.0042317035
0.049602706 0.07100879 0.098628715 0.07111862 0.121056706 0.013768713 0.06205309 0.04129549
-0.014003593 0.04252162 0.043291345 -0.035716377 0.010496563 -0.0622856 -0.037807185 0.023978233
00000000: 747b 023b 0a17 193d 41f4 2cbd c096 803d
00000010: f2eb a53d 52f4 693d ddba 143e 704c f4bc
00000020: 9681 973d ea50 e9bc 97c0 00bd 82fa 673d
00000030: e078 e13d 3a3f b43c 9979 093e 71d1 b03d
00000040: 393e bc3d db2f 9b3c ac75 8a3c 75a9 ae3c
00000050: d78f 8f3d 5cd6 7bbd f473 e13c a09c d2bc
00000060: c50a d43b cf2a 56bc 760b 913d 074c 883a
00000070: 1fc9 3c3d f1d3 1d3e c94b d83d 5c46 943d
00000080: 9e14 ce3d 6eef 5bbc 1805 333d 9f0b ba3d
00000090: 8a24 c7bb 8876 efbd cc59 a9bc db9b 753d
000000a0: 257c 5cbd e1ef 303d d533 6b3d bc01 eebc
000000b0: 48d4 053d c0e3 a63c 9436 9abb 1aaa 8abb
000000c0: 352c 4b3d 0e6d 913d dafd c93d a4a6 913d
000000d0: 94ec f73d 2b96 613c 622b 7e3d 7625 293d
000000e0: 536f 65bc 262b 2e3d 4452 313d 564b 12bd
000000f0: c7f9 2b3c 2f1f 7fbd b5db 1abd 006e c43c

value_stream.2.weight f4 [1, 64]
-0.19992529 -0.29614702 -0.18603778 -0.2672645 -0.21676318 -0.288415 -0.20820239 -0.24243677
-0.15294883 0.2287071 -0.2928009 -0.34355435 0.5822529 -0.23321904 -0.1859372 -0.20733285
0.56203353 -0.26263863 -0.15455022 0.4391382 0.49754015 0.65051013 0.06414648 -0.17651437
0.02740842 0.3800253 -0.4248936 -0.19599903 -0.3170572 0.5931295 -0.16421105 -0.17419481
-0.1736669 0.57166725 0.6112612 -0.17128333 -0.15045072 -0.15240459 0.5653715 0.57955503
-0.39940622 -0.2992918 -0.38602793 0.31237087 0.7192862 0.012351172 -0.17259718 -0.22238404
-0.2305972 -0.23897153 -0.20561595 0.6377544 -0.23987631 0.5230439 -0.22368748 0.3966107
0.15181307 -0.20174669 -0.39072135 -0.19090843 -0.29195866 0.6762539 0.52293557 -0.21205401
00000000: 37b9 4cbe 95a0 97be b080 3ebe e4d6 88be
00000010: 2bf7 5dbe 22ab 93be 0233 55be 5841 78be
00000020: 9e9e 1cbe 3232 6a3e 00ea 95be 5be6 afbe
00000030: 870e 153f f9d0 6ebe 5266 3ebe 104f 54be
00000040: 6ee1 0f3f 9278 86be 6a42 1ebe b9d6 e03e
00000050: 95bd fe3e d587 263f 3b5f 833d 2fc0 34be
00000060: 9f87 e03c ad92 c23e a78b d9be f8b3 48be
00000070: 5255 a2be 56d7 173f f126 28be 2060 32be
00000080: bcd5 31be c958 123f 9d7b 1c3f e664 2fbe
00000090: c10f 1abe f30f 1cbe 30bc 103f b85d 143f
000000a0: f97e ccbe c63c 99be 74a5 c5be 13ef 9f3e
000000b0: 2423 383f 925c 4a3c 51bd 30be a4b8 63be
000000c0: ac21 6cbe f4b4 74be fd8c 52be df43 233f
000000d0: 23a2 75be 34e6 053f 550e 65be 8f10 cb3e
000000e0: e374 1b3e af96 4ebe a10c c8be 807d 43be
000000f0: 9b7b 95be fa1e 2d3f 1bdf 053f b024 59be

advantage_stream.0.weight f4 [64, 128]
0.07780909 0.055757098 -0.041796733 0.054840975 -0.07527721 0.048158333 -0.05579446 0.06746551
0.13133493 -0.06631964 -0.032796483 0.010361662 0.03330563 -0.050642345 -0.03391701 -0.008516391
0.0807722 -0.096076526 0.05451571 -0.030474273 -0.0014756223 -0.060550798 -0.028677084 0.08278841
0.07521001 -0.08013318 0.09495442 0.045387655 0.006971015 -0.07464594 0.21920685 -0.08315937
-0.059185874 -0.0013715598 0.08491169 0.009656768 -0.36439574 -0.15724957 -0.042618096 -0.015207537
-0.16998799 -0.027057877 0.07529077 0.014167142 -0.14672172 0.06096344 0.016025832 0.018276133
-0.019259563 0.01729608 0.023796909 -0.087234326 0.005482787 0.001438114 0.014147405 0.044836294
0.005673654 0.12037892 0.13265952 -0.023765724 0.11107475 0.007899952 0.014182897 0.07129125
0.041535117 0.010798035 0.037708618 -0.13713732 -0.057009492 -0.0072672064 0.0048928233 -0.057554115
-0.10754127 -0.066717595 0.014545364 0.025874998 0.090042256 0.06272362 0.111697644 -0.12786539
0.07607431 0.009213253 -0.12422303 0.07265427 -0.1813462 -0.086074665 0.032932077 -0.075924195
0.033516936 -0.09686606 -0.0047179246 -0.049524207 0.06464986 0.027426638 0.10189587 -0.0044020894
-0.08232477 -0.038355242 0.15297754 -0.012694226 0.05648905 0.0715634 0.08414435 -0.008556804
-0.12068867 0.18135029 -0.10585599 0.03279566 -0.029141631 0.10348856 0.07328719 -0.035659995
0.073787265 0.011351589 -0.1406477 0.0030290147 -0.057086263 0.012079044 0.03359557 -0.11463366
0.005940051 -0.055468276 0.054902665 0.1039356 -0.08384758 0.05086114 -0.25119615 0.031803835
-0.14262804 -0.1073887 0.056791026 0.036734097 0.06016642 0.062393337 0.15389429 -0.039340306
0.060618818 -0.09901427 0.15884219 0.06050542 -0.016217979 0.086665384 -0.09516308 -0.06798621
0.017216057 -0.05753543 -0.024235902 0.049075164 -0.07517604 -0.067928836 -0.064082235 0.078400865
0.0763414 -0.016498143 -0.054380283 0.06392389 -0.099841446 0.024777649 -0.13098173 0.1405414
0.06852639 0.13221511 0.0030149166 -0.13827908 0.055467803 -0.10011189 -0.12000188 -0.09430554
0.004388911 -0.06413654 -0.0054116687 -0.0925503 -0.12162991 0.0588183 0.12377965 0.06614248
-0.03337975 -0.022706157 -0.052524064 -0.038491953 -0.11167425 -0.040354732 -0.03466551 0.0698973
-0.10683079 0.049240503 -0.046417058 -0.026513197 0.11765305 -0.09971669 0.024136566 -0.042800907
0.036289334 -0.076670885 -0.047936786 -0.14761227 0.046630852 -0.027997848 -0.12662879 -0.03999119
-0.012663755 -0.12112897 -0.11469368 0.002087968 -0.013205202 0.017879125 0.11656135 0.058276355
0.051413577 0.1378422 -0.09701852 -0.008847132 0.07188865 0.043109525 -0.047043383 -0.07815599
0.07278693 0.05446338 0.030038327 -0.12504928 -0.21670453 -0.0740345 -0.03642998 0.15673336
0.012332155 -0.08778039 -0.22764236 0.026480015 0.0341536 -0.05745228 -0.107892275 0.0235663
-0.08746351 0.010428523 0.057375446 0.008534762 -0.06121626 0.02995401 -0.0021604467 0.09341304
0.07768813 -0.073322564 0.15657577 -0.024940772 -0.038749527 -0.03156506 -0.05847897 -0.13514578
-0.030665897 -0.13953966 -0.04674014 0.117601186 -0.055796042 -0.07321833 0.07577737 -0.04585942
00000000: 5f5a 9f3d 8e61 643d 0d33 2bbd eea0 603d
00000010: f02a 9abd ac41 453d bb88 64bd 5b2b 8a3d
00000020: aa7c 063e 97d2 87bd 9b55 06bd f6c3 293c
00000030: 7c6b 083d 596e 4fbd 90ec 0abd 5588 0bbc
00000040: e56b a53d c5c3 c4bd dd4b 5f3d 2fa5 f9bc
00000050: ab69 c1ba 1d04 78bd 34ec eabc f88c a93d
00000060: b507 9a3d dd1c a4bd 7777 c23d 68e8 393d
00000070: 1d6d e43b f8df 98bd c377 603e 764f aabd
00000080: e36c 72bd e9c5 b3ba 2ee6 ad3d 6c37 1e3c
00000090: 1492 babe 0806 21be 5090 2ebd 0929 79bc
000000a0: 5511 2ebe 7ba8 ddbc 0c32 9a3d 4d1d 683c
000000b0: 383e 16be cdb4 793d 9b48 833c d4b7 953c
000000c0: 3bc6 9dbc 82b0 8d3c bcf1 c23c e9a7 b2bd
000000d0: f3a8 b33b 197f bc3a 84ca 673c 43a6 373d
000000e0: 0fea b93b 3989 f63d e6d7 073e 56b0 c2bc
000000f0: 297b e33d cd6e 013c 625f 683c 2601 923d
00000100: ba20 2a3d 3eea 303c 5a74 1a3d ba6d 0cbe
00000110: c982 69bd bf21 eebb fa53 a03b ddbd 6bbd
00000120: 993e dcbd 3ca3 88bd ae4f 6e3c cef7 d33c
00000130: 1368 b83d 3e75 803d bcc1 e43d 25ef 02be
00000140: d9cc 9b3d 2ff3 163c a568 febd c3cb 943d
00000150: d1b2 39be ea47 b0bd c9e3 063d 257e 9bbd
00000160: 0e49 093d b661 c6bd d298 9abb e5d9 4abd
00000170: 2567 843d d4ad e03c c8ae d03d 673f 90bb
00000180: e499 a8bd 631a 1dbd 25a6 1c3e 71fb 4fbc
00000190: 1061 673d d58f 923d df53 ac3d d631 0cbc
000001a0: 9f2b f7bd e4b3 393e 06cb d8bd be54 063d
000001b0: 6eba eebc cff1 d33d 9817 963d 3710 12bd
000001c0: c71d 973d 04fc 393c f305 10be 6f82 463b
000001d0: 49d3 69bd 2fe7 453c 829b 093d 0dc5 eabd
000001e0: c2a4 c23b b432 63bd 9ee1 603d 30dc d43d
000001f0: 48b8 abbd c553 503d c89c 80be bd44 023d
00000200: 160d 12be 9bee dbbd b59d 683d 7e76 163d
00000210: 1071 763d 2890 7f3d 7796 1d3e 4d23 21bd
00000220: 704b 783d fec7 cabd 87a7 223e 88d4 773d
00000230: 91db 84bc 9f7d b13d dce4 c2bd 5b3c 8bbd
00000240: b008 8d3c 45aa 6bbd 5f8a c6bc 0a03 493d
00000250: e5f5 99bd 461e 8bbd 8c3d 83bd a290 a03d
00000260: e158 9c3d 1d27 87bc dcbd 5ebd 87ea 823d
00000270: ac79 ccbd 7ffa ca3c 1320 06be 16ea 0f3e
00000280: 9057 8c3d 6663 073e e895 453b 0899 0dbe
00000290: 3532 633d 7607 cdbd 8cc3 f5bd 4323 c1bd
000002a0: dbd0 8f3b 055a 83bd 5e54 b1bb 038b bdbd
000002b0: 1a19 f9bd 75eb 703d 2f80 fd3d b575 873d
000002c0: 34b9 08bd 4302 babc 7923 57bd bda9 1dbd
000002d0: 78b5 e4bd 014b 25bd 6cfd 0dbd 5126 8f3d
000002e0: 1aca dabd 69b0 493d d01f 3ebd 3432 d9bc
000002f0: 15f4 f03d 4438 ccbd 0cba c53c 0150 2fbd
00000300: 20a4 143d a005 9dbd 5d59 44bd ac27 17be
00000310: feff 3e3d be5b e5bc faaa 01be cdcd 23bd
00000320: a37b 4fbc 7712 f8bd 85e4 eabd 4ad6 083b
00000330: a25a 58bc 3e77 923c b8b7 ee3d 30b3 6e3d
00000340: 0b97 523d 8126 0d3e a5b1 c6bd 90f3 10bc
00000350: 5b3a 933d 9d93 303d 90b0 40bd 3f10 a0bd
00000360: 5011 953d fe14 5f3d f012 f63c eb0c 00be
00000370: cbe7 5dbe 669f 97bd 9a37 15bd b67e 203e
00000380: cf0c 4a3c 35c6 b3bd 141b 69be 9eec d83c
00000390: a5e4 0b3d 1553 6bbd a0f6 dcbd 1d0e c13c
000003a0: 1220 b3bd 65dc 2a3c 8402 6b3d 63d5 0b3c
000003b0: e7bd 7abd 1d62 f53c 4896 0dbb 564f bf3d
000003c0: f41a 9f3d 242a 96bd 6655 203e 9750 ccbc
000003d0: d3b7 1ebd 5d4a 01bd a587 6fbd a863 0abe
000003e0: 0c37 fbbc 7ce3 0ebe 9772 3fbd e4d8 f03d
000003f0: 648a 64bd 7ef3 95bd 2a31 9b3d 16d7 3bbd

advantage_stream.0.bias f4 [64]
0.042199776 0.029597472 -0.02594128 0.060291547 -0.057148673 -0.028422428 -0.02250906 -0.06870963
0.021561118 -0.042114943 0.021626608 -0.076354995 0.03926132 -0.032740816 0.11355915 0.08473334
0.07969179 -0.05795138 0.08370529 -0.060002007 0.08448264 -0.07163045 0.114065565 -0.023142403
-0.034313004 0.09391728 0.017939042 0.043172017 0.037496693 0.013720149 -0.010317968 0.018134898
0.00960401 -0.075715154 0.00032488123 0.16207252 -0.06524119 0.03848932 -0.014441296 -0.049043693
-0.13449793 0.109565474 0.024328064 -0.058029696 0.079299204 0.002296502 0.06554061 0.009247979
-0.072691396 0.015364909 -0.06822262 -0.060788985 0.084563285 0.00725048 0.009127762 0.085517295
-0.006782183 0.06942101 0.08040926 0.005772693 0.054945845 -0.07699858 -0.044690818 0.025114043
00000000: acd9 2c3d 6676 f23c cf82 d4bc 45f4 763d
00000010: ba14 6abd 27d6 e8bc ec64 b8bc a2b7 8cbd
00000020: f1a0 b03c b880 2cbd 492a b13c 0260 9cbd
00000030: 7ad0 203d 3c1b 06bd b391 e83d ac88 ad3d
00000040: 7335 a33d 6d5e 6dbd ae6d ab3d aac4 75bd
00000050: 3c05 ad3d fcb2 92bd 359b e93d 2395 bdbc
00000060: cb8b 0cbd b457 c03d e6f4 923c 24d5 303d
00000070: 2296 193d 7aca 603c b20c 29bc a38f 943c
00000080: 235a 1d3c 8c10 9bbd d254 aa39 57f6 253e
00000090: 2c9d 85bd faa6 1d3d 309b 6cbc 0ae2 48bd
000000a0: d3b9 09be dd63 e03d a64b c73c 8cb0 6dbd
000000b0: 9f67 a23d e980 163b 283a 863d d684 173c
000000c0: 3adf 94bd 19bd 7b3c 4db8 8bbd dffd 78bd
000000d0: 842f ad3d 6f95 ed3b 9c8c 153c b123 af3d
000000e0: 133d debb 9a2c 8e3d 9cad a43d dc28 bd3b
000000f0: e50e 613d 6eb1 9dbd b80d 37bd f7bb cd3c

advantage_stream.2.weight f4 [3, 64]
0.09623823 -0.23643118 -0.05467568 0.2135107 -0.24194938 0.008016813 0.004464805 0.1748278
0.17765653 0.20200574 -0.0117786825 0.2501281 0.16094716 -0.08408997 0.1765044 -0.20211574
-0.25413904 0.24823563 0.05158364 0.11201583 0.0958301 0.09262991 -0.25237903 0.04794489
0.059957013 -0.24471952 0.07152971 0.17575493 -0.072232164 -0.09346143 0.07883398 -0.028211594
0.21442014 -0.03512104 -0.10022859 0.38025242 -0.025852678 0.16422234 -0.30845007 -0.25863242
-0.24801396 -0.15842032 0.16196576 -0.16636388 0.09668426 0.113259606 -0.13962865 0.018149853
0.16305976 0.122199975 -0.0060195667 -0.1858524 0.24513109 0.0931693 -0.23645897 0.1774022
-0.20296837 0.11039174 0.019715225 0.2103199 0.035554748 -0.14548798 0.25466493 -0.13748676
0.03618667 0.14351737 -0.011525481 0.009846025 0.07263407 -0.15756138 0.028023602 -0.2324646
-0.10873486 -0.0035524745 -0.12850705 0.14082848 -0.14211664 0.025235128 -0.38089165 -0.074949466
-0.23527426 -0.16324563 -0.07385407 -0.12769158 -0.08605509 -0.21499638 0.037036456 -0.013294129
-0.15908067 -0.04999737 -0.07778877 -0.021948561 0.09160326 -0.18563686 -0.030196777 -0.0858309
-0.20532571 -0.09021483 -0.0025987122 -0.4269127 -0.12036141 0.14384402 -0.11454528 0.016279787
0.08143702 -0.01875167 0.1507144 -0.11964499 -0.10710595 0.04332227 0.010257066 0.11820356
-0.14004974 0.009247261 -0.042854443 4.239794e-05 0.1317215 0.10207913 0.14540993 0.06317379
-0.019096827 -0.04065565 0.12894167 -0.04728926 -0.13349313 0.16341637 -0.18476026 0.27333128
-0.086490124 0.26493865 0.10025219 -0.24277246 0.08704845 0.0053325044 -0.03889723 -0.014999635
0.0648835 -0.11765783 -0.1679399 -0.36868614 0.19016516 0.13990067 0.07749431 0.15838143
0.2512355 -0.15351766 0.04833028 0.079281785 -0.13371724 -0.056118306 0.24457513 0.012806002
0.16435912 0.20896329 0.10416566 -0.09622647 -0.033542283 0.23472549 -0.2131542 0.058131427
-0.09694549 0.2628986 0.10009372 -0.19166511 -0.110188626 -0.20797057 0.25270098 0.13977294
0.16271457 0.10407996 -0.013804897 0.30426213 -0.16204579 0.07060892 0.03566993 -0.123602726
0.1281452 -0.07006693 0.08345637 0.30068308 -0.25894144 -0.22438051 0.23362821 0.029079769
0.22715116 -0.11540733 -0.20214653 -0.12857138 0.12355991 -0.10448372 -0.20019281 -0.123100564
00000000: 8d18 c53d 041b 72be 9bf3 5fbd 8da2 5a3e
00000010: 94c1 77be f358 033c 804d 923b 0f06 333e
00000020: 98eb 353e 98da 4e3e 60fb 40bc ca10 803e
00000030: 55cf 243e 5d37 acbd 92bd 343e 6ef7 4ebe
00000040: 831e 82be 7b31 7e3e 5e49 533d 8e68 e53d
00000050: 9242 c43d c0b4 bd3d d337 81be dc61 443d
00000060: 7c95 753d c197 7abe 2b7e 923d 1af9 333e
00000070: 75ee 93bd b568 bfbd b673 a13d 001c e7bc
00000080: f490 5b3e 14db 0fbd a644 cdbd 72b0 c23e
00000090: ffc8 d3bc e729 283e 2bed 9dbe 786b 84be
000000a0: 5ff7 7dbe f038 22be 5ada 253e 4b5b 2abe
000000b0: 6602 c63d a7f4 e73d d0fa 0ebe 00af 943c
000000c0: 23f9 263e fb43 fa3d c93f c5bb 1750 3ebe
000000d0: a503 7b3e 8ccf be3d 4d22 72be eca8 353e
000000e0: f1d6 4fbe 1115 e23d d381 a13c 1a5e 573e
000000f0: dba1 113d cdfa 14be 7163 823e 54c9 0cbe
00000100: 7938 143d 38f6 123e 5fd5 3cbc 3951 213c
00000110: 2cc1 943d c557 21be c191 e53c 330b 6ebe
00000120: 62b0 debd a2d0 68bb 5a97 03be 5735 103e
00000130: 0687 11be e6b9 ce3c 3b04 c3be 1b7f 99bd
00000140: bceb 70be dd29 27be cd40 97bd 95c1 02be
00000150: a73d b0bd 0328 5cbe 8ab3 173d 9ecf 59bc
00000160: 0be6 22be 0bca 4cbd b84f 9fbd 78cd b3bc
00000170: 7d9a bb3d 9717 3ebe 3b5f f7bc 1cc8 afbd
00000180: e740 52be 8ec2 b8bd 284f 2abb 4d94 dabe
00000190: 0b80 f6bd d94b 133e b796 eabd 305d 853c
000001a0: 74c8 a63d 1a9d 99bc e054 1a3e 6f08 f5bd
000001b0: 5d5a dbbd b172 313d 410d 283c b514 f23d
000001c0: 3369 0fbe d381 173c 2488 2fbd 71d4 3138
000001d0: 00e2 063e dd0e d13d 57e6 143e 4361 813d
000001e0: f370 9cbc 8a86 26bd 4909 043e 62b2 41bd
000001f0: 6cb2 08be 9f56 273e cb31 3dbe 14f2 8b3e
00000200: bc21 b1bd 0aa6 873e 0551 cd3d 5899 78be
00000210: 7546 b23d 4abc ae3b b452 1fbd 07c1 75bc
00000220: a4e1 843d 97f6 f0bd 70f8 2bbe 6ec4 bcbe
00000230: a8ba 423e 1f42 0f3e 56b5 9e3d be2e 223e
00000240: f1a1 803e bc33 1dbe f9f5 453d 7d5e a23d
00000250: 2ced 08be 4fdc 65bd e771 7a3e 44d0 513c
00000260: c24d 283e 79fa 553e ce54 d53d 6212 c5bd
00000270: a263 09bd e15b 703e 1845 5abe 381b 6e3d
00000280: 5b8b c6bd a59a 863e f0fd cc3d dc43 44be
00000290: 93aa e1bd 3df6 54be 0662 813e a320 0f3e
000002a0: a69e 263e e027 d53d ef2d 62bc 3fc8 9b3e
000002b0: 55ef 25be 699b 903d a21a 123d 6d23 fdbd
000002c0: 7f38 033e 407f 8fbd 2ceb aa3d 22f3 993e
000002d0: f993 84be 01c4 65be 3c3c 6f3e b238 ee3c
000002e0: 509a 683e ae5a ecbd 80ff 4ebe 37a8 03be
000002f0: fa0c fd3d 90fb d5bd 58ff 4cbe 261c fcbd

advantage_stream.2.bias f4 [3]
-0.07883443 -0.07886505 -0.052324038
00000000: f273 a1bd 0084 a1bd bb51 56bd
